saved_models/lenet5.pth (torch, 181162 bytes, 10 tensors)

conv_layer1.weight f4 [6, 1, 5, 5]
000000 3f b5 64 bf 17 96 76 bf 2e fb 96 bf d8 eb 77 bf
       -0.8933906 -0.9632277 -1.1795404 -0.96844244
000010 08 d6 64 bf 40 2d 85 bf 74 a3 9b bf fb 92 8f bf
       -0.89389086 -1.0404434 -1.2159257 -1.121673
000020 28 f5 70 bf 90 17 69 bf 4e 50 6b bf 05 58 8b bf
       -0.9412408 -0.9105158 -0.9191941 -1.0886236
000030 60 74 7d bf dc f8 5e bf 8f 34 20 bf 7c 97 68 bf
       -0.990057 -0.8709848 -0.625802 -0.90856147
000040 28 56 4a bf d5 91 44 bf 6a 46 35 bf cc 57 03 bf
       -0.79037714 -0.7678502 -0.7081057 -0.5130584
000050 4c 40 3c bf c0 a8 24 bf f2 08 16 bf c7 0f b6 be
       -0.7353561 -0.6431999 -0.586074 -0.35558912
000060 21 e8 14 bf a3 fd 8e be ac 56 7b be 5e 51 a1 be
       -0.581667 -0.27927884 -0.24544781 -0.3150739
000070 60 0d 65 be e1 22 cc be c5 43 ba bd 7a d1 d9 be
       -0.22368383 -0.3987036 -0.09094957 -0.4254263
000080 e0 15 2e be a1 46 94 be 6f 86 b7 be 6a c3 88 be
       -0.17000532 -0.28960136 -0.35844752 -0.2671159
000090 e4 0b bf be 63 1a a0 be dc fe c9 be d7 f4 d0 be
       -0.3731376 -0.3127013 -0.39452255 -0.40811798
0000a0 c9 4e a3 be a2 a7 f1 be 7d 3a c3 be c0 38 96 be
       -0.31896046 -0.47198206 -0.3813056 -0.29340172
0000b0 e5 f5 84 be 49 e0 d4 be 14 a4 8b be 33 62 b1 be
       -0.25968853 -0.41577366 -0.2727362 -0.34645233
0000c0 f4 5c 7f be 2e b5 b7 be 2e 12 22 bf e5 e0 e7 be
       -0.24937803 -0.35880417 -0.6330899 -0.45288768
0000d0 88 bf 04 bf 5c 85 39 bf a5 e3 12 bf 44 95 d9 3d
       -0.51854753 -0.72469115 -0.5737861 0.10624173
0000e0 b5 58 02 3f 3f 5f 03 bf 44 12 19 bf dd d2 1d bf
       0.50916606 -0.5131721 -0.59793496 -0.61649877
0000f0 62 38 f9 be db 5a 35 bf af 64 e3 be 6e 88 d6 bd
       -0.4867583 -0.7084176 -0.44412753 -0.10475241
000100 7b 08 fc bd 61 9a 99 bf 75 cb e6 be ca d1 24 bf
       -0.12306305 -1.2000238 -0.450771 -0.6438261
000110 72 62 5f be e9 f7 88 3d 25 d1 85 bf 42 38 b7 bf
       -0.21814898 0.0668791 -1.0454451 -1.4314044
000120 33 2d a2 bf b2 4c 3f bf a7 28 33 bf 75 c3 f1 ba
       -1.2670044 -0.747264 -0.69983906 -0.0018445092
000130 28 43 90 3d e3 32 14 3e 3d 9e bd bd 54 e0 b0 3f
       0.07044059 0.14472537 -0.09258697 1.381846
000140 e2 48 90 bf df 66 16 bf 92 74 3d be 3a 61 db be
       -1.1272242 -0.5875072 -0.185015 -0.42847615
000150 31 9e 88 3d c0 b5 e5 bf 90 3f 47 be 04 48 af 3b
       0.066707976 -1.7946091 -0.19457841 0.005349161
000160 95 26 d3 be 96 04 b6 be 05 50 9c bf d3 4b 20 bf
       -0.41240373 -0.35550374 -1.221192 -0.626157
000170 d6 37 11 3e a1 22 3f bb 49 5c 46 bf 50 6f b1 3d
       0.14181456 -0.0029164928 -0.77484566 0.08663809
000180 da 89 4c bf a2 8b b3 bf bc 43 a7 bf d0 aa 22 bf
       -0.79897845 -1.4026988 -1.3067546 -0.6354189
000190 ee e4 61 3f 1a 80 db 3d 95 ca 05 bf da 71 1a bf
       0.88239944 0.10717793 -0.5226224 -0.60329974
0001a0 4e ac 23 bf eb ab 32 3f bd 4c 9b be 6f 26 97 be
       -0.6393479 0.69793576 -0.30331984 -0.2952151
0001b0 8d df ce be 03 93 01 bf ed df 2d 3e d8 60 e2 be
       -0.4040493 -0.5061495 0.16979952 -0.4421451
0001c0 6c 2e 0e bf 9b ad 1b bf cb 2d 0c be 74 5e 8b be
       -0.55539584 -0.60811776 -0.13689344 -0.272205
0001d0 a0 b6 13 bf df f1 35 bf 09 34 a0 be 61 f1 fd bd
       -0.5770054 -0.7107219 -0.312897 -0.12399555
0001e0 2b da b8 be af e7 b1 be e0 06 e4 be 17 a2 91 be
       -0.3610395 -0.34747073 -0.44536495 -0.28443977
0001f0 cc e9 ab be ea ac 3a be 50 a8 4c 3d f5 59 ab be
       -0.3357681 -0.18230024 0.049965203 -0.3346707
000200 de e9 e2 be 58 e9 af bf 34 b0 9a bc 84 65 55 be
       -0.44319052 -1.3743086 -0.018882848 -0.20839506
000210 17 7c d4 be 43 33 3a bf 85 bd a8 be 41 24 d7 be
       -0.41500923 -0.7273447 -0.32957092 -0.42019847
000220 a1 11 23 bc 97 8a e1 be 45 ab d1 be ed 9f 36 bb
       -0.0099529335 -0.44051048 -0.4095098 -0.002786632
000230 7b 7c 02 be 9a 82 11 bf d1 15 d5 be f7 0b 0e bf
       -0.12742798 -0.5683991 -0.41618207 -0.55487007
000240 d6 99 b4 be 37 12 59 bf 60 ae 47 be d5 4b 29 bf
       -0.35273618 -0.8479342 -0.19500113 -0.66131335
000250 f1 7b d3 be b3 2c 3f bf
       -0.41305497 -0.7467758

conv_layer1.bias f4 [6]
000000 da a2 97 ba b9 96 b4 bd ab 8d 1b bd 11 08 0c be
       -0.0011568919 -0.088178106 -0.037976902 -0.13674952
000010 0e 3d 63 3e 50 64 64 be
       0.2219126 -0.22303891

conv_layer2.weight f4 [16, 6, 5, 5]
000000 66 df 61 bc 64 56 6d bd f2 f7 9d bd 7c 54 14 be
       -0.0137861725 -0.057943717 -0.077133074 -0.14485353
000010 a7 b7 31 3c a1 9c 5c bd 69 c7 85 bd 96 33 2f be
       0.010847009 -0.05386031 -0.06532175 -0.17109522
000020 70 e4 9f bd da ab a1 bd 79 ae f2 bd d8 c0 8a bc
       -0.07807243 -0.07894106 -0.11849684 -0.016937658
000030 3a e2 a6 bd 1e f2 08 be cc a9 b4 bd 46 42 b2 bd
       -0.08148618 -0.1337361 -0.08821449 -0.08704047
000040 18 d9 5b bd e6 be e9 bd 1d fe e2 bd 66 6a 39 bd
       -0.053673834 -0.11413364 -0.110836245 -0.045267485
000050 02 e9 04 be ad 50 87 bd b5 12 56 bc 86 80 f6 bd
       -0.1297951 -0.066071846 -0.013065984 -0.12036233
000060 f8 54 4e 3c f7 46 69 3b 21 42 d7 bc 3e 23 d0 bd
       0.0125935 0.0035595277 -0.02627665 -0.10162972
000070 9f fa e9 bc 55 d1 e6 3b 01 9d 34 bc 17 da 49 bd
       -0.028561888 0.0070439973 -0.011023761 -0.049280252
000080 50 45 8a bd f0 91 12 bd 96 5f 1a bd 85 b6 95 bd
       -0.067515016 -0.035783708 -0.037688814 -0.073102035
000090 35 98 1a bb ba 5f 9c 3c c8 05 fb bc a2 14 ad bc
       -0.0023589258 0.019088615 -0.030642405 -0.021128003
0000a0 95 7f 1e bd de 7a 6c bd d8 f9 54 bc a6 ee 10 3c
       -0.03869589 -0.057734363 -0.0129990205 0.008845961
0000b0 38 61 9b bd 6f 93 7e bd 2a 96 a7 3c e2 2f 3a 3b
       -0.075869024 -0.062152322 0.020457346 0.0028409888
0000c0 5d 92 2c bc 95 5d 4b bd 1d f0 99 be 47 c6 b2 3e
       -0.010532943 -0.049649794 -0.30066004 0.349169
0000d0 8c 60 8b 3d 3d ab 57 3e 58 e2 de 3d a5 26 5b 3c
       0.06805524 0.21061416 0.108830154 0.013375913
0000e0 b0 ce ce 3e 93 f6 19 3f 12 40 9e 3e ef 47 b3 be
       0.40392065 0.6014187 0.30908257 -0.35015818
0000f0 69 cf 06 bf ad 53 1e bf 74 ab 8f be 0c 27 58 be
       -0.5266023 -0.6184643 -0.28060496 -0.21108645
000100 42 7f 7c 3d 3e 96 98 bd c9 dd bc be 81 af 89 be
       0.0616448 -0.074505314 -0.3688796 -0.2689171
000110 75 f8 31 be 1f 11 a8 3d b8 d9 ff 3d f8 4d 58 bd
       -0.17379935 0.082063906 0.124926984 -0.05280873
000120 7f 83 20 be cf 50 48 be df db ca bc 0f 12 67 bd
       -0.15675162 -0.19562076 -0.024763046 -0.056413706
000130 0f 40 18 be f0 95 e8 3d 92 b1 8a 3e bd 11 3e be
       -0.14868186 0.11356723 0.270886 -0.18561454
000140 bf 23 6d 3e 64 d2 cd 3d 36 45 14 bf 60 35 3a bf
       0.23158167 0.100498945 -0.5791811 -0.72737694
000150 ec 73 bd 3e 08 4e 85 be 4a 00 ac be 10 9d 0b bf
       0.37002504 -0.26036096 -0.3359397 -0.54536533
000160 c8 b3 08 3e fa fb ad 3e 53 af a7 be 62 b9 ee be
       0.13349831 0.33981305 -0.3275095 -0.4662581
000170 93 8a aa 3e 01 01 17 3e ad 9e 5c 3e 8e 7f 82 bd
       0.3330885 0.14746477 0.21544905 -0.063719854
000180 0d e2 25 bf 27 61 59 be 98 d5 9b be 76 47 20 be
       -0.6479805 -0.21228467 -0.30436397 -0.1565226
000190 76 0a 4e be 68 37 3f 3e f4 5f 39 3f e1 44 85 bc
       -0.20121178 0.1867348 0.7241204 -0.016268196
0001a0 11 3e 0b 3f 73 51 0a 3d 73 b6 ad be b5 36 a4 3d
       0.5439158 0.033769082 -0.3392826 0.08018247
0001b0 a3 1b af 3d 3c a8 03 bb 60 a4 d4 be 2c 0f 29 bf
       0.08550193 -0.002008929 -0.41531658 -0.66038775
0001c0 23 9a 36 bf 62 58 3d bf e5 17 e5 be 7a c2 3e be
       -0.71328944 -0.73962986 -0.44744793 -0.18628874
0001d0 5b e5 a8 be 92 84 da be d4 bc 70 bf 84 ce 5b bf
       -0.32987484 -0.42679268 -0.9403813 -0.8586199
0001e0 87 b6 94 3d f5 05 f9 3d f2 f5 dd bd e8 92 3c bf
       0.07261377 0.12159339 -0.10837926 -0.7366166
0001f0 f7 0b e1 be c3 0f ea bd b3 cd 24 3e a6 e2 9c 3e
       -0.4395444 -0.114287876 0.16094093 0.3064167
000200 69 ad 9d be f6 27 f5 be 94 d1 8b bf 0c 25 1f bf
       -0.30796364 -0.4788205 -1.0923333 -0.62165904
000210 17 eb 27 bf 28 b5 a0 3e de 45 1d 3f 04 8a a2 be
       -0.65593094 0.3138821 0.61434734 -0.31745923
000220 47 a7 08 bf 0b 11 92 3d 43 6f b7 3e 85 92 52 3e
       -0.53380245 0.07132157 0.35827073 0.20563705
000230 5a 0a 2e 3e 2d e2 2a be 31 db 1e bf a1 6b 8c bd
       0.16996136 -0.16687842 -0.6205321 -0.06856466
000240 79 fa 17 be 03 bc 62 be 44 b5 52 3e ab 75 b2 3b
       -0.14841641 -0.22142033 0.2057696 0.005446156
000250 71 c9 1b bd de 75 5b bd ea e6 28 bd 9d 0c 86 3b
       -0.038033906 -0.053579204 -0.04123584 0.004090859
000260 f9 78 a4 bd 52 88 bc bd 4d 09 39 bc ec 7c 64 3c
       -0.08030886 -0.092056885 -0.011293721 0.013945799
000270 b9 a1 e0 bd ad f3 44 bd 59 38 87 bc fa c8 5b bd
       -0.10968346 -0.04808395 -0.01650636 -0.053658463
000280 eb e1 12 3d 97 6d ea 3c 44 da a8 bd 30 01 42 bd
       0.035859983 0.02861671 -0.08244756 -0.047364414
000290 b7 93 b1 bd d6 fa 2d bd ef ad 4b 3b 17 8d 29 bd
       -0.086707525 -0.042475544 0.0031079014 -0.04139432
0002a0 af 08 e9 bd f8 93 c1 bd 9f 8d a9 bd e6 5d 0d be
       -0.113786094 -0.09452051 -0.08278965 -0.1380535
0002b0 df 5e 0e be 11 d3 9d bd eb 2c a8 3c b0 fa 5e bc
       -0.13903378 -0.07706273 0.020529231 -0.013609573
0002c0 3b be b3 bd 4a 72 cf bd e4 45 2e bc 72 1f ab bd
       -0.08776518 -0.10129221 -0.01063678 -0.08355607
0002d0 4b 2e 04 bd ce 74 9b 3b 7b 0b 9b bd a0 a3 04 bd
       -0.03227071 0.004744149 -0.07570549 -0.032382607
0002e0 f7 d1 34 bc 86 a0 18 bd 8b 80 96 bd da d4 fa bd
       -0.011036388 -0.037262462 -0.073487364 -0.122476295
0002f0 45 2e be bd 2b 55 44 bd 77 33 32 3d d4 5d ac bd
       -0.09286169 -0.047932785 0.043506112 -0.08416334
000300 95 69 da bd 3e cd 9b bc cb 8a e8 bb 0f e1 75 3b
       -0.106646694 -0.019018766 -0.0070966235 0.0037518179
000310 fe 96 a3 3c a8 63 3a 3c 43 ee ae bd 0f 76 b6 bb
       0.01996946 0.011376299 -0.085415386 -0.005568273
000320 3d 0c de bd 53 f6 55 bd 2b 6c b5 3d 6f 10 c3 3d
       -0.10842178 -0.052236866 0.08858522 0.09524619
000330 8d 10 95 be 1b 8e 3e be b3 2e 9b bc 5a 7b f3 3d
       -0.2911419 -0.18608896 -0.018943166 0.11888762
000340 c4 15 3c bd 36 22 25 be 2b f8 a3 bd a6 9f d7 bd
       -0.045919195 -0.16126332 -0.08006319 -0.105284974
000350 4f e2 25 be a5 f3 15 be d2 5e 1a bd 2d 08 97 bd
       -0.16199611 -0.14643724 -0.037688084 -0.07374606
000360 c9 0c 48 be 5d d2 27 be 04 53 48 be 82 a3 cb bc
       -0.19536127 -0.16388841 -0.19562918 -0.02485824
000370 5c 34 17 be b2 06 a0 bd 25 0b 9e bd a8 ba 74 bd
       -0.14766067 -0.07813777 -0.077169694 -0.05974832
000380 2f cf 8b 3d 76 fc 49 be 5d 36 0a 3e e8 75 dc 3c
       0.068266265 -0.19725212 0.134973 0.02691169
000390 79 f9 5e be 6a 36 0a 3e dd c4 89 bd b8 09 3e 3e
       -0.21774854 0.1349732 -0.06727002 0.18558395
0003a0 3a 78 6f bd fb 53 79 be 09 9f cc bd cf 99 de bd
       -0.058464266 -0.24348442 -0.09991271 -0.108691804
0003b0 a3 ce 8d bc 9a 30 08 be 6e 3e f0 bd 7e 91 13 be
       -0.017310446 -0.1329979 -0.117306575 -0.1441097
0003c0 0d dc 6f be 64 b8 83 bc 78 11 05 3d 8c 17 fe bd
       -0.23423786 -0.016079135 0.032487363 -0.12406835
0003d0 a1 0a c7 bd 15 dc 27 3d 37 2b d0 3d 30 87 9a 3e
       -0.09718824 0.04098137 0.101644926 0.30181265
0003e0 a6 3c 25 3d 17 94 18 be 1c 29 d6 bd b9 5d 05 bd
       0.040341042 -0.14900242 -0.1045706 -0.032560084
0003f0 bc 4b 39 3e b1 54 26 3f a2 1c 37 3e c4 05 3d be
       0.18095297 0.6497298 0.17882016 -0.1845923

conv_layer2.bias f4 [16]
000000 e2 cc 89 bb 34 ec 0b 3d fe 7f 25 3d f7 41 37 3c
       -0.004205332 0.034160808 0.040405266 0.011185161
000010 95 42 2a bd ee 6c 69 3d 9c 7c 35 3d 6d 40 e0 3b
       -0.041567404 0.05698865 0.04430829 0.0068436177
000020 a9 ff 1a bd ec 90 8a 3c 22 d5 2b bc 6e 71 8d 3d
       -0.037841473 0.016914807 -0.010487827 0.069064006
000030 bd 7a 61 3d f7 be ff 39 32 f5 df bb 1e 3c 1e 3d
       0.055048693 0.0004877967 -0.0068346495 0.03863155

fc_layer1.weight f4 [120, 256]
000000 57 8a 38 3c 69 e7 74 3d 60 bc f5 3c 1c 98 17 bd
       0.011263452 0.059791002 0.02999705 -0.037010297
000010 43 2e 44 bd 75 90 26 3c 4c 92 85 bd b9 44 e1 bd
       -0.04789568 0.010166277 -0.065220445 -0.10999436
000020 76 cb 0c be 4a a0 3d bd 4b d0 0f 3d c4 6c 3a be
       -0.13749489 -0.04629544 0.035110753 -0.18205553
000030 37 d7 ea bc c0 c6 15 bd 32 ac cd bd 2c 05 15 be
       -0.028667076 -0.036566496 -0.10042609 -0.14552754
000040 df 85 65 3d a1 27 c3 bc 16 a6 f4 bc 89 b3 10 3b
       0.056035873 -0.023822607 -0.029864352 0.0022079668
000050 b2 4c 36 3d c9 9b 9d 3c 31 39 0e 3d 17 81 ad 3b
       0.044506736 0.019239323 0.03472251 0.0052949297
000060 d4 26 44 3d e2 d3 1f 3d 35 52 32 3d 84 83 80 bc
       0.047888592 0.039020427 0.04353543 -0.015687712
000070 fd e3 61 bd 08 54 f4 bc db bd d5 3c ba 4a 1b 3d
       -0.055149067 -0.029825225 0.026091507 0.03791306
000080 6b b3 3a bd 88 6f 28 3c a3 b4 d0 bc 76 28 fd bb
       -0.045581263 0.010280497 -0.02547676 -0.0077257706
000090 a2 10 2e bc 38 d4 17 bd f6 59 fa 3c a6 f7 1e bc
       -0.010624083 -0.037067622 0.030560475 -0.009702599
0000a0 34 3f 7c 3c 6c 11 b1 bd eb 62 5d bd c4 2a 4a b9
       0.015395928 -0.08645901 -0.054049414 -0.00019280153
0000b0 84 80 0f 3d 14 3a 32 3c ac b8 a7 bb 3e c8 94 bd
       0.03503467 0.010878105 -0.00511845 -0.07264756
0000c0 89 48 aa 3d 63 87 a4 bd 0a 35 66 3c 82 c9 a4 bd
       0.08314616 -0.080336355 0.014050731 -0.08046247
0000d0 86 04 0a be af 12 1d be d7 91 f9 bd 17 54 02 3c
       -0.13478288 -0.15339158 -0.1218602 0.007954619
0000e0 14 ce 3c bd 4e e4 17 be 48 0c 2c bd 22 14 2c bd
       -0.04609497 -0.14833185 -0.0420039 -0.042011388
0000f0 a3 ee 64 be e8 98 94 bd 07 97 1b be bb 8c 0e be
       -0.22356658 -0.07255727 -0.15194331 -0.13920872
000100 b0 10 44 3d 3b 43 26 3c e1 9c 54 b9 e4 03 42 3d
       0.047867477 0.010147865 -0.00020276337 0.04736699
000110 eb f9 e9 bc 98 c1 9e 3b 2f 9d 56 3d 11 15 f4 3c
       -0.028561553 0.0048448555 0.052395996 0.029795201
000120 47 7c 1b bd e7 e3 c5 3c 45 7a 2a bd 78 2a 0c bd
       -0.037960317 0.024156524 -0.04162051 -0.03422019
000130 e4 9b 27 3d b0 68 1d bc e5 80 e6 bc 3d e2 9c 3b
       0.040920153 -0.009607479 -0.028137634 0.004787712
000140 75 6d 81 3c 4e a6 21 bd 6c 08 3c bd fa 27 71 bd
       0.015799263 -0.03946524 -0.04590647 -0.058876015
000150 1d fd 8a 3c 0c 30 26 bd 01 5c 93 3b 13 60 63 bc
       0.016966397 -0.040573165 0.0044970517 -0.013877886
000160 3f 5e 25 bd d9 7d a2 bc 55 ed 50 bd a0 63 06 bd
       -0.040373083 -0.0198354 -0.051007587 -0.032809854
000170 1e 6c 52 38 72 00 57 bd b0 81 61 bd c4 44 3a 3d
       5.0168594e-05 -0.05249066 -0.05505532 0.045475736
000180 15 ad 52 bd 6d fb a8 bd 17 fb 14 3d c6 77 df bb
       -0.051434595 -0.08251081 0.03637227 -0.006819698
000190 5c e6 c2 bd 04 03 fb bc 0f 37 54 bd b0 ab c2 bc
       -0.09516594 -0.030641086 -0.05181032 -0.023763508
0001a0 b9 61 df bc c4 8a 95 bd 2b ea 2e 3d 9c e9 05 be
       -0.027268277 -0.07301858 0.04270379 -0.13077396
0001b0 b0 91 4b 3d 06 e2 9d bd b7 78 0d 3d 69 eb 89 bd
       0.049699485 -0.07709126 0.03453895 -0.06734354
0001c0 f4 bc 16 bd f5 0b 15 3d 55 c6 9c bd 22 99 09 bd
       -0.036801293 0.036388356 -0.07655016 -0.033593304
0001d0 40 e4 5c bd c6 62 7a bc e5 32 61 3b 06 e5 7c 3c
       -0.053928614 -0.0152823385 0.003436261 0.015435463
0001e0 21 58 93 b9 99 d3 88 bd 3d d2 1d 3c 1e 73 d9 bc
       -0.00028103686 -0.06680984 0.009632644 -0.02654415
0001f0 b7 88 b3 3c b5 0a 90 bd 5e 76 97 bd 15 3f 9c bd
       0.021915777 -0.07033292 -0.073956236 -0.076292194
000200 74 50 75 3d 18 54 f8 3b 31 bd 3c bd dc 63 c6 3b
       0.05989118 0.007578384 -0.046078864 0.0060543846
000210 a1 42 e0 bc 16 80 b5 ba 53 8b 54 3c 6d 0d 0e bd
       -0.027375521 -0.0013847377 0.012972671 -0.034680773
000220 08 d1 20 3c aa f7 36 bd 64 3c 13 3c f0 1c 6b bd
       0.009815462 -0.044669785 0.008986566 -0.057400644
000230 84 ea 13 3c a8 d3 58 3d 1f 79 4c 3d ff 4e 9e 3c
       0.009028081 0.052936226 0.049920198 0.019324778
000240 b0 2f 29 3d 40 b6 05 3d 74 73 c1 bc e1 9c c3 bc
       0.041305244 0.03264451 -0.023614623 -0.023878517
000250 a9 1b 67 3b ec e9 90 3c a7 dd 47 bc 5d 27 b0 bd
       0.003526429 0.017689668 -0.012198842 -0.08601258
000260 9b 2f 10 bc 5a 56 96 bd 79 3a 1e bd 56 8f e2 bd
       -0.0088004125 -0.07340689 -0.038629983 -0.110624954
000270 13 2a 35 3c b6 4a 64 bd 73 02 0c bd 31 1c fa bc
       0.011057395 -0.055735312 -0.034182023 -0.03053102
000280 cb 5c f3 bc f9 9d e6 3c da 7b e1 3b b1 82 85 bd
       -0.029707333 0.0281515 0.0068812193 -0.06519068
000290 21 31 68 3d a0 7d 00 3d 11 29 92 3c 02 c9 9d bc
       0.056687478 0.031369805 0.017841848 -0.019260887
0002a0 ca b7 8b 3c e6 54 56 bd d1 34 3c bd e1 75 8b 3c
       0.01705541 -0.05232706 -0.045948807 0.017023982
0002b0 ae 47 94 3c 3e 4f 24 3c a7 ce a7 bd 1f 40 09 3d
       0.018100586 0.010028658 -0.08193713 0.033508416
0002c0 31 e6 20 bd 00 38 f5 3c 8c 89 c0 3c cc ea 17 3c
       -0.039282028 0.02993393 0.023503087 0.0092722885
0002d0 72 a5 22 3d e3 ba a2 3b e4 1d 07 3b b8 18 15 bd
       0.039708562 0.0049661263 0.0020617181 -0.036400527
0002e0 c1 78 23 3d c4 05 2a bc e0 56 91 3c e4 90 61 bc
       0.03991008 -0.010377351 0.01774162 -0.013767455
0002f0 5c 61 a6 3c 76 04 b8 3c fd dd 8c bd 5a 76 3a 3d
       0.020310096 0.022463065 -0.068782784 0.045523025
000300 13 cb aa bd 95 d9 28 be 54 3f 15 be aa e6 3b bd
       -0.083395146 -0.16489251 -0.14574939 -0.045874275
000310 d9 5f d3 bd 15 bd 82 bc 6e db ba bd 86 d0 12 bd
       -0.10321016 -0.015959302 -0.09123884 -0.035843395
000320 8a be 2a be d3 09 00 be 8e f2 34 bd f1 de 45 bd
       -0.16674247 -0.12503748 -0.04417663 -0.048308317
000330 df 47 86 bd e6 9c 0f 3b df e1 49 3d 69 6e 31 be
       -0.06556677 0.0021913587 0.049287673 -0.17327274
000340 aa 21 22 bd d1 f3 b3 bd 5f 1d 3c bc 9b 9c 89 bd
       -0.039582886 -0.08786739 -0.011481612 -0.06719323
000350 7b e1 25 bd 15 d7 35 bd c1 81 ff bd a6 a7 9d 3c
       -0.040498238 -0.04439457 -0.124759205 0.01924498
000360 e4 01 80 bd 33 a3 a4 bd 19 a9 b8 bd 90 26 37 bd
       -0.062503606 -0.0803894 -0.09016628 -0.04471451
000370 56 49 70 bd ec f4 f2 bd 22 35 0c bd 8c fd a4 bc
       -0.05866369 -0.118631214 -0.03423036 -0.020140432
000380 a8 69 3e 3d 30 09 f7 3c ae ca b0 3c b4 89 b7 3c
       0.04648748 0.030155748 0.02158102 0.02240453
000390 bd fe cc bb e5 85 1a 3d eb 74 05 3d 3a b2 68 bd
       -0.006255953 0.037725348 0.032582205 -0.056810595
0003a0 99 2f b4 bd 6d ec 5d bd dd 89 bf bc c1 5b bf bc
       -0.08798141 -0.05418055 -0.023381168 -0.023359181
0003b0 96 71 c7 3b ec 1c 81 3c f8 a5 20 bd 7e 7d 66 bd
       0.0060865385 0.015760861 -0.03922078 -0.056272022
0003c0 37 82 2f bd de d5 86 3b 74 69 38 bd 15 ca 3d bd
       -0.042848792 0.0041148504 -0.045022443 -0.0463353
0003d0 5e ec 4f 3d 5c 5f 12 bd 8a 26 12 bd 2f cc 26 3d
       0.050762527 -0.035735473 -0.035681285 0.04072207
0003e0 a1 24 e0 3c a2 52 10 bd 1b eb 94 3c 0c ad e0 3c
       0.027361216 -0.035235055 0.018178513 0.027426265
0003f0 e0 59 74 bd 85 71 27 3c 5b fa 2c 3c 35 b7 ef bb
       -0.059656024 0.010219936 0.010557736 -0.007315541

fc_layer1.bias f4 [120]
000000 7c 24 bd bb e2 2c 2a bd 31 32 19 3d 06 06 7d 3d
       -0.0057721715 -0.04154671 0.037401382 0.061773323
000010 eb ad 84 3d 0e dc 33 3d b0 a3 8f bc 00 38 e9 bc
       0.06478485 0.043911032 -0.017534107 -0.028469086
000020 1f ba 1f 3d fa 76 35 3d 82 c8 c1 bc c8 b1 29 3d
       0.03899586 0.044302918 -0.02365518 0.04142931
000030 3d 9e fb bc 47 ee b7 bc b7 aa 49 3d 2e 57 64 3d
       -0.030715102 -0.022452487 0.049235072 0.055747204
000040 06 4c 6e bd 12 0e 3f 3d 88 08 5b 3d b5 aa 5b 3c
       -0.05817797 0.046644278 0.053474933 0.013407399
000050 fe 45 aa 3c 65 3f a8 3c 49 72 a4 39 f9 be 10 3d
       0.020785328 0.020538041 0.00031365667 0.035338376
000060 35 96 3a bd e2 0e 89 bc 30 f1 a6 bc f3 f9 e5 3c
       -0.045553405 -0.01673073 -0.020378679 0.028073287
000070 1c f2 19 bd 89 b4 a9 3c 89 ee f9 bc fc 14 29 3d
       -0.03758441 0.020715969 -0.03050925 0.041279778
000080 cc a6 30 bc 71 b3 36 3c ee a8 89 3c 43 5f 91 3c
       -0.010781955 0.011151181 0.016804185 0.01774562
000090 21 c4 bb 3c cd e2 2a 3d e7 16 c6 bc 2e aa ac bc
       0.02292067 0.0417202 -0.024180843 -0.021077242
0000a0 16 0a 8e 3c df 77 6f bd a1 1a 55 3c d2 6d c2 3c
       0.017338794 -0.058463927 0.013006837 0.023734007
0000b0 0a fe 6a 3d 2b 77 fa 3c 0a 45 20 bd 28 69 50 bd
       0.057371177 0.030574402 -0.03912834 -0.050881535
0000c0 e0 c1 89 bc cb 84 6e bd 17 27 71 39 ae c8 03 3d
       -0.01681608 -0.05823211 0.00022998113 0.032173805
0000d0 b6 1a 0d 3d 5f 00 77 bd 49 b9 8e 3c 9f e2 c4 bc
       0.0344493 -0.06030309 0.017422335 -0.024033843
0000e0 38 ad 01 bd dc 35 61 bd 6a ea 9f bc 1f 9d 0f bd
       -0.031659335 -0.054983005 -0.019520957 -0.03506195
0000f0 a1 70 fb bc f1 74 40 3d d7 9a 30 ba 79 37 d4 3c
       -0.030693354 0.046986524 -0.000673694 0.025905358
000100 2e 70 cf bc be 82 18 3d 03 12 37 bd 3c fd 10 bc
       -0.025322046 0.03723406 -0.04469491 -0.008849438
000110 25 5e 2c bd c7 67 26 bd f3 bd b5 bc 90 5a 55 bd
       -0.04208197 -0.040626314 -0.022185301 -0.05208832
000120 a1 4e f1 bb 9a 1e 83 bd 51 35 68 3a 0e fb a7 3b
       -0.0073641096 -0.06402321 0.00088580424 0.0051263636
000130 36 f9 28 3d b5 c8 60 bd 73 c9 8b bc 7a be 87 bc
       0.04125329 -0.05487891 -0.017063832 -0.016570318
000140 0f 37 6c bd b7 60 12 3d df 60 10 3d bd 13 ed 3c
       -0.057669695 0.035736766 0.035248633 0.028940076
000150 af 1c 05 bc 0d b7 c2 bb 29 36 f7 3c 7c 90 f2 bc
       -0.0081245145 -0.0059422315 0.030177193 -0.029609911
000160 03 98 62 3c 70 94 44 3c 71 34 71 bd 30 2e 1d bd
       0.013830188 0.011998281 -0.058887903 -0.038374126
000170 b9 1d 1f bd d7 77 44 bd e3 c4 fd 3c b3 53 d2 bc
       -0.038846705 -0.04796585 0.030977672 -0.025674677
000180 86 f4 8c bc ef 6f 96 bd bb 7f 3a 3d 89 b9 81 bc
       -0.017206442 -0.073455684 0.04553197 -0.01583554
000190 09 37 7c 3d 68 95 50 3d 82 9a 96 bc a1 6e 39 3c
       0.061575923 0.050923735 -0.018384222 0.01131788
0001a0 3f 4f e4 3c 8e 80 7b 3d ed a5 b5 bc d5 08 a7 bc
       0.027869819 0.061401896 -0.022173846 -0.020389954
0001b0 6e d7 8f 3d 0b 8c e9 3c 90 26 22 bd d8 65 88 3c
       0.07023512 0.02850916 -0.039587557 0.016650125
0001c0 f5 78 67 bd 9a 76 b9 3b 95 47 80 3c 45 1f c9 bc
       -0.056511838 0.0056598904 0.015659133 -0.024551043
0001d0 fe 98 b4 bc af 4f 0f 3d 16 d0 8c bb 65 d3 5f bd
       -0.022045609 0.0349881 -0.0042972667 -0.05464496

fc_layer2.weight f4 [84, 120]
000000 91 68 cc 3d 83 0e 1a 3d d1 13 fa bd c7 76 38 be
       0.09980882 0.037611496 -0.12210811 -0.1801406
000010 4b 44 23 3c bd 94 dc 3d 21 23 10 bb af d8 f7 bd
       0.009965013 0.10770557 -0.0021993595 -0.12101876
000020 2b 4e aa bd 98 ec 02 be cd 00 6c bd 83 e9 9a bd
       -0.083156906 -0.12785566 -0.05761795 -0.0756407
000030 9c 1c 65 be 9d b8 df bd 09 49 ee 3b da 2e c2 bd
       -0.22374195 -0.10923884 0.00727189 -0.094815925
000040 53 bd ae bd ba 25 da bd a7 a4 5d be 15 1b 07 be
       -0.085322045 -0.10651727 -0.21644841 -0.13193925
000050 48 82 08 3e 38 2f 4b bd 53 ba 5c bd cf 7b 5c 3d
       0.13330948 -0.04960558 -0.05388863 0.05382901
000060 16 7f 49 be 3b 6b 3e be 4d 33 81 3d d4 aa 16 be
       -0.19677386 -0.18595593 0.06308613 -0.14713603
000070 8c e4 0b bc 7e 69 13 bc 76 38 ce bd 00 84 09 3c
       -0.008538377 -0.008997319 -0.10069363 0.008393288
000080 97 36 f7 bd e4 31 1b bd f9 74 c4 3c d4 6d 78 bd
       -0.12070959 -0.037889376 0.023981558 -0.060651615
000090 97 a6 6b bc ce 6c d3 be b3 79 11 be 1c 09 f6 bd
       -0.01438298 -0.4129395 -0.14206581 -0.12013456
0000a0 92 a7 b3 3d 69 e9 e9 3d 32 b2 e1 bb 04 ab 18 3d
       0.08772196 0.114214726 -0.0068876976 0.03727247
0000b0 c3 8c e5 bd 0b e1 14 be 81 05 77 bd 14 c9 c7 be
       -0.11208489 -0.14538972 -0.060307983 -0.39020598
0000c0 bf 1e 32 be 56 6a cb bd ea 78 0d 3d 71 e3 09 bd
       -0.17394541 -0.09932391 0.03453914 -0.03366417
0000d0 50 03 c1 3d 2e 9c e1 3c 3b 52 80 bd d6 56 d9 bb
       0.0942446 0.027540293 -0.06265684 -0.006632666
0000e0 22 46 0a 3e ff 9a 31 bc e2 38 ac 3d d6 c2 d3 bd
       0.13503316 -0.010840177 0.08409287 -0.103398964
0000f0 87 47 83 be 3a 4f 82 bd 54 cf f3 bd 2b ee dc bd
       -0.2564051 -0.063627675 -0.11904779 -0.107876144
000100 c2 49 7f be a3 b1 7e bd fe cf 1c 3d 47 01 82 bd
       -0.2493048 -0.062181126 0.038284294 -0.063479
000110 36 86 1e bd e0 fa 01 be 30 52 2a bd c9 6d 31 be
       -0.038702212 -0.12693357 -0.041582286 -0.17327036
000120 5b 01 77 3d b5 6c 25 3c 8e 10 52 3c 66 68 36 be
       0.060304027 0.010096719 0.01282133 -0.17813262
000130 44 18 37 be 0e 3a c7 3d 0f 05 59 bd 11 4d e9 bd
       -0.1788035 0.0972787 -0.05298334 -0.113916524
000140 4c aa 35 be c8 c2 78 3d 8c 2b e3 bc ce cf a5 bd
       -0.17740744 0.060732633 -0.027730726 -0.08096276
000150 c7 20 af 3d 8e a6 18 3e 20 f6 13 3d 41 0e 4d bd
       0.08551174 0.14907286 0.036123395 -0.05006242
000160 5a 7f 02 40 61 54 35 3e 8b 90 22 3e 54 4c 91 bd
       2.039023 0.17707969 0.15875451 -0.070946366
000170 91 6a 1f be b0 3e 0c 3e af 24 05 be 3d 6f 97 be
       -0.15567996 0.13695788 -0.13002275 -0.29577056
000180 f4 ae 2d be 70 58 9a bd 2e 3a 6c 3d 33 fd f2 bc
       -0.1696127 -0.07536399 0.057672672 -0.02966175
000190 37 f0 1a bd ba 6a 2f bc ef 48 a9 bd 3b ff 0c be
       -0.037826743 -0.010706598 -0.08265864 -0.13769238
0001a0 4e aa c3 bd 60 d5 77 3d fb 4b c3 bd d0 37 8a be
       -0.095539674 0.060506225 -0.095359765 -0.26995707
0001b0 43 7c 8c 3d 27 57 70 3d c8 24 af bd 58 0a 94 be
       0.068596385 0.058676865 -0.08551937 -0.28914142
0001c0 49 41 58 3d ad 49 7e be 30 12 c4 be 67 84 ef bc
       0.052796636 -0.24832793 -0.38295126 -0.029237939
0001d0 b7 af 29 bd e2 30 83 bc 59 32 e7 bc 45 55 18 3d
       -0.04142734 -0.01601452 -0.02822225 0.037190694
0001e0 5c 0e dd bd 7b 88 46 3d bc 3d 24 be a1 7f 3f be
       -0.107937545 0.04847 -0.16039175 -0.1870103
0001f0 3e ce a0 3a 7a f6 ca bd 2b 43 46 bd 94 9e 14 bd
       0.0012268496 -0.09910293 -0.0484039 -0.036284044
000200 0b 81 1c be 77 0e ba bd 85 fa 11 be 13 5f 14 3e
       -0.15283601 -0.0908479 -0.14255722 0.14489393
000210 57 d8 71 be 2d 52 18 be d8 f6 57 3d f6 4a 49 3d
       -0.23617683 -0.14875098 0.052725643 0.049143754
000220 8a b6 b6 be 3c 7c 12 be b7 df 1d be 53 fb 4f be
       -0.3568614 -0.14305204 -0.15417372 -0.20310716
000230 5f c9 9f 3c 6a b9 78 be 57 84 81 39 ed a9 0c be
       0.0195052 -0.2428948 0.00024703398 -0.13736697
000240 eb 6b 1c be cb 01 21 be f9 7e 8f bb cc f2 20 bc
       -0.15275542 -0.1572334 -0.00437915 -0.009823512
000250 87 1a c0 bd 3b 5e dd be 19 0a c9 be ee a8 92 bd
       -0.0938006 -0.43235955 -0.39265516 -0.07161127
000260 d7 99 8e bd 2a 01 b1 bb 82 02 37 be 6d a0 a4 bd
       -0.06962936 -0.00540175 -0.1787205 -0.08038411
000270 f4 93 b6 bd f1 ed f6 be eb 06 ca bd 68 26 b2 bd
       -0.089149386 -0.4822841 -0.09864601 -0.08698732
000280 83 81 1c be 94 fc bb bd d2 67 26 3b f6 f0 9e 3c
       -0.1528378 -0.09179035 0.0025391472 0.019402009
000290 ec 07 ce 3d 1e 38 22 be a5 34 1f be dd 7c 61 bf
       0.10060105 -0.1584172 -0.15547426 -0.8808115
0002a0 82 84 e3 bd 1b ef b6 3c 00 02 13 3d 75 2c a4 bd
       -0.11109258 0.022330811 0.03589058 -0.08016292
0002b0 d9 c2 0b be 2a 4c 06 bd ac 96 ca bb c7 ee 3f bd
       -0.13648547 -0.03278748 -0.0061825123 -0.046858575
0002c0 18 ce 50 be fc 3c 2f bd 97 62 9d bb 84 e0 90 bf
       -0.20391119 -0.04278277 -0.0048030126 -1.1318517
0002d0 fc 87 5f be 8f c7 7f bb 13 03 5a bc 26 fc ec bd
       -0.21829218 -0.0039028858 -0.013306397 -0.11571531
0002e0 dd 4e 64 be 0e f8 83 bd 03 c0 90 3d 27 59 8b 3d
       -0.22295709 -0.06443797 0.07067873 0.06804114
0002f0 f0 15 3a bc 5f f4 c0 bd d1 af 7f bc 60 85 45 be
       -0.011357769 -0.0942161 -0.015605883 -0.1928916
000300 8d b9 df bc 84 6b 99 3d 70 34 39 be b8 ba d1 3e
       -0.027310157 0.0749121 -0.1808641 0.40962768
000310 c8 09 ca bd 1d 4a cd bd 0d c5 84 3c 03 b9 2a bd
       -0.09865147 -0.100239016 0.016207242 -0.041680347
000320 56 6c 65 bd 6c 61 56 bd 6b d2 9d ba db 39 1c 3c
       -0.05601152 -0.052339002 -0.0012040859 0.009535278
000330 ad 89 9c bd 02 aa 81 be 17 cc 6f be 97 8a 1c be
       -0.07643447 -0.25325018 -0.23417698 -0.15287243
000340 52 92 13 be eb 4c 8c be f4 e9 1b be e4 20 83 3b
       -0.14411286 -0.27402434 -0.15225965 0.0040017236
000350 ef 7c ba bf 53 8b 30 be 52 b6 b9 bd 67 0b 1f be
       -1.4569377 -0.17240648 -0.09067978 -0.15531693
000360 55 7a 80 be f2 42 9e bd 86 ea 84 be ef 9a 61 bd
       -0.25093332 -0.077276126 -0.25960177 -0.055079397
000370 cc 7b 38 be 5a bf 8d 3d 81 a2 61 bd 2f 65 d0 bd
       -0.18015975 0.06921263 -0.055086616 -0.10175549
000380 7d 1b 6d 3d 35 08 98 bd 9c ad 11 be aa d7 c8 bd
       0.057887543 -0.0742344 -0.14226383 -0.0980676
000390 e8 fc 83 3d bf 7b 87 3c 35 94 b4 bd 06 15 2f be
       0.064447224 0.016538499 -0.08817331 -0.17097864
0003a0 ba be a3 bd 72 2f 46 be 78 25 ce bd ee a4 87 bd
       -0.079953626 -0.19354036 -0.1006574 -0.06623255
0003b0 43 d4 d2 bc 47 98 97 bc 9c 68 b1 bf ae 09 a6 bd
       -0.02573598 -0.018505229 -1.3860049 -0.08107315
0003c0 47 0a 99 bc 94 e7 38 bd fa e1 04 be 24 be 7e bd
       -0.018681658 -0.045142725 -0.12976828 -0.06219305
0003d0 06 93 51 bd ce ae 0c bd 00 a4 b2 3c c2 54 67 bd
       -0.051165603 -0.034346394 0.021806717 -0.056477316
0003e0 17 81 75 bd 2b f4 68 be f5 bd e9 bd bb a0 ac 3c
       -0.059937563 -0.22749393 -0.114131846 0.021072736
0003f0 8d 7b c5 3c 71 aa 29 bd 40 1f 52 3d 2c 04 6b be
       0.024106765 -0.04142231 0.051299334 -0.2295081

fc_layer2.bias f4 [84]
000000 35 a8 06 3e 21 55 9d 3d 00 37 13 3d c1 32 f0 3d
       0.13150103 0.07682253 0.035941124 0.117284305
000010 93 e6 13 bc 7b a0 1e bd 03 4b 38 3e 8d b0 a8 bd
       -0.009027141 -0.038727265 0.17997365 -0.082367994
000020 a0 2c 79 bd 5a 3d 27 3d 1f 55 43 bd 61 38 92 bc
       -0.060833573 0.040829994 -0.0476886 -0.01784915
000030 9f 21 19 bd 04 65 ba 3d b1 ef b3 bd f1 9b 9b 3d
       -0.03738558 0.091012985 -0.08785952 0.07598103
000040 6b 20 5e bd 64 c3 ad bd 85 7c 2e bd f8 6a c1 bd
       -0.054230135 -0.084845334 -0.04259922 -0.09444231
000050 b3 e4 de 3d 91 cc a7 3d 9e b5 cc 3d 58 cf 39 bd
       0.10883465 0.08193315 0.09995578 -0.045363754
000060 78 68 8c bd dc ea 40 3d 8d bc 71 bd 54 0f 48 3d
       -0.06855863 0.04709898 -0.059017707 0.048842743
000070 58 9a c7 3c 6f c7 fe bb e1 79 52 bd 9b 80 86 bd
       0.024365589 -0.007775239 -0.051385764 -0.06567498
000080 32 7b f5 3c 5c fb a6 bd 7e 45 0c bb 7a fb 6c 3d
       0.02996597 -0.08153412 -0.0021403725 0.057857014
000090 e6 03 f8 3c 3b d5 86 bd bf 3c 0b bd c7 e1 30 3d
       0.030275296 -0.06583639 -0.03399348 0.043184068
0000a0 7e 6a 58 bc 67 8f ac bd f7 70 3f bd 1b 7b 26 bd
       -0.0132089835 -0.08425789 -0.04673859 -0.040644746
0000b0 a9 bd 81 bc 07 17 85 bd e4 76 cd 39 d2 a6 5f bd
       -0.015837507 -0.06498533 0.00039189227 -0.05460245
0000c0 16 ca 72 bd ae c2 72 3d c4 4e 3b bd cd 8c 65 bc
       -0.059274755 0.059267692 -0.045729414 -0.01401062
0000d0 3f 29 90 bd c1 e7 ff bc d8 69 86 3d 20 14 58 bd
       -0.07039117 -0.031238439 0.06563157 -0.052753568
0000e0 e5 1f c9 bd 05 cc a3 bd d3 4a 49 bd df 93 08 bd
       -0.098205365 -0.07997898 -0.049143624 -0.033344146
0000f0 01 49 a4 3e d1 58 15 bd 0b a9 fb 3c 40 1e 8c bc
       0.32086948 -0.036461655 0.030720254 -0.017104268
000100 2f 74 b0 bc 80 76 80 bb 5b bc a7 3d 09 fe e4 bd
       -0.021539776 -0.0039203763 0.08190223 -0.11181266
000110 4d 5c b1 3d e1 3a 94 bd dc 25 80 bd 4b 98 04 3d
       0.08660183 -0.07237793 -0.06257221 0.0323718
000120 e4 6c b1 bd db 04 a2 bc 3e 96 bf bd fc 56 08 be
       -0.08663347 -0.019777706 -0.09354828 -0.13314432
000130 e7 3b ac 3c dd b7 e8 bb 6f 50 2d 3e 7e 3f 2d bd
       0.021024657 -0.0071019963 0.16925214 -0.04229688
000140 50 ac 53 bd 86 3f ba bc aa 32 9d 3d e4 07 9d bc
       -0.051678002 -0.022735368 0.07675679 -0.019168802

fc_layer3.weight f4 [10, 84]
000000 1e 6a 8d bd 73 7d ba 3c 12 ee 9b 3d 85 e3 6c bd
       -0.06905006 0.022764897 0.07613768 -0.057834167
000010 a2 23 8e ba e4 53 18 3e 88 6b df bd 7d 68 9e 3d
       -0.001084436 0.14875752 -0.10909182 0.07734773
000020 9d 98 05 3d 33 9c d6 bd d2 fb 10 be ba c4 77 bd
       0.032616246 -0.104790114 -0.14158562 -0.060490347
000030 db 08 ad bd 8d d2 09 bb fc 4b 7d bd de 62 41 bb
       -0.08448955 -0.002103004 -0.061840042 -0.0029508392
000040 72 47 5d 3b a9 89 ab 3b 8d 93 13 be 9f 00 22 be
       0.0033764509 0.005234916 -0.14411755 -0.1582055
000050 e4 d2 08 be 17 ad ee 3b 55 16 0d be a3 3a 2d bc
       -0.13361698 0.0072838175 -0.1377805 -0.010573062
000060 0d 22 3f 3d 48 0a 11 be 31 78 e4 3d ce 60 09 be
       0.046663333 -0.14164078 0.11155737 -0.13415834
000070 01 3f 0f be 46 d2 2f bd 33 de d0 bc 98 af 03 be
       -0.13988878 -0.04292514 -0.025496578 -0.12859952
000080 c4 11 07 be d9 93 05 3e d9 d0 03 3e 67 b1 aa bd
       -0.13190371 0.1304468 0.12872638 -0.08334618
000090 75 4c 27 be b2 db 94 bd 3a a3 78 bd d1 9f 87 3d
       -0.1633776 -0.07268466 -0.06070254 0.066222794
0000a0 dd 7f 70 bd c7 43 7c be e4 27 22 bc 3f b3 ec 3d
       -0.05871569 -0.2463523 -0.009897206 0.11557626
0000b0 55 2d 32 bd a3 12 44 bd 3d 15 bb 3c ae 53 0f bc
       -0.043500263 -0.047869336 0.022837276 -0.008747978
0000c0 22 18 3c bc 3f 08 b2 bb d0 51 3d 3b e1 cb 03 be
       -0.011480363 -0.005433112 0.0028887875 -0.12870742
0000d0 e5 d7 c2 3d 79 01 ff bc 13 f8 18 3d 14 38 e6 bd
       0.09513835 -0.031128632 0.037345957 -0.11241165
0000e0 8a 8a 0b 3d 57 44 80 bc c6 53 4b be e3 d5 2b bd
       0.034067668 -0.015657587 -0.19856176 -0.041952025
0000f0 d9 38 22 3b 45 39 ad bd 7d b8 51 bd 39 06 0f 3e
       0.0024753122 -0.08458189 -0.051201332 0.13967218
000100 ff 3c 2e bc e5 0e 32 be 00 f2 eb bd cd f8 ac 3e
       -0.01063466 -0.17388494 -0.11520767 0.3378357
000110 7d d8 67 3d c1 db 32 3d 6e cd ce 3c e0 f2 fd bc
       0.056602944 0.043666605 0.02524444 -0.0309996
000120 4c 35 8b bd 1f 20 5a 3e f9 fe ba bd b0 e7 c1 ba
       -0.06797275 0.21301316 -0.091306634 -0.001479378
000130 63 e9 97 bc 1d 58 5b 3d 72 3c 32 bd d1 7d 8c bd
       -0.018543905 0.05355083 -0.043514676 -0.06859935
000140 26 ba 0f be 2b 19 c5 bd 77 c9 82 bc ec ab c4 bd
       -0.14035854 -0.09623941 -0.015965207 -0.09603104
000150 f6 8a 12 3e c5 57 34 3d c7 ef 2b bd 58 19 80 bc
       0.14310822 0.044029016 -0.041976716 -0.015637085
000160 0b 24 51 3c c1 cd 3a 3d 22 28 05 3e eb 87 03 bd
       0.012764941 0.04560638 0.1300359 -0.032112043
000170 10 ea 86 3d 11 23 6c 3b ba 77 f9 bd 0d fd 0f bf
       0.06587613 0.0036031643 -0.12181039 -0.562455
000180 95 6f 46 3d d6 93 aa bd 85 0d 9d bd 9f 09 23 3e
       0.048446257 -0.08328979 -0.07668594 0.15921639
000190 ef 96 29 3e 9b 86 ae 3c 08 b3 e7 bd e6 ef 6d 3d
       0.16561483 0.02130442 -0.113134444 0.058090113
0001a0 ae 73 ed bc 5b 67 93 bc 19 29 a9 3c 73 94 a9 bd
       -0.028985824 -0.01799362 0.02064948 -0.082802676
0001b0 62 5b 03 3b c3 e0 60 bc 61 93 0a 3e 59 ec 88 3c
       0.0020043482 -0.013725462 0.13532783 0.016714262
0001c0 30 98 2f bd 48 08 f7 3d f5 49 c5 3c a1 56 4b bf
       -0.042869747 0.120621264 0.024083117 -0.7942906
0001d0 2d bd 07 3d 75 be d8 3d b2 0e 77 3e 20 10 18 3c
       0.033139396 0.10583202 0.241267 0.009281188
0001e0 f3 a7 21 3d 8a 5b c5 bd 39 9a b7 3d 65 be 27 3d
       0.03946681 -0.096366 0.089649625 0.04095306
0001f0 12 81 9f 3d e0 0b 88 3c 95 7c e7 bd 34 36 69 bd
       0.0778829 0.016607225 -0.11303059 -0.056936458
000200 db 74 31 3e 39 d3 08 3d 50 c7 ce 3d 14 41 0c 38
       0.17329733 0.033404563 0.100966096 3.343921e-05
000210 71 46 9c bb dc c2 ea 3d 54 57 dc 3c 2a 6a 10 bd
       -0.0047691395 0.11462948 0.02689711 -0.035257496
000220 e3 15 04 bc 6d 41 92 3c ca 4f 1c 3d 6b 32 cc 3c
       -0.008061859 0.017853463 0.03816203 0.024926385
000230 d9 d1 c8 3b bf 81 79 3d 12 95 e1 bd 2a b3 7b bc
       0.0061285314 0.06091475 -0.11014761 -0.01536254
000240 ab c4 bc bd d1 aa 0b 3e 87 46 2b bd d5 c5 77 3e
       -0.09217199 0.1363938 -0.041815307 0.2419656
000250 94 4c d2 3c 3f 70 10 bd 0a 97 88 bc b6 92 c7 bc
       0.02567128 -0.035263296 -0.016673584 -0.02436195
000260 b1 d2 d7 3d 6f b2 e8 3d c8 1c 5b 3d 97 03 eb bb
       0.10538233 0.113621585 0.053494245 -0.007172059
000270 82 eb ca bc 8c ba d0 bd 2d ff e9 3c c2 51 58 bd
       -0.024770502 -0.10191831 0.02856406 -0.052812345
000280 93 ea ac be 58 a1 2d 3d 91 29 2d bc b9 a9 a9 bd
       -0.33772716 0.042390198 -0.010568992 -0.08284325
000290 6c 80 cc 3d 0a 7d 9c 3c b3 92 27 3d 37 b3 14 3e
       0.09985432 0.019102592 0.040911388 0.1452149
0002a0 a0 f3 17 3e 18 ff 92 bc 71 89 a5 3d a7 84 30 39
       0.1483903 -0.017943904 0.080828555 0.00016834085
0002b0 f7 f9 e3 bd 68 f4 ce bd 24 12 6b 3e 82 21 94 bd
       -0.111316614 -0.101052105 0.22956139 -0.072329536
0002c0 1a fd e5 3d 08 c8 6b bd e5 46 c3 be b7 82 0d 3e
       0.11229916 -0.05756381 -0.38140026 0.13819395
0002d0 3e 26 c2 ba d9 2d 43 bc 63 08 f5 3c b9 1e 09 3e
       -0.0014812422 -0.011912786 0.029911226 0.13390626
0002e0 6f 68 6a 3e 1c 8e ec bd 89 0e eb bd af 86 47 3e
       0.22891401 -0.11550543 -0.11477382 0.19484971
0002f0 9a 92 16 be b9 b0 9b bd fa 19 9a 3d 7d d9 63 bd
       -0.14704362 -0.076020665 0.07524486 -0.055627335
000300 7b d6 22 bd 04 dc 7b bd 36 8e 14 3e 7e 6e c9 3c
       -0.039755326 -0.06148912 0.14507374 0.02458882
000310 2b c4 04 be f2 e6 6b bd 4c 6f e2 3d 87 80 85 3c
       -0.12965457 -0.057593293 0.110563844 0.016296638
000320 d2 b2 c7 3d 8a cd b1 3d b9 ac f4 3d 9c cd 0b 3c
       0.09750904 0.086817816 0.11947007 0.008532908
000330 45 13 b7 bd f7 17 16 3c 65 33 bb 3d f0 69 0c bd
       -0.08939222 0.009160987 0.09140662 -0.034280717
000340 6a f4 9e 3d 2b 27 c7 bc 19 79 db bc 02 d6 59 bd
       0.07761462 -0.024310669 -0.026791142 -0.05318261
000350 6f 5b 28 3d 4a ff 4f 3c 4f db 3a 3d 6b bf b2 bc
       0.041102823 0.012695143 0.045619305 -0.02181979
000360 cd 21 29 3d b2 19 1d 3e f0 23 58 3c bd b0 cf bd
       0.041292 0.15341833 0.013192162 -0.10141132
000370 86 48 90 bd 65 94 8b bd 33 c3 9d bc 55 6f 52 3d
       -0.07045083 -0.068154134 -0.019258117 0.051375706
000380 8a 74 e7 3d dc 2c 58 3e 77 4d 12 bc 39 e0 4f bc
       0.11301525 0.21110862 -0.008929602 -0.012687736
000390 d1 89 96 bf 06 b0 f3 3d 7b b0 c7 bd 23 28 a4 3e
       -1.1760808 0.11898808 -0.09750458 0.32061872
0003a0 0d 54 5b be 81 f2 a8 bd 3f 7c 0d 3b 6d 0c c7 bc
       -0.21418782 -0.08249379 0.002158895 -0.024297917
0003b0 31 f1 a4 3d e0 e6 0f bc b3 c6 71 bd 01 f1 16 3d
       0.08053816 -0.008783072 -0.059027385 0.036850933
0003c0 ab 23 12 3d a7 7f 12 bd f2 cb 01 3d 72 5c c6 bd
       0.035678547 -0.03576627 0.031688638 -0.09685601
0003d0 9d fa 18 3d e4 b3 88 3d 11 49 3d bf 6c 9c ae bd
       0.03734838 0.066749364 -0.73939615 -0.08525929
0003e0 9d 59 16 3e 83 a0 50 3d eb 80 16 bd 6d a5 ac 3f
       0.14682622 0.050934326 -0.03674404 1.3487984
0003f0 e4 fe 8b 3e 9c 41 d7 bd b6 f6 04 3e 47 9e 5a 3d
       0.27342904 -0.10510561 0.12984738 0.0533736

fc_layer3.bias f4 [10]
000000 91 45 b7 ba 0a 11 03 3e 45 fc 21 3c 0a 45 a3 3d
       -0.0013982524 0.12799469 0.009886806 0.079721525
000010 6b 6f e9 3c 74 e8 d7 bd 69 60 63 bc 09 a6 67 3d
       0.028495511 -0.10542384 -0.013877966 0.056554828
000020 af aa 5d 3d cb b2 a2 3c
       0.054117855 0.019860646
