saved_models/lenet5.pth (torch, 181162 bytes, 10 tensors)

conv_layer1.weight f4 [6, 1, 5, 5]
-0.8933906 -0.9632277 -1.1795404 -0.96844244 -0.89389086 -1.0404435 -1.2159257 -1.121673
-0.9412408 -0.9105158 -0.9191941 -1.0886236 -0.9900568 -0.8709846 -0.625802 -0.90856135
-0.79037714 -0.7678502 -0.7081057 -0.5130584 -0.7353559 -0.6431999 -0.586074 -0.35558912
-0.581667 -0.27927878 -0.24544781 -0.3150739 -0.22368383 -0.3987036 -0.09094958 -0.4254263
-0.17000532 -0.28960133 -0.35844752 -0.2671159 -0.3731376 -0.3127013 -0.39452252 -0.408118
-0.31896046 -0.47198206 -0.3813056 -0.29340163 -0.25968853 -0.41577366 -0.2727363 -0.34645224
-0.24937803 -0.35880417 -0.64623487 -0.32570112 -0.29484758 0.020573054 -0.10262015 0.57331496
0.5688272 0.11024413 0.08102348 -0.36104777 0.05496722 0.05256202 -0.15563676 -0.29019505
-0.1021073 -0.38365114 -0.15729068 -0.4459172 -0.23365164 -0.17192 -0.16151129 -0.35373834
-0.15205358 -0.30208778 -0.24621622 -0.021138601 0.12248056 0.12680802 0.14684293 0.2673421
0.15358609 0.2527587 0.27539027 0.2357277 0.027565692 -0.50358206 0.120302536 0.044715554
0.20487958 -0.12938784 -0.769399 -0.8120875 -0.048871506 0.47422272 -0.37255 0.03879817
-0.40398136 -1.1525353 -0.9439797 -0.6893681 -0.2569223 -0.06307638 -0.27449238 0.034816213
-0.025521776 -0.29702875 -0.6035271 -0.4021173 -0.2922051 0.040398497 0.49583343 -0.11637412
-0.2492887 -0.505263 -0.23119444 0.33873037 -0.005391067 -0.1256289 -0.30853686 -0.0881102
0.08877165 0.12840328 -0.10941028 -0.120696925 -0.09652828 -0.17167495 0.01340096 -0.28359246
-0.059528172 -0.13165282 0.100853704 -0.24652575 -0.5378076 -0.09874621 -0.038395863 -0.185679
-0.11661287 -0.22116104 -0.16091964 -0.005547839 -0.12833054 -0.063169405 0.089167364 -0.14902113
0.111980975 -0.14387418 0.11519659 0.08018691 0.19062966 0.25368753
00000000: 3fb5 64bf 1796 76bf 2efb 96bf d8eb 77bf
00000010: 08d6 64bf 412d 85bf 74a3 9bbf fb92 8fbf
00000020: 28f5 70bf 9017 69bf 4e50 6bbf 0558 8bbf
00000030: 5d74 7dbf d9f8 5ebf 8f34 20bf 7a97 68bf
00000040: 2856 4abf d591 44bf 6a46 35bf cc57 03bf
00000050: 4940 3cbf c0a8 24bf f208 16bf c70f b6be
00000060: 21e8 14bf a1fd 8ebe ac56 7bbe 5e51 a1be
00000070: 600d 65be e122 ccbe c643 babd 7ad1 d9be
00000080: e015 2ebe a046 94be 6f86 b7be 6ac3 88be
00000090: e40b bfbe 631a a0be dbfe c9be d8f4 d0be
000000a0: c94e a3be a2a7 f1be 7d3a c3be bd38 96be
000000b0: e5f5 84be 49e0 d4be 18a4 8bbe 3062 b1be
000000c0: f45c 7fbe 2eb5 b7be a66f 25bf 4cc2 a6be
000000d0: 43f6 96be d288 a83c 832a d2bd c5c4 123f
000000e0: a99e 113f adc7 e13d a3ef a53d 41db b8be
000000f0: 4f25 613d 464b 573d 3e5f 1fbe 7294 94be
00000100: a21d d1bd ec6d c4be cf10 21be 424f e4be
00000110: 6042 6fbe cc0b 30be 3763 25be 311d b5be
00000120: efb3 1bbe 40ab 9abe 1b20 7cbe dc2a adbc
00000130: 16d7 fa3d f6d9 013e fe5d 163e 10e1 883e
00000140: ac45 1d3e 9769 813e f4ff 8c3e 9a62 713e
00000150: 72d1 e13c c1ea 00bf 2d61 f63d a827 373d
00000160: f4cb 513e 3f7e 04be 55f7 44bf f7e4 4fbf
00000170: 7d2d 48bd 52cd f23e e0be bebe d4ea 1e3d
00000180: a5d6 cebe 4786 93bf a7a8 71bf 6e7a 30bf
00000190: 528b 83be 302e 81bd 448a 8cbe 729b 0e3d
000001a0: 0b13 d1bc 2714 98be c180 1abf 52e2 cdbe
000001b0: e89b 95be e578 253d e1dd fd3e 8e55 eebd
000001c0: 8945 7fbe ea58 01bf 3cbe 6cbe 116e ad3e
000001d0: 8ca7 b0bb dda4 00be 8bf8 9dbe 1f73 b4bd
000001e0: e9cd b53d 267c 033e 7f12 e0bd f32f f7bd
000001f0: 9eb0 c5bd 8fcb 2fbe b38f 5b3c 0833 91be
00000200: d0d3 73bd ffcf 06be 638c ce3d 3f71 7cbe
00000210: c2ad 09bf 743b cabd fb44 1dbd a322 3ebe
00000220: bad2 eebd 0a78 62be 1ec8 24be a6ca b5bb
00000230: 1569 03be f65e 81bd 619d b63d ff98 18be
00000240: 4856 e53d c153 13be 31ec eb3d 0939 a43d
00000250: 6c34 433e 55e3 813e

conv_layer1.bias f4 [6]
0.12915286 -0.088178106 -0.02094605 -0.13981988 0.1763395 -0.18659747
00000000: a640 043e b996 b4bd 0d97 abbc f12c 0fbe
00000010: 5892 343e 6813 3fbe

conv_layer2.weight f4 [16, 6, 5, 5]
-0.012802993 -0.057301633 -0.0772275 -0.1454249 0.010540387 -0.05353079 -0.06508687 -0.17040654
-0.07723895 -0.0787306 -0.119402505 -0.017922156 -0.08243404 -0.13415813 -0.08900583 -0.08845036
-0.055044446 -0.11540748 -0.11167951 -0.04604321 -0.13124488 -0.06744545 -0.013819249 -0.12127199
0.011516729 0.0035595277 -0.02627665 -0.10162971 -0.028561888 0.0070439973 -0.011023761 -0.049280252
-0.067515016 -0.035783708 -0.037688814 -0.073102035 -0.0023589258 0.019088615 -0.030642405 -0.021128003
-0.03869589 -0.057734363 -0.0129990205 0.008845961 -0.075869024 -0.062152322 0.020457346 0.0028409888
-0.010532943 -0.049649794 -0.1438566 -0.21311027 -0.03664634 0.04755416 -0.053763524 0.046949223
-0.050977305 -0.04448004 0.00078460126 0.16771391 -0.032937646 0.03195092 -0.06824553 -0.22383028
-0.061259277 -0.030100558 0.027774395 -0.050193075 -0.15449703 0.09123404 0.13029668 0.075755894
-0.04982478 -0.066130914 0.040331844 -0.12558305 0.2306681 0.45057392 0.063622616 -0.05779509
0.17032637 -0.12747611 -0.3672831 -0.33288613 0.1301748 -0.54745215 -0.3327242 -0.045821793
0.07575901 0.03684902 -0.18311656 0.05895107 0.15391946 0.15324335 -0.015402132 -0.19055821
-0.034383748 -0.055193823 -0.09720854 0.05286946 -0.36962485 -0.39906016 -0.18704921 -0.20694602
-0.37888196 0.09324679 0.14940849 -0.03448765 -0.15543589 -0.0752523 -0.06220822 -0.29201585
-0.066551425 0.12704766 0.18392658 -0.19370878 -0.098745584 0.0004357923 0.14249615 -0.09606982
-0.14345914 0.15423094 0.0007503999 0.015085534 0.020408232 -0.40204033 -0.6374468 -0.64535713
-0.44907162 -0.07523825 0.14415553 0.28668335 0.1440295 -0.18997219 -0.17974325 0.34371626
0.27981466 -0.0036378012 0.04374522 0.089395076 -0.12274354 0.042017717 -0.037860166 -0.06530248
-0.1600101 -0.467146 -0.10518243 -0.042165853 0.07314452 -0.17862083 -0.04159258 0.004032931
-0.08026289 -0.0923807 -0.011869438 0.01363829 -0.10983178 -0.048105482 -0.016945465 -0.05403705
0.035487287 0.02843258 -0.08259233 -0.047907464 -0.08707429 -0.042689584 0.002786087 -0.04191595
-0.11446512 -0.094807886 -0.083031096 -0.1383092 -0.13959982 -0.07768452 0.020435242 -0.013609573
-0.08776518 -0.10129221 -0.01063678 -0.08355607 -0.03227071 0.004744149 -0.07570549 -0.032382615
-0.011036384 -0.037262462 -0.073487364 -0.122476295 -0.09286169 -0.047932785 0.0435061 -0.08416334
-0.106646694 -0.019018766 -0.0070966235 0.0037518179 0.01996946 0.011376299 -0.085415386 -0.005568271
0.008064569 -0.00039299455 -0.06775262 -0.020328198 0.013005878 0.02268296 0.008719759 -0.12854163
-0.2026948 -0.13768364 0.057106502 -0.07815987 -0.14352152 -0.1120909 -0.047122847 0.06400018
-0.103546575 0.027820358 -0.04143359 -0.074398436 0.032693844 0.1947053 0.20844519 -0.115925714
-0.0022864447 -0.5218058 -0.009131856 0.022127485 -0.1279766 0.190927 -0.20511143 0.09765023
-0.19089201 -0.24683726 -0.0065211183 -0.37592927 0.08835914 -0.064511806 -0.1593317 -0.11351671
-0.1834699 0.1819595 -0.13472754 -0.22606745 -0.1355375 0.0462546 0.17914508 -0.018815512
-0.12917304 -0.14394683 0.014909683 -0.06491927 -0.064179815 0.08442564 -0.0007648362 -0.14116096
00000000: a5c3 51bc 1eb5 6abd 7429 9ebd 44ea 14be
00000010: 96b1 2c3c 1a43 5bbd 444c 85bd 0d7f 2ebe
00000020: 742f 9ebd 823d a1bd 4d89 f4bd 7cd1 92bc
00000030: 2ed3 a8bd c060 09be b048 b6bd 7625 b5bd
00000040: 4976 61bd c25a ecbd 3ab8 e4bd ce97 3cbd
00000050: 0f65 06be d720 8abd 226a 62bc 735d f8bd
00000060: aab0 3c3c f746 693b 2142 d7bc 3d23 d0bd
00000070: 9ffa e9bc 55d1 e63b 019d 34bc 17da 49bd
00000080: 5045 8abd f091 12bd 965f 1abd 85b6 95bd
00000090: 3598 1abb ba5f 9c3c c805 fbbc a214 adbc
000000a0: 957f 1ebd de7a 6cbd d8f9 54bc a6ee 103c
000000b0: 3861 9bbd 6f93 7ebd 2a96 a73c e22f 3a3b
000000c0: 5d92 2cbc 955d 4bbd 254f 13be 9439 5abe
000000d0: 791a 16bd 27c8 423d 2437 5cbd d44d 403d
000000e0: 94cd 50bd b430 36bd b3ad 4d3a 32bd 2b3e
000000f0: a0e9 06bd f8de 023d 50c4 8bbd c433 65be
00000100: 02eb 7abd 7295 f6bc 2187 e33c 4197 4dbd
00000110: 7834 1ebe ead8 ba3d 7e6c 053e e825 9b3d
00000120: 1215 4cbd a56f 87bd 0133 253d d898 00be
00000130: 4234 6c3e a0b1 e63e 934c 823d 8bba 6cbd
00000140: 096a 2e3e 1989 02be 880c bcbe 0d70 aabe
00000150: 8b4c 053e d325 0cbf d45a aabe a2af 3bbd
00000160: 8a27 9b3d ffee 163d e882 3bbe ad76 713d
00000170: 109d 1d3e d3eb 1c3e 3959 7cbc b121 43be
00000180: f9d5 0cbd eb12 62bd 4515 c7bd a68d 583d
00000190: 783f bdbe 9d51 ccbe d489 3fbe a8e9 53be
000001a0: d1fc c1be 2cf8 be3d 8afe 183e ec42 0dbd
000001b0: 962a 1fbe e11d 9abd 0cce 7ebd 1a83 95be
000001c0: 1d4c 88bd c818 023e 4057 3c3e 985b 46be
000001d0: 203b cabd 0d7b e439 83ea 113e 41c0 c4bd
000001e0: f4e6 12be b7ee 1d3e 7cb6 443a 5129 773c
000001f0: 2a2f a73c 3bd8 cdbe b72f 23bf 2036 25bf
00000200: b7ec e5be 8316 9abd 829d 133e 29c8 923e
00000210: 787c 133e 1288 42be 9d0e 38be 94fb af3e
00000220: de43 8f3e 2d68 6ebb 302e 333d c414 b73d
00000230: f760 fbbd c51a 2c3d 4313 1bbd 4ebd 85bd
00000240: b0d9 23be c32d efbe e369 d7bd 1ab6 2cbd
00000250: cbcc 953d 61e8 36be fb5c 2abd ad26 843b
00000260: df60 a4bd 1832 bdbd 0878 42bc 2273 5f3c
00000270: 7cef e0bd 410a 45bd 37d1 8abc f455 5dbd
00000280: 1e5b 113d 71eb e83c 2b26 a9bd 9e3a 44bd
00000290: 0154 b2bd 46db 2ebd c996 363b 0fb0 2bbd
000002a0: b06c eabd a32a c2bd 350c aabd eda0 0dbe
000002b0: 41f3 0ebe 1019 9fbd cf67 a73c b0fa 5ebc
000002c0: 3bbe b3bd 4a72 cfbd e445 2ebc 721f abbd
000002d0: 4b2e 04bd ce74 9b3b 7b0b 9bbd a2a3 04bd
000002e0: f3d1 34bc 86a0 18bd 8b80 96bd dad4 fabd
000002f0: 452e bebd 2b55 44bd 7433 323d d45d acbd
00000300: 9569 dabd 3ecd 9bbc cb8a e8bb 0fe1 753b
00000310: fe96 a33c a863 3a3c 43ee aebd 0b76 b6bb
00000320: 4121 043c d60a ceb9 e3c1 8abd 5287 a6bc
00000330: 9b16 553c 9dd1 b93c 52dd 0e3c 6ba0 03be
00000340: 3a8f 4fbe f1fc 0cbe 82e8 693d 4812 a0bd
00000350: 4ef7 12be ea8f e5bd e303 41bd 8712 833d
00000360: 3a10 d4bd 85e7 e33c 45b6 29bd 355e 98bd
00000370: fbe9 053d d360 473e a872 553e 766a edbd
00000380: 2dd8 15bb 1195 05bf c89d 15bc b344 b53c
00000390: 4c0c 03be 5e82 433e bb08 52be d8fc c73d
000003a0: 3279 43be e8c2 7cbe 1baf d5bb cd79 c0be
000003b0: a3f5 b43d c41e 84bd d927 23be 737b e8bd
000003c0: 89df 3bbe 9753 3a3e 04f6 09be 3a7e 67be
000003d0: 58ca 0abe 7775 3d3d cf71 373e fd22 9abc
000003e0: f045 04be cc66 13be be47 743c 65f4 84bd
000003f0: b570 83bd 5ae7 ac3d 4a7f 48ba 808c 10be

conv_layer2.bias f4 [16]
-0.018775038 0.030998042 0.032827605 0.015807366 -0.031991232 0.05808426 0.050285466 0.006228028
-0.052056834 0.008474633 -0.0067410003 0.06968721 0.03173171 0.00016175219 0.008607085 0.046636987
00000000: 1cce 99bc 9bef fd3c 3d76 063d 737e 813c
00000010: 3d09 03bd c3e9 6d3d 22f8 4d3d 7c14 cc3b
00000020: 8c39 55bd 30d9 0a3c 9ce3 dcbb 2bb8 8e3d
00000030: 1cf9 013d 069c 2939 bb04 0d3c 6d06 3f3d

fc_layer1.weight f4 [120, 256]
-0.0068279025 -0.096718095 -0.04891246 0.08270918 0.026279164 -0.044678032 -0.025245318 -0.01638296
-0.01789386 -0.015347776 0.056905575 -0.09645482 -0.06477453 -0.069166526 -0.048776112 0.04161494
0.062035397 -0.06862797 -0.12111609 -0.08776042 0.030621713 -0.0033565443 0.03347018 0.07367023
0.06939739 0.03629139 -0.007417474 -0.01502699 -0.057167705 -0.031071456 0.01566595 0.007994531
-0.045584302 0.010158334 -0.02882423 -0.00998129 -0.0102810385 -0.03655583 0.032540314 -0.0093680695
0.015469377 -0.08575825 -0.053367678 0.002734718 0.036094867 0.0117402915 -0.005681099 -0.07183416
-0.13710879 -0.18075448 -0.035595175 0.099225 -0.19705753 0.045804758 -0.024944697 -0.0878926
0.042204276 -0.08486298 0.04805832 0.1224622 -0.0056495173 -0.08552647 0.1648393 -0.026485713
0.048326593 -0.0066783195 -0.015604354 -0.039853755 -0.02924975 0.005787443 0.043184593 -0.010352369
-0.037861742 0.024543509 -0.038425412 -0.05222914 0.049508363 -0.0063364864 -0.028716136 -0.0019858466
0.035621624 -0.08081417 -0.09242672 -0.060576394 0.013998308 -0.056159247 0.018571528 0.019657811
-0.036262155 -0.049339402 -0.08218902 0.0088392915 -0.028889745 -0.06600726 -0.07110142 0.026867004
-0.0009867554 -0.044251442 -0.028760169 0.014130477 -0.050253645 -0.04248634 -0.07636503 -0.03195926
-0.007945169 -0.06493284 0.022236958 -0.07798497 0.053752303 -0.049799144 -0.04456542 0.0005403917
-0.037020396 0.03597201 -0.07875237 -0.03474498 -0.050822638 -0.013076922 0.0027775187 0.013314046
-0.00010012433 -0.06669675 0.0070640715 -0.028236374 0.02201874 -0.07025845 -0.07474686 -0.07192421
0.048381563 0.07860352 0.02537712 0.07378151 0.088329844 -0.023673186 0.0882485 0.10900404
-0.06687441 -0.11477089 -0.0079645645 -0.102638975 -0.2009933 -0.12814231 -0.072463416 -0.041575912
0.046415955 0.023557477 -0.08630124 -0.03193036 -0.010425664 -0.029069625 -0.05716418 -0.10300391
-0.009577538 -0.07368281 -0.047176514 -0.13926199 0.017203946 -0.05138325 -0.08710522 -0.018942153
-0.031618793 0.031061562 0.011413212 -0.067390144 0.061582725 0.042888645 0.022335263 -0.020922162
0.022944266 -0.0389105 -0.04022148 0.018241167 0.027718894 0.015522056 -0.079947725 0.043995444
-0.039282043 0.02993393 0.023497477 0.008742066 0.039708562 0.0049661254 0.0020593852 -0.035648473
0.039908126 -0.010377322 0.01782316 -0.014319158 0.020291135 0.022568172 -0.06878304 0.045514755
-0.023524402 -0.028019356 -0.1772504 -0.0037642866 -0.14913955 -0.05734719 -0.084091514 -0.0043193502
-0.038909197 0.07105793 0.13165732 -0.084612265 -0.038138025 0.029676065 -0.008391608 -0.118337624
-0.039584164 -0.087640285 -0.009722605 -0.06803927 -0.040498238 -0.04437697 -0.1246792 0.016453786
-0.06250336 -0.0803894 -0.08826027 -0.040356778 -0.058663536 -0.11864676 -0.034224417 -0.020510115
0.040200602 0.1422896 0.024045208 0.010929232 -0.067428485 0.13377954 0.060738564 -0.054335203
-0.09889523 -0.055322744 0.016265359 -0.02285714 0.094103694 0.086524725 0.05451706 -0.0054423776
-0.021828745 0.004820296 -0.061838668 -0.032764554 0.02150497 -0.1153179 -0.13231884 0.10395257
0.07403142 -0.025243279 -0.052980922 -0.1492609 -0.11864539 -0.04236021 0.05425942 0.029126681
00000000: 99bc dfbb 2314 c6bd 6f58 48bd 6e63 a93d
00000010: 6747 d73c 5000 37bd 45cf cebc 8f35 86bc
00000020: 2596 92bc 3d75 7bbc d215 693d 1b8a c5bd
00000030: 82a8 84bd 2ea7 8dbd 76c9 47bd 6d74 2a3d
00000040: d418 7e3d d28c 8cbd b60b f8bd bcbb b3bd
00000050: 63da fa3c 78f9 5bbb 0718 093d 6be0 963d
00000060: 3820 8e3d 48a6 143d 480e f3bb c433 76bc
00000070: af28 6abd 9189 febc e155 803c 7efb 023c
00000080: 9bb6 3abd 246f 263c cb20 ecbc 9188 23bc
00000090: cd71 28bc 91bb 15bd fe48 053d 887c 19bc
000000a0: 4573 7d3c 05a2 afbd 1198 5abd f438 333b
000000b0: 36d8 133d 5a5a 403c 8328 babb ca1d 93bd
000000c0: 3f66 0cbe b417 39be 3fcc 11bd 7a36 cb3d
000000d0: 73c9 49be c59d 3b3d d258 ccbc 0901 b4bd
000000e0: 64de 2c3d a4cc adbd cdd8 443d 76cd fa3d
000000f0: 961f b9bb 8028 afbd a2cb 283e 91f8 d8bc
00000100: 1bf2 453d ced5 dabb 68a9 7fbc b13d 23bd
00000110: 2c9d efbc 97a4 bd3b 54e2 303d fc9c 29bc
00000120: ea14 1bbd 780f c93c f763 1dbd 39ee 55bd
00000130: 48c9 4a3d 4da2 cfbb 1a3e ebbc fa24 02bb
00000140: fbe7 113d e681 a5bd 384a bdbd f41e 78bd
00000150: 2959 653c 3d07 66bd 5123 983c 6b09 a13c
00000160: a087 14bd 1d18 4abd b852 a8bd add2 103c
00000170: 30aa ecbc d02e 87bd 9f9d 91bd 3118 dc3c
00000180: 0456 81ba 0041 35bd 729a ebbc 8483 673c
00000190: c4d6 4dbd 2806 2ebd 4565 9cbd b7e7 02bd
000001a0: 742c 02bc 82fb 84bd 482a b63c 95b6 9fbd
000001b0: 602b 5c3d 30fa 4bbd 3b8a 36bd 13a9 0d3a
000001c0: b3a2 17bd 6357 133d ec48 a1bd c150 0ebd
000001d0: 662b 50bd 9640 56bc 0807 363b 2823 5a3c
000001e0: d7f9 d1b8 4e98 88bd ba79 e73b f84f e7bc
000001f0: a560 b43c aae3 8fbd e214 99bd 004d 93bd
00000200: bf2b 463d e2fa a03d aee3 cf3c c31a 973d
00000210: 47e6 b43d 45ee c1bc a1bb b43d 833d df3d
00000220: 73f5 88bd 000d ebbd ce7d 02bc 6234 d2bd
00000230: 30d1 4dbe bd37 03be b367 94bd 814b 2abd
00000240: a81e 3e3d 9cfb c03c b4be b0bd 69c9 02bd
00000250: 67d0 2abc 6c23 eebc fd24 6abd b7f3 d2bd
00000260: 1beb 1cbc 03e7 96bd 293c 41bd b29a 0ebe
00000270: 4aef 8c3c 3e77 52bd 3964 b2bd 932c 9bbc
00000280: b582 01bd d174 fe3c 7bfe 3a3c d803 8abd
00000290: 2b3e 7c3d 01ac 2f3d 71f8 b63c f464 abbc
000002a0: 9df5 bb3c 9e60 1fbd 47bf 24bd 806e 953c
000002b0: bc12 e33c 3950 7e3c a2bb a3bd 9134 343d
000002c0: 35e6 20bd 0038 f53c c87d c03c e23a 0f3c
000002d0: 72a5 223d e1ba a23b c0f6 063b 2204 12bd
000002e0: b476 233d a505 2abc e001 923c e79a 6abc
000002f0: 9839 a63c e3e0 b83c 1fde 8cbd ae6d 3a3d
00000300: 3fb6 c0bc d988 e5bc 2181 35be 40b2 76bb
00000310: 0ab8 18be e3e4 6abd 2c38 acbd 5689 8dbb
00000320: 405f 1fbd d286 913d 2dd1 063e 3249 adbd
00000330: 9e36 1cbd 381b f33c f47c 09bc ff5a f2bd
00000340: 0123 22bd c07c b3bd 904b 1fbc 2c58 8bbd
00000350: 7be1 25bd a0c4 35bd cf57 ffbd 17ca 863c
00000360: c301 80bd 33a3 a4bd cdc1 b4bd 264d 25bd
00000370: 2d49 70bd 13fd f2bd e72e 0cbd d404 a8bc
00000380: 63a9 243d 5db4 113e 75fa c43c 8610 333c
00000390: f217 8abd 81fd 083e 00c9 783d 978e 5ebd
000003a0: 9589 cabd 1a9a 62bd ee3e 853c e63e bbbc
000003b0: 70b9 c03d e033 b13d 484d 5f3d f955 b2bb
000003c0: 32d2 b2bc 93f3 9d3b 8b4a 7dbd 2034 06bd
000003d0: 312b b03c cb2b ecbd 977e 07be 16e5 d43d
000003e0: c99d 973d feca cebc 8602 59bd d9d7 18be
000003f0: 5bfc f2bd e681 2dbd 203f 5e3d 149b ee3c

fc_layer1.bias f4 [120]
-0.004943228 -0.04132531 0.030613143 0.06267088 0.06318428 0.04519931 -0.016711732 -0.030841338
0.03744529 0.053085625 -0.025555557 0.038919672 -0.034986474 -0.025015453 0.048527934 0.051140685
-0.06116903 0.04176213 0.05376146 0.009920875 0.022266487 0.02243255 -0.0003552377 0.03777223
-0.05462236 -0.012086794 -0.013922898 0.030351339 -0.03572563 0.025762971 -0.027390273 0.042075925
-0.0041957423 0.008677775 0.018335687 0.02176005 0.025758699 0.04686819 -0.017349266 -0.026114494
0.020315576 -0.059097227 0.01768663 0.02480047 0.05965545 0.028835576 -0.040507838 -0.049695175
-0.021577096 -0.055698935 -0.0013998757 0.034042772 0.03130856 -0.057915445 0.017115539 -0.026215943
-0.031742472 -0.05714998 -0.017246675 -0.029302051 -0.035379738 0.04667472 -0.005197924 0.019550381
-0.016902002 0.0365861 -0.04575576 -0.0060708392 -0.041569944 -0.03994931 -0.02192102 -0.05382928
-0.0042469036 -0.063243166 0.0006346796 0.009215531 0.047612227 -0.050105117 -0.018100373 -0.013049222
-0.05141464 0.029702986 0.03823399 0.029140286 -0.003351642 -0.006095937 0.033574525 -0.030003252
0.020899506 0.013128523 -0.055149738 -0.03313846 -0.038816284 -0.046846945 0.03680865 -0.027644692
-0.021038149 -0.06453454 0.048533067 -0.016867803 0.05095634 0.05505392 -0.017064176 0.0065536355
0.028032655 0.06325116 -0.016662763 -0.017967863 0.07168117 0.0282107 -0.039872695 0.021573924
-0.056722686 0.0074228705 0.017278058 -0.01907606 -0.022999374 0.035097573 -0.002363509 -0.053425726
00000000: cdfa a1bb ba44 29bd 6ac8 fa3c 9759 803d
00000010: c366 813d e922 393d 0be7 88bc f9a6 fcbc
00000020: 3b60 193d 5070 593d e359 d1bc 3c6a 1f3d
00000030: fa4d 0fbd 35ed ccbc 3ac5 463d e578 513d
00000040: 608c 7abd c40e 2b3d fa34 5c3d 2a8b 223c
00000050: 3568 b63c 78c4 b73c 323f bab9 0eb7 1a3d
00000060: b2bb 5fbd b007 46bc de1c 64bc 5fa3 f83c
00000070: 0a55 12bd de0c d33c 9161 e0bc ce57 2c3d
00000080: 707c 89bb 3a2d 0e3c b934 963c 2242 b23c
00000090: e803 d33c dcf8 3f3d 0c20 8ebc 10ee d5bc
000000a0: da6c a63c ef0f 72bd 8de3 903c 5b2a cb3c
000000b0: 4659 743d 9638 ec3c 8ceb 25bd 2b8d 4bbd
000000c0: 73c2 b0bc 9124 64bd 097c b7ba 6f70 0b3d
000000d0: 683d 003d bf38 6dbd e335 8c3c d1c2 d6bc
000000e0: 6504 02bd 1916 6abd e648 8dbc db0a f0bc
000000f0: 58ea 10bd fe2d 3f3d 5953 aabb 1f28 a03c
00000100: 1176 8abc 4edb 153d 646a 3bbd e4ed c6bb
00000110: 3f45 2abd e3a1 23bd b693 b3bc 177c 5cbd
00000120: 9c29 8bbb a285 81bd a160 263a bdfc 163c
00000130: 0a05 433d 063b 4dbd 3c47 94bc 67cc 55bc
00000140: 2898 52bd ad53 f33c 3f9b 1c3d 9cb7 ee3c
00000150: 39a7 5bbb 6dc0 c7bb 7185 093d 61c9 f5bc
00000160: 7135 ab3c 0419 573c b1e4 61bd 32bc 07bd
00000170: d3fd 1ebd 95e2 3fbd abc4 163d 1f77 e2bc
00000180: 3258 acbc af2a 84bd 9cca 463d 592e 8abc
00000190: 98b7 503d 3880 613d 2cca 8bbc e1bf d63b
000001a0: bda4 e53c d389 813d 5980 88bc 5731 93bc
000001b0: 94cd 923d 201a e73c 8d51 23bd ccbb b03c
000001c0: 0c56 68bd 8d3b f33b b78a 8d3c 6645 9cbc
000001d0: 2f69 bcbc 79c2 0f3d 1ae5 1abb efd4 5abd

fc_layer2.weight f4 [84, 120]
0.045227747 0.036698036 -0.14664951 0.09114679 -0.0752668 -0.040250354 -0.0050710696 -0.118184805
-0.04237739 0.0224462 -0.058700774 -0.08834095 0.005198771 -0.05601586 0.055139236 -0.21202709
-0.068602555 -0.10498927 -0.060145065 -0.014925913 -0.042145032 -0.12501383 -0.107074216 0.082078084
-0.114906915 -0.18523468 0.013033512 -0.019953506 0.02385216 -0.20369092 -0.013273938 -0.0064686867
0.021663541 -0.110579446 -0.037291624 -0.034962278 0.015885148 0.10860483 -0.14267716 -0.07110111
0.11682161 -0.06969853 -0.13238727 0.04686514 -0.0772512 -0.15546237 0.08681639 -0.04108838
-0.12053759 -0.0617402 0.040250108 -0.024243359 0.056279223 -0.0111442525 -0.0825219 -0.044149153
0.14527991 0.041748583 0.05176347 0.009939419 -0.16225272 -0.111018345 0.03714307 -0.01809501
-0.06374013 -0.078452595 0.018153071 -0.041849338 -0.0715413 -0.12351904 -0.012492276 -0.005949837
0.018873127 0.0069836215 0.08699939 -0.07227522 0.054115325 -0.050397504 -0.027384045 -0.13470127
-0.07665991 -0.0071372697 -0.026022365 -0.045003474 -0.14402823 0.023643417 -0.015147859 -0.078167416
0.025020203 0.20162092 0.09126118 -0.13004506 -0.023357477 0.12562816 -0.16190042 -0.09134011
0.15707141 -0.087160744 -0.0082036955 0.0028596441 -0.11270542 -0.15458538 -0.1957844 0.011568087
0.02795094 0.047440294 -0.0019013006 0.07704205 0.101051226 -0.048691064 -0.09909359 -0.05934187
-0.009268855 -0.069454625 -0.08936283 -0.036814913 -0.021344451 -0.03239415 -0.14159398 0.0649653
-0.03583865 0.048942246 -0.1044632 -0.094255924 0.012874148 0.0322454 -0.10693429 -0.01777187
-0.16224703 -0.13172407 -0.03553706 0.14405021 -0.1415479 -0.09922227 0.04019805 -0.0642411
-0.08800714 -0.1079907 -0.05036337 -0.15321758 0.086354524 -0.018635714 0.002399528 -0.12931363
0.11578431 -0.08258803 -0.09369748 0.013303819 -0.044876825 -0.0797807 0.011577233 -0.1237949
0.026754364 0.031039659 -0.16381904 -0.13681565 -0.0433989 0.00018880721 -0.058807045 0.052093502
-0.16216135 0.016348314 -0.0061021526 0.015626037 0.020699376 0.06873212 0.0078038573 -0.011079435
-0.027832014 -0.058464576 0.15007152 -0.068262294 -0.13586786 -0.04748611 -0.089573786 -0.08158365
-0.20929064 -0.07367851 -0.01946862 -0.05526359 -0.10003345 -0.051568363 0.07300185 0.02532412
0.024259906 -0.117303826 0.06237387 0.06060566 -0.02955095 -0.10634293 -0.06727584 -0.09351973
0.041574344 0.06673971 -0.19212624 -0.015461146 -0.079477794 -0.13786961 -0.0020307451 -0.039354205
-0.17891514 -0.024039494 -0.07151145 -0.02388993 0.0656579 -0.2810633 -0.2589236 -0.0078139175
-0.050406814 -0.27339992 -0.15650898 -0.06153396 -0.05637535 -0.18628249 -0.031991836 -0.10775175
-0.087502144 -0.0049966383 -0.25734648 -0.087797254 -0.0070086783 0.0063156416 0.008169726 0.08918115
-0.034108 -0.019819982 -0.06313294 -0.055302933 0.08492862 -0.036592 -0.1160444 0.035897464
-0.082629755 0.028233789 -0.008841211 -0.089584306 0.03265767 0.015028763 -0.11290351 -0.0799283
-0.09681918 -0.04482064 -0.18881257 0.0121986065 -0.028415231 -0.0142410565 -0.006304206 -0.002484962
-0.18340741 -0.36852047 0.034591183 0.018437332 -0.09571314 -0.10868085 0.004401801 -0.13339303
00000000: bb40 393d ae50 163d 4a2b 16be 2bab ba3d
00000010: 7b25 9abd 8edd 24bd 372b a6bb e00a f2bd
00000020: ea93 2dbd 18e1 b73c 3970 70bd 1aec b4bd
00000030: 745a aa3b e370 65bd aed9 613d a11d 59be
00000040: 7f7f 8cbd 9d04 d7bd ac5a 76bd d18b 74bc
00000050: 45a0 2cbd a003 00be ba49 dbbd 8e18 a83d
00000060: 5154 ebbd 29ae 3dbe 838a 553c 8975 a3bc
00000070: 9b65 c33c 5a94 50be ee7a 59bc 47f7 d3bb
00000080: bd77 b13c 7a77 e2bd 1abf 18bd 9b34 0fbd
00000090: 9221 823c 366c de3d f619 12be 759d 91bd
000000a0: 2b40 ef3d 1abe 8ebd 8790 07be a9f5 3f3d
000000b0: e135 9ebd 8731 1fbe cbcc b13d 4a4c 28bd
000000c0: 69dc f6bd 4be3 7cbd 4cdd 243d 029a c6bc
000000d0: 0b85 663d 6296 36bc 3e01 a9bd bed5 34bd
000000e0: 42c4 143e 9000 2b3d ef05 543d f2d8 223c
000000f0: 9425 26be 965d e3bd 5523 183d fd3b 94bc
00000100: 2f8a 82bd c1ab a0bd c0b5 943c 366a 2bbd
00000110: 3f84 92bd 8df7 fcbd 67ac 4cbc daf6 c2bb
00000120: d19b 9a3c ddd6 e43b bc2c b23d 0805 94bd
00000130: 08a8 5d3d 9d6d 4ebd 8154 e0bc 21ef 09be
00000140: dfff 9cbd c2df e9bb db2c d5bc 9055 38bd
00000150: 237c 13be d7af c13c ba2e 78bc 3d16 a0bd
00000160: 2bf7 cc3c b775 4e3e 24e7 ba3d 882a 05be
00000170: 2e58 bfbc aba4 003e 39c9 25be 8610 bbbd
00000180: 54d7 203e 5581 b2bd cb68 06bc de68 3b3b
00000190: 19d2 e6bd a14b 1ebe b57b 48be 1388 3d3c
000001a0: 5ff9 e43c c150 423d 1035 f9ba 39c8 9d3d
000001b0: f2f3 ce3d 4870 47bd 95f1 cabd 7610 73bd
000001c0: 65dc 17bc 3a3e 8ebd dc03 b7bd 3ccb 16bd
000001d0: 8fda aebc baaf 04bd 03fe 10be 870c 853d
000001e0: 8ccb 12bd aa77 483d cdf0 d5bd 4009 c1bd
000001f0: 17ee 523c c113 043d 5d00 dbbd 5096 91bc
00000200: 1624 26be ade2 06be 4f8f 11bd e681 133e
00000210: eff1 10be 0c35 cbbd b6a6 243d d690 83bd
00000220: 163d b4bd 3a2a ddbd d249 4ebd 12e5 1cbe
00000230: a4da b03d eda9 98bc 6641 1d3b cb6a 04be
00000240: 5320 ed3d ea23 a9bd 77e4 bfbd 43f8 593c
00000250: c3d0 37bd 1064 a3bd 6fae 3d3c 2e88 fdbd
00000260: f82b db3c e246 fe3c 2ec0 27be 6719 0cbe
00000270: 0cc3 31bd 8dfa 4539 a8df 70bd ff5f 553d
00000280: a00d 26be e6ec 853c 91f4 c7bb 2d02 803c
00000290: bd91 a93c 6dc3 8c3d 80b7 ff3b 8586 35bc
000002a0: f7ff e3bc 8d78 6fbd 59ac 193e 1acd 8bbd
000002b0: f220 0bbe cc80 42bd 7672 b7bd 5415 a7bd
000002c0: 4950 56be c2e4 96bd a87c 9fbc 135c 62bd
000002d0: 56de ccbd 5939 53bd fe81 953d 8774 cf3c
000002e0: b6bc c63c fd3c f0bd be7b 7f3d a43d 783d
000002f0: d514 f2bc 52ca d9bd eac7 89bd 4687 bfbd
00000300: dc49 2a3d d4ae 883d bebc 44be bf50 7dbc
00000310: 41c5 a2bd b12d 0dbe 4016 05bb e031 21bd
00000320: 8835 37be 79ee c4bc 9874 92bd d1b4 c3bc
00000330: a677 863d 87e7 8fbe a291 84be f205 00bc
00000340: 6077 4ebd 13fb 8bbe e443 20be 090b 7cbd
00000350: d7e9 66bd d6c0 3ebe df09 03bd f3ac dcbd
00000360: 5334 b3bd d7ba a3bb ebc2 83be 0ccf b3bd
00000370: 0ea9 e5bb 71f3 ce3b 50da 053c 9ba4 b63d
00000380: d5b4 0bbd 845d a2bc d84b 81bd 5485 62bd
00000390: 0eef ad3d 7ee1 15bd b0a8 edbd 3809 133d
000003a0: ca39 a9bd 8c4a e73c bada 10bc fa77 b7bd
000003b0: 0dc4 053d 333b 763c f539 e7bd 73b1 a3bd
000003c0: 2249 c6bd d995 37bd 1558 41be aadc 473c
000003d0: 0fc7 e8bc 5253 69bc 8393 cebb bfda 22bb
000003e0: 27cf 3bbe b7ae bcbe 7caf 0d3d e309 973c
000003f0: 4005 c4bd 1194 debd fc3c 903b 2f98 08be

fc_layer2.bias f4 [84]
0.060983367 0.07220745 0.04594931 0.0822008 -0.010976351 -0.03037358 0.03275146 -0.085974276
-0.04715942 0.07372043 -0.024610355 -0.01875253 -0.03792339 0.08410492 -0.08162718 0.026989812
-0.046497926 -0.08095617 -0.008406737 -0.078146026 0.056820806 0.05409731 0.02186444 -0.04564623
-0.064715885 0.047628585 -0.044882495 -0.011144257 0.01338547 -0.034584012 -0.037310638 -0.072511755
0.012546361 -0.062609546 0.052805476 -0.020981196 0.025779132 -0.063482165 -0.03804227 0.0583358
-0.04878767 -0.059348173 -0.024193354 -0.036904998 0.004162186 -0.047186755 0.059973225 -0.0594538
-0.0518336 0.015368367 -0.05120811 0.005528397 -0.06696266 -0.0123938285 0.04507534 -0.03728396
-0.08976012 -0.05837152 -0.044509336 -0.03318356 0.06699388 -0.035250563 0.089265145 0.010287522
0.02669142 0.0477001 0.08662528 -0.12111063 0.02873038 -0.06790841 -0.077149585 0.07368528
-0.06274273 -0.01120229 -0.0997601 -0.11977164 0.033768073 -0.0013586277 0.07373646 -0.05721733
-0.07009761 -0.00051225704 0.081261426 0.053904664
00000000: b2c9 793d 80e1 933d 5835 3c3d e558 a83d
00000010: 27d6 33bc 04d2 f8bc 6526 063d 4813 b0bd
00000020: 3c2a 41bd bdfa 963d a89b c9bc e89e 99bc
00000030: 8e55 1bbd 333f ac3d 272c a7bd bd19 dd3c
00000040: 9c74 3ebd 59cc a5bd 69bc 09bc 060b a0bd
00000050: efbc 683d 2495 5d3d 0e1d b33c 8bf7 3abd
00000060: c389 84bd 3116 433d b5d6 37bd 6796 36bc
00000070: bb4e 5b3c f7a7 0dbd 0ad3 18bd 0b81 94bd
00000080: 418f 4d3c 6f39 80bd 8e4a 583d c2e0 abbc
00000090: c22e d33c f002 82bd 36d2 1bbd 85f1 6e3d
000000a0: 94d5 47bd 1217 73bd 2431 c6bc b229 17bd
000000b0: f262 883b e646 41bd 7ca6 753d d485 73bd
000000c0: 784f 54bd 9acb 7b3c 98bf 51bd 8e27 b53b
000000d0: b823 89bd 7c0f 4bbc eba0 383d 11b7 18bd
000000e0: 27d4 b7bd fa16 6fbd 6c4f 36bd 7ceb 07bd
000000f0: 1634 893d e562 10bd a5d0 b63d ff8c 283c
00000100: f7a7 da3c 2e61 433d 9868 b13d da08 f8bd
00000110: f95b eb3c 9113 8bbd 9a00 9ebd 4fe8 963d
00000120: 437f 80bd cf89 37bc 064f ccbd d54a f5bd
00000130: 6450 0a3d fb13 b2ba 2403 973d b85c 6abd
00000140: 568f 8fbd fd48 06ba 646c a63d 23cb 5c3d

fc_layer3.weight f4 [10, 84]
-0.07573605 -0.1542377 0.041396692 -0.074085414 0.11696989 -0.0588802 -0.14561373 -0.08659283
0.024289312 -0.11876992 -0.12558338 -0.08116896 -0.05464946 0.014254889 0.03491301 -0.027219132
-0.00956229 0.021694489 -0.020670373 -0.14258312 -0.12182372 0.05167012 -0.11807047 0.031916708
0.006568799 -0.03401681 0.07835042 -0.029800376 -0.10935672 0.059502427 0.014755501 -0.15725797
-0.11661482 0.08916976 0.12887146 -0.06582518 -0.12963636 0.08102095 -0.09390784 -0.05656293
0.03279004 -0.20953839 -0.034406237 -0.08721153 0.02801601 0.0067960415 0.074318044 -0.07332536
-0.07458357 -0.09519035 0.03818098 0.058461502 0.01628398 -0.036597196 0.07069723 -0.15922599
0.1160567 0.017263012 0.09521128 -0.10799631 -0.0937235 -0.13551293 -0.045782626 0.13003406
-0.010716356 -1.5444758e-06 -0.08561703 -0.005725793 0.11282627 0.102110885 0.1178101 -0.12950696
0.05269565 -0.0854921 -0.08456296 0.18356717 -0.017490556 0.043461632 0.060509905 -0.08348864
-0.017558787 -0.01255993 -0.051666614 -0.1298769 0.03588326 0.05925462 0.10295624 0.023915268
-0.066695064 -0.13472307 0.13755332 -0.072817095 0.15456551 -0.04962281 0.089710236 -0.04121257
0.05464909 -0.0895616 -0.09913182 -0.01237243 0.055951506 0.095509574 -0.05828039 0.09293858
0.07001802 0.09172626 0.0988777 -0.09095485 0.022733059 -0.04117661 0.15509555 0.058074027
-0.049097203 0.004380888 0.0812789 0.04018161 0.008535835 0.082459204 0.24756612 0.12904075
0.094454415 -0.009825185 0.20397532 0.110705845 0.037637427 -0.01850197 -0.047854453 0.017589647
0.04041321 0.068901986 0.013031737 -0.05170355 -0.02973628 0.08859537 0.06800759 -0.07560166
0.030966196 0.08629935 0.08121857 0.020506067 0.05971478 -0.057380863 0.15731104 0.019990858
-0.017486988 -0.0021462205 -0.15757053 0.20838922 -0.082096994 -0.08373694 0.04830348 -0.0044663
-0.12438835 0.03309242 0.0840172 -0.032700952 -0.021667188 0.03209541 0.12915225 -0.1378864
0.04300157 0.011589159 -0.082184866 0.009174321 0.03221536 0.017517183 0.029222142 -0.06371024
0.16625898 0.076357625 0.055601362 0.14348231 -0.052827206 0.02044247 0.10729232 -0.11293974
0.09995014 0.071544304 -0.026602982 -0.027405333 -0.012243333 -0.10515402 -0.060442526 -0.027705133
0.17451222 0.1196218 -0.17414851 0.1433762 0.046621718 -0.07199851 0.12361128 0.035254937
0.047343448 0.14964613 0.15685013 0.19238202 0.032009836 0.11422767 0.030531622 0.04410363
0.04452699 0.042728726 0.11455061 0.09370254 0.04278924 -0.042990662 0.035723053 -0.075579025
0.04644822 -0.15991397 -0.02758015 -0.045839556 0.028248172 0.03913974 -0.04092888 -0.06325763
0.064484335 0.12568344 0.035814106 0.03700142 -0.110215254 -0.11315852 0.11907691 0.014255332
0.0016319788 0.22041327 -0.03343166 -0.037245307 -0.048171144 -0.07040667 -0.114184715 0.22394814
-0.15700667 -0.16146146 0.029295102 0.08514446 0.04232136 0.056395907 0.021033756 -0.036662407
0.019909644 -0.029756157 0.04072684 -0.025105285 0.034407776 0.059142657 0.034378953 -0.044190668
0.17264901 0.10079112 -0.050123706 -0.043196 0.05274676 0.0007237524 0.08771932 0.091987535
00000000: 811b 9bbd 7df0 1dbe 948f 293d 18ba 97bd
00000010: e98d ef3d 5d2c 71bd c41b 15be 9557 b1bd
00000020: 61fa c63c a53d f3bd ee98 00be e93b a6bd
00000030: 1dd8 5fbd 578d 693c f200 0f3d a8fa debc
00000040: 27ab 1cbc a4b8 b13c ea54 a9bc 4f01 12be
00000050: b77e f9bd 0ca4 533d eece f1bd 18bb 023d
00000060: 143f d73b 3655 0bbd 2f76 a03d eb1f f4bc
00000070: 6af6 dfbd d1b8 733d 0fc1 713c 3c08 21be
00000080: c0d3 eebd a39e b63d e1f6 033e 5acf 86bd
00000090: 65bf 04be 50ee a53d c152 c0bd 88ae 67bd
000000a0: d94e 063d 3b91 56be 8eed 0cbd f59b b2bd
000000b0: d581 e53c 54b1 de3b 0f34 983d 9b2b 96bd
000000c0: 45bf 98bd 29f3 c2bd a963 1c3d 5475 6f3d
000000d0: fb65 853c f1e6 15bd b6c9 903d 230c 23be
000000e0: 23af ed3d 296b 8d3c 22fe c23d 2b2d ddbd
000000f0: 1bf2 bfbd e7c3 0abe 9086 3bbd a627 053e
00000100: a893 2fbc c94b cfb5 fb57 afbd 6f9f bbbb
00000110: 7611 e73d 831f d13d 6c46 f13d 799d 04be
00000120: 65d7 573d 7b16 afbd 582f adbd 08f9 3b3e
00000130: 5b48 8fbc d304 323d 3cd9 773d 18fc aabd
00000140: 72d7 8fbc 2ac8 4dbc 5fa0 53bd 73fe 04be
00000150: 53fa 123d f9b4 723d b9da d23d f4e9 c33c
00000160: 6c97 88bd d8f4 09be c7da 0c3e 2121 95bd
00000170: 6c46 1e3e 4a41 4bbd 00ba b73d 83ce 28bd
00000180: b9d7 5f3d 126c b7bd a005 cbbd bcb5 4abc
00000190: 682d 653d 869a c33d 6bb7 6ebd 9556 be3d
000001a0: 9c65 8f3d fada bb3d 6480 ca3d 8946 babd
000001b0: ae3a ba3c cea8 28bd 5ed1 1e3e 08df 6d3d
000001c0: 261a 49bd 8d8d 8f3b 8d75 a63d 7995 243d
000001d0: e3d9 0b3c 5fe0 a83d f981 7d3e 4223 043e
000001e0: 5171 c13d d0f9 20bc e8de 503e bfb9 e23d
000001f0: b429 1a3d 7291 97bc 0803 44bd 2a18 903c
00000200: 5288 253d 7c1c 8d3d 1183 553c 1ac7 53bd
00000210: 8099 f3bc 7d71 b53d 9047 8b3d 0bd5 9abd
00000220: d2ac fd3c b7bd b03d ec55 a63d 57fc a73c
00000230: 7c97 743d 3208 6bbd 2516 213e dec3 a33c
00000240: df40 8fbc 9ba7 0cbb 2b5a 21be fc63 553e
00000250: 7822 a8bd 467e abbd dfd9 453d 0a5a 92bb
00000260: 52bf febd eb8b 073d 3611 ac3d 6ff1 05bd
00000270: 637f b1bc 7a76 033d 7d40 043e 1832 0dbe
00000280: 6a22 303d 75e0 3d3c 8a50 a8bd e44f 163c
00000290: 41f4 033d 3280 8f3c 4663 ef3c 847a 82bd
000002a0: cb3f 2a3e 6361 9c3d 41be 633d 07ed 123e
000002b0: 5761 58bd f876 a73c 13bc db3d f34c e7bd
000002c0: a9b2 cc3d d285 923d 7fee d9bc 2681 e0bc
000002d0: 4398 48bc fe5a d7bd 9592 77bd e0f5 e2bc
000002e0: 55b3 323e 46fc f43d fd53 32be 36d1 123e
000002f0: 6af6 3e3d f473 93bd e927 fd3d 7b67 103d
00000300: 34eb 413d d63c 193e 529d 203e cbff 443e
00000310: bf1c 033d 32f0 e93d 741d fa3c 02a6 343d
00000320: ef61 363d 5104 2f3d 8399 ea3d 1ee7 bf3d
00000330: c543 2f3d fa16 30bd 5652 123d 2dc9 9abd
00000340: 7d40 3e3d 7dc0 23be c4ef e1bc 42c2 3bbd
00000350: b668 e73c fe50 203d 0ba5 27bd 378d 81bd
00000360: 5d10 843d 29b3 003e d0b1 123d cd8e 173d
00000370: 89b8 e1bd a7bf e7bd 98de f33d 328f 693c
00000380: 1fe8 d53a 04b4 613e a3ef 08bd 898e 18bd
00000390: 1b4f 45bd 5f31 90bd add9 e9bd a952 653e
000003a0: 5bc6 20be 2756 25be 48fc ef3c 3860 ae3d
000003b0: 2a59 2d3d 65ff 663d fc4e ac3c 522b 16bd
000003c0: 8d19 a33c 2fc3 f3bc 30d1 263d 99a9 cdbc
000003d0: 2bef 0c3d 923f 723d f2d0 0c3d 4601 35bd
000003e0: e7ca 303e 936b ce3d 844e 4dbd 4aee 30bd
000003f0: fd0c 583d 34ba 3d3a 30a6 b33d f663 bc3d

fc_layer3.bias f4 [10]
-0.025897717 -0.18423626 0.05004657 0.010575156 -0.1565772 0.0659855 -0.2839522 0.22584134
0.2804855 0.273649
00000000: 7327 d4bc 6ea8 3cbe a2fd 4c3d 6b43 2d3c
00000010: c655 20be 6823 873d 2f62 91be f442 673e
00000020: cc9b 8f3e b91b 8c3e
