saved_models/lenet5.pth (torch, 181290 bytes, 10 tensors)

model.0.weight f4 [6, 1, 5, 5]
0.1461532 0.30766127 -0.11611575 -0.20882747 -0.36412838 -0.086110726 0.24551506 0.34446093
-0.059309974 -0.31810126 0.119920224 0.3580474 0.7614013 0.43057925 -0.009165766 -0.18904713
0.05526963 0.34476116 0.26091158 0.09542329 -0.48701152 -0.3219314 -0.24893305 0.097442806
-0.13605082 -0.12670429 -0.0722004 -0.13353361 -0.2424613 -0.45788112 0.15468039 -0.14229675
-0.22412206 -0.589125 -0.5053664 0.14604846 0.32794574 0.2018059 -0.052114606 0.24719138
0.14494881 0.26029006 0.563732 0.5653561 0.44224858 -0.17437196 0.11941217 0.022419764
0.10260951 -0.046247013 -0.21064408 0.034049626 -0.0090048835 0.23492256 0.039951783 -0.06377153
0.13406976 0.3283688 0.18587004 -0.32241243 0.013944165 0.33192793 0.52125967 -0.1541311
-0.3269648 -0.02389506 0.47309446 0.080958664 -0.30806562 -0.46555108 0.20461747 0.3037684
0.25951922 -0.25277665 -0.37294638 -0.40107813 -0.3330514 -0.0107034985 0.18098848 0.23518376
-0.41741443 -0.11172707 0.30866635 0.1992498 0.15354745 -0.33084476 0.1558157 0.15612814
0.28152427 -0.025593054 -0.11585433 -0.08094062 0.30852777 0.31719455 -0.07128123 -0.21190892
0.10777546 0.11147379 0.15765122 -0.018695487 -0.27358335 -0.17826909 -0.21438637 -0.23345082
-0.05312691 -0.11160403 -0.27021086 -0.2632495 -0.28749254 -0.20843828 0.24789253 -0.08371674
-0.16383405 -0.3636924 -0.24158941 0.10145557 0.06704546 -0.2582952 -0.2374682 -0.24726836
0.21850576 0.0029670773 -0.053490076 -0.31503743 -0.31278574 -0.07147129 0.100039095 -0.073970646
0.18455224 -0.054244727 0.2474174 0.0033476579 -0.3909725 -0.005957434 -0.060987975 -0.17512399
-0.49750057 -0.5114391 0.02104047 -0.015163544 -0.1036698 -0.37890732 0.21031402 0.19487318
0.09958326 0.18679793 0.43451592 0.58387226 0.3331926 -0.21343352
00000000: 2fa9 153e c785 9d3e 18ce edbd ded6 55be
00000010: 096f babe d25a b0bd 4d68 7b3e 2f5d b03e
00000020: 04ef 72bd 2bde a2be bc98 f53d fd51 b73e
00000030: 32eb 423f e274 dc3e 022c 16bc 9295 41be
00000040: 6862 623d 8984 b03e 3496 853e 496d c33d
00000050: 9359 f9be 31d4 a4be 4ee8 7ebe 1890 c73d
00000060: e850 0bbe c5be 01be cedd 93bd 09bd 08be
00000070: c647 78be 656f eabe 8964 1e3e 3db6 11be
00000080: 4180 65be e5d0 16bf b15f 01bf ba8d 153e
00000090: 81e8 a73e 35a6 4e3e 2076 55bd bd1f 7d3e
000000a0: 766d 143e bd44 853e be50 103f 2dbb 103f
000000b0: 686e e23e 908e 32be 5e8e f43d a7a9 b73c
000000c0: ef24 d23d 826d 3dbd 15b3 57be 9f77 0b3d
000000d0: 3889 13bc 8a8f 703e 7ba4 233d a69a 82bd
000000e0: 9549 093e f51f a83e b754 3e3e 3e13 a5be
000000f0: 1176 643c 75f2 a93e 4671 053f 8bd4 1dbe
00000100: ee67 a7be 93bf c3bc 7039 f23e a8cd a53d
00000110: c7ba 9dbe b65c eebe 3e87 513e 8887 9b3e
00000120: b4df 843e f16b 81be d4f2 bebe 1d5a cdbe
00000130: b785 aabe ba5d 2fbc 0b55 393e 03d4 703e
00000140: 58b7 d5be 29d1 e4bd 8409 9e3e 2408 4c3e
00000150: 8b3b 1d3e 7c64 a9be 278e 1f3e 0ee0 1f3e
00000160: f323 903e 86a8 d1bc 0945 edbd 32c4 a5bd
00000170: 5af7 9d3e 5367 a23e e5fb 91bd a7fe 58be
00000180: 61b9 dc3d 5f4c e43d 526f 213e 4727 99bc
00000190: 1e13 8cbe 2c8c 36be 1a88 5bbe bb0d 6fbe
000001a0: 9a9b 59bd a790 e4bd 1459 8abe a3c8 86be
000001b0: 3932 93be d870 55be 8ad7 7d3e af73 abbd
000001c0: 1dc4 27be e435 babe 3763 77be f0c7 cf3d
000001d0: 214f 893d 453f 84be dd2a 73be eb33 7dbe
000001e0: f9bf 5f3e 4c73 423b 6918 5bbd 964c a1be
000001f0: 7425 a0be 8a5f 92bd 4ce1 cc3d ec7d 97bd
00000200: 43fb 3c3e b82f 5ebd fd5a 7d3e 6164 5b3b
00000210: 8c2d c8be 9436 c3bb 87ce 79bd b453 33be
00000220: 65b8 febe aced 02bf 105d ac3c 8370 78bc
00000230: d550 d4bd 2400 c2be 8f5c 573e d68c 473e
00000240: 4ff2 cb3d f547 3f3e df78 de3e a778 153f
00000250: 3898 aa3e 518e 5abe

model.0.bias f4 [6]
0.07753188 0.15253788 -0.32667494 -0.36098337 0.3074055 -0.062250797
00000000: 09c9 9e3d e432 1c3e f041 a7be d0d2 b8be
00000010: 4164 9d3e b1fa 7ebd

model.3.weight f4 [16, 6, 5, 5]
0.03474607 -0.177955 -0.0948778 -0.061732195 0.10223245 0.08085902 0.04906563 -0.32099044
-0.15372887 -0.067508005 -0.14295514 0.20291224 -0.1178155 -0.24847811 -0.15036605 -0.15337987
0.1760229 0.08645549 -0.14015219 -0.1333021 0.035881475 0.14599954 0.28879052 -0.025977675
-0.004256838 0.12673497 -0.14095727 -0.2701277 -0.13933545 -0.025522336 0.11183124 0.1331625
-0.079568006 -0.1302443 -0.063461125 -0.036722586 0.20114195 0.124301836 -0.118548974 -0.13017596
-0.108993426 0.01792182 0.109241046 0.05572224 -0.11516607 -0.19164973 -0.06723742 0.09822381
0.08708454 -0.041152142 0.019001989 -0.01881746 -0.10903346 0.0021732294 0.048899088 -0.016655212
-0.022892999 -0.17241745 -0.08692488 0.017765135 0.06648915 -0.0012571333 0.09762078 -0.024486322
-0.11168201 0.17857607 0.08105545 0.14602971 0.020990266 -0.031636618 0.004178439 0.045741614
0.095491424 0.11415836 -0.109522894 0.050272767 -0.019134957 0.03424807 0.044275578 0.08735116
-0.06232306 -0.24708319 -0.13700886 -0.08688852 0.08553545 0.027671954 0.0238475 -0.16417891
-0.04514836 -0.00024279118 0.13563892 0.23046167 0.004914393 -0.015607218 -0.0059039705 0.026129698
0.24363665 0.0632736 -0.0708995 -0.036099073 0.026881998 -0.08430738 -0.0368598 -0.024071552
-0.05309604 -0.04566264 0.12917742 0.03895359 0.014178186 0.014353671 -0.024625467 0.062309485
0.063980415 -0.056695417 0.0024510173 -0.11966006 0.048133727 0.145134 0.13722801 -0.027585778
-0.16568577 -0.080353685 -0.023457197 -0.08394738 -0.03611187 -0.11690224 -0.061587587 -0.019478472
-0.02613465 -0.007388588 -0.108328015 -0.0025838946 0.002659419 -0.070397824 -0.017758938 -0.018813914
-0.15429252 -0.2032564 -0.024880363 -0.086496405 0.034560435 0.020058682 -0.1664991 -0.13357301
-0.048430566 0.04038929 0.017292261 -0.06647558 -0.10426751 0.079667814 -0.033776764 -0.04830188
-0.08676374 -0.005262884 0.0087672705 -0.029593326 -0.17781754 0.0913197 0.18216297 -0.0035213192
-0.055966016 -0.0369021 -0.06487684 0.0752823 -0.086312436 -0.03374503 0.07245112 -0.06306101
-0.20533603 -0.14359 -0.032736436 0.08638353 0.121463224 0.038106956 0.031414177 -0.105781645
-0.17333673 -0.018153053 0.18411542 0.05434065 -0.07977597 -0.079512484 -0.028954776 0.04019561
-0.1469521 -0.014263478 -0.13765113 -0.23573978 -0.14712892 -0.09491335 0.19729419 0.17238115
0.14829713 0.07675305 0.049818438 0.140927 0.33282652 0.37302363 0.118569516 -0.029444423
0.027270552 -0.09048358 -0.06536201 0.08779983 0.010603565 -0.16123292 -0.2349123 -0.1050383
0.08063218 0.07031286 -0.12882455 -0.23173678 -0.26748836 -0.23235299 -0.071994886 -0.07243143
-0.12145512 -0.14374457 -0.21560897 -0.05077806 -0.029004812 0.09916112 0.123908296 0.09171775
0.115476966 -0.12756848 -0.028441666 0.07115689 0.09639357 0.15603168 -0.18461415 -0.103835456
0.13737649 0.14218305 0.03726371 -0.14183664 -0.03832025 -0.037678003 -0.06850116 -0.18835545
-0.12243701 -0.11821197 -0.19048348 -0.19436987 -0.014320964 0.08024774 -0.02620583 -0.05136895
0.04332795 0.0104227895 -0.05868818 -0.01135623 -0.08222513 -0.0150068505 -0.07637934 0.013843115
00000000: e551 0e3d d639 36be 4b4f c2bd e6da 7cbd
00000010: 3f5f d13d 6a99 a53d 0bf9 483d dc58 a4be
00000020: 1a6b 1dbe a341 8abd d562 12be 3ac8 4f3e
00000030: 4149 f1bd 0c71 7ebe 8ff9 19be 9d0f 1dbe
00000040: 593f 343e 930f b13d 0e84 0fbe 5880 08be
00000050: 74f8 123d e780 153e 5adc 933e 22cf d4bc
00000060: f27c 8bbb d0c6 013e 1a57 10be 2e4e 8abe
00000070: f4ad 0ebe 3814 d1bc c707 e53d c05b 083e
00000080: 8df4 a2bd c35e 05be e8f7 81bd 6c6a 16bd
00000090: 28f8 4d3e f691 fe3d cec9 f2bd d94c 05be
000000a0: f237 dfbd c8d0 923c c5b9 df3d 013d 643d
000000b0: 30dc ebbd d43f 44be c6b3 89bd 9129 c93d
000000c0: 6159 b23d 268f 28bd 0faa 9b3c 1327 9abc
000000d0: ef4c dfbd bd6c 0e3b 694a 483d 8370 88bc
000000e0: 198a bbbc 338e 30be ac05 b2bd 3088 913c
000000f0: 772b 883d 65c6 a4ba 67ed c73d 8a97 c8bc
00000100: 8ab9 e4bd a5dc 363e 6600 a63d d088 153e
00000110: c7f3 ab3c 6695 01bd 49eb 883b 8f5b 3b3d
00000120: 0291 c33d dccb e93d 8a4d e0bd d1ea 4d3d
00000130: eac0 9cbc b447 0c3d 4f5a 353d 2ae5 b23d
00000140: 7746 7fbd 6003 7dbe 0d4c 0cbe 9cf2 b1bd
00000150: 362d af3d 4bb0 e23c d55b c33c 841e 28be
00000160: 7ded 38bd c395 7eb9 eee4 0a3e 25fe 6b3e
00000170: eb08 a13b 6bb5 7fbc 1876 c1bb f30d d63c
00000180: e37b 793e 9795 813d c233 91bd 9fdc 13bd
00000190: a337 dc3c 59a9 acbd 4dfa 16bd b431 c5bc
000001a0: 3c7b 59bd c008 3bbd 1647 043e cd8d 1f3d
000001b0: 9f4b 683c a92b 6b3c 59bb c9bc 3b38 7f3d
000001c0: 2a08 833d 7439 68bd 3fa1 203b 5510 f5bd
000001d0: df27 453d 029e 143e 8085 0c3e 92fb e1bc
000001e0: 88a9 29be 7990 a4bd 4f29 c0bc 9bec abbd
000001f0: 0aea 13bd 716a efbd 4443 7cbd 5191 9fbc
00000200: 5518 d6bc f81b f2bb 14db ddbd 8f56 29bb
00000210: a649 2e3b bc2c 90bd 317b 91bc a31f 9abc
00000220: dcfe 1dbe 7222 50be e7d1 cbbc 0725 b1bd
00000230: 3e8f 0d3d 1b52 a43c bd7e 2abe 5dc7 08be
00000240: 215f 46bd 3d6f 253d 80a8 8d3c 5924 88bd
00000250: 348a d5bd e128 a33d 8159 0abd 31d8 45bd
00000260: 30b1 b1bd 4574 acbb 99a4 0f3c b46d f2bc
00000270: cd15 36be d305 bb3d ee88 3a3e efc5 66bb
00000280: 9f3c 65bd a826 17bd 26de 84bd 9b2d 9a3d
00000290: 93c4 b0bd 3b38 0abd 4161 943d 2126 81bd
000002a0: 9c43 52be 4209 13be a416 06bd d9e9 b03d
000002b0: b6c1 f83d 0a16 1c3d 27ac 003d 0ca4 d8bd
000002c0: 2f7f 31be b6b5 94bc c188 3c3e 4d94 5e3d
000002d0: 9561 a3bd 71d7 a2bd 9132 edbc 27a4 243d
000002e0: 9c7a 16be 5db1 69bc 6bf4 0cbe c565 71be
000002f0: f7a8 16be ee61 c2bd 7d07 4a3e af84 303e
00000300: 34db 173e b430 9d3d 6b0e 4c3d 2b4f 103e
00000310: 3d68 aa3e f4fc be3e 93d4 f23d 6e35 f1bc
00000320: 7e66 df3c 754f b9bd 84dc 85bd 66d0 b33d
00000330: 93ba 2d3c 3e1a 25be da8c 70be 521e d7bd
00000340: 7c22 a53d 3000 903d 95ea 03be 684c 6dbe
00000350: 3cf4 88be f1ed 6dbe 0e72 93bd ee56 94bd
00000360: 76bd f8bd c731 13be 99c8 5cbe a8fc 4fbd
00000370: 809b edbc fc14 cb3d a2c3 fd3d 84d6 bb3d
00000380: 307f ec3d 50a1 02be 7ffe e8bc b4ba 913d
00000390: fe69 c53d c5c6 1f3e 7e0b 3dbe afa7 d4bd
000003a0: 6cac 0c3e 6f98 113e d5a1 183d a03d 11be
000003b0: b2f5 1cbd 4054 1abd 564a 8cbd 40e0 40be
000003c0: 41c0 fabd 1e19 f2bd 1a0e 43be e508 47be
000003d0: 7aa2 6abc ed58 a43d 9cad d6bc 4068 52bd
000003e0: a678 313d 59c4 2a3c 0463 70bd 7b0f 3abc
000003f0: a665 a8bd 4bdf 75bc c56c 9cbd 3cce 623c

model.3.bias f4 [16]
-0.026562093 0.02950792 0.056723397 -0.015015067 -0.09048711 0.041449945 0.0399376 0.029903444
-0.04101114 -0.035899732 -0.019074133 0.063919954 0.007852228 0.040652994 0.0016516948 0.008896102
00000000: bf98 d9bc 98ba f13c cb56 683d c101 76bc
00000010: 4e51 b9bd 6bc7 293d 9c95 233d 11f8 f43c
00000020: 4cfb 27bd 990b 13bd 5b41 9cbc 77e8 823d
00000030: a2a6 003c c183 263d ae7d d83a f5c0 113c

model.7.weight f4 [120, 256]
0.008083576 0.06396988 0.03085752 -0.045354344 0.017795894 -0.032064456 -0.07730406 3.5086483e-05
0.0037357803 0.025547205 0.02435544 -0.09275408 -0.02943126 -0.0063880454 -0.028550157 -0.034743045
0.039633203 -0.03336045 -0.03311667 0.0020196799 0.028324638 0.0014752116 0.00812059 0.0024686623
0.11808365 0.040519096 0.066855386 -0.008840705 -0.10330251 -0.08328734 0.026580514 0.04462087
-0.042301685 0.086761184 -0.0018973026 -0.010249346 -0.08248355 -0.0034063759 0.05796944 -0.0124094635
0.014008606 -0.06881348 -0.092740215 -0.025091087 0.07286452 0.048793137 0.003821686 -0.037463076
0.0002452028 -0.11013858 -0.09644418 -0.0006232145 -0.015932959 0.11277464 0.0049853036 0.048121955
0.044803288 -0.06320465 0.073627785 0.03514316 0.02072328 0.05219319 -0.012762784 0.0013174324
0.0701667 -0.016834242 -0.05136759 0.02397992 0.003120225 0.0067395214 0.103882454 0.031700853
-0.089694664 0.01863656 -0.015104503 -0.07077824 0.016158 -0.0033719877 0.012094884 -0.0362564
0.057569157 -0.021605866 -0.0045873933 -0.010640647 0.028205028 -0.038075205 -0.022068387 0.020385621
-0.01648755 -0.053182296 -0.07968356 -0.05723711 0.013228455 -0.07772697 -0.085783206 0.04728156
0.030199884 -0.0107852435 -0.03176768 0.06133133 0.0064561823 -0.021071598 -0.090650246 -0.03656474
0.02884144 -0.057127874 -0.022761546 -0.09552954 0.04965161 -0.033658296 -0.032378476 -0.0016597518
-0.036768425 0.06361568 -0.01811865 -0.033308044 -0.03799171 -0.006340218 0.04467142 0.035774473
-0.029804857 -0.11778202 -0.007080198 -0.050476406 -0.0080712885 -0.095974796 -0.067249015 -0.037496842
0.06787018 0.033293232 -0.020023357 -0.001232951 -0.045878917 -0.0054250965 0.015010534 -0.04316515
0.038657777 -0.048413083 -0.00065292185 -0.06826464 0.009345139 0.07499244 0.080714926 0.021792611
0.04908661 0.066927016 0.037304666 0.00932808 0.052254025 0.06806863 0.016199918 -0.06390041
-0.028521243 -0.085858636 -0.081827044 -0.064007126 -0.013091093 -0.036562454 0.011267718 0.02568187
-0.026695896 0.05128885 0.028419128 -0.0741364 0.13467973 0.16474299 0.076842524 -0.010448781
0.057716522 0.015664123 -0.0692377 -0.026591225 0.027109077 -0.015788779 -0.13290577 0.013013141
-0.03540529 0.030044727 -0.008906224 0.009146698 0.0908926 0.057298835 0.031609777 0.004513753
0.04388478 0.025806181 -0.00055604556 -0.041294727 0.076237194 0.09269406 -0.07813133 0.06602023
-0.037098292 -0.038204424 -0.0051061166 0.01897399 -0.11105346 -0.059473082 -0.0076182196 0.0129214395
-0.12082399 -0.07503554 -0.01707065 -0.004381046 -0.07665832 -0.039462164 -0.054406773 -0.057847533
-0.04983893 -0.07074406 0.08135902 0.010128152 -0.00071647455 -0.11485192 -0.10298786 0.019730335
-0.14845972 -0.14297523 -0.120645024 -0.035147533 -0.06539616 -0.085599154 0.034792252 -0.0076838853
0.06241113 0.11797119 0.010791306 0.026864901 0.052918825 0.10895377 0.0028138782 -0.03469068
0.0040355152 -0.07218511 -0.034317724 -0.02140728 0.07705062 -0.005596736 -0.058296125 -0.034864224
-0.050557565 -0.0027106255 -0.056426562 -0.09393772 0.057635736 0.01771315 -0.071608946 0.070356205
0.029129626 -0.0013129469 0.008786291 0.027243542 -0.05371032 0.008523996 -0.0075022434 -0.044181332
00000000: fa70 043c a402 833d e9c8 fc3c 7ac5 39bd
00000010: b2c8 913c 0556 03bd 9751 9ebd d329 1338
00000020: fed3 743b 5f48 d13c 0f85 c73c daf5 bdbd
00000030: d319 f1bc cf52 d1bb 05e2 e9bc b94e 0ebd
00000040: 6d56 223d f8a4 08bd 58a5 07bd 9b5c 043b
00000050: 1209 e83c e35b c13a 390c 053c 48c9 213b
00000060: d7d5 f13d 5af7 253d 7aeb 883d 9bd8 10bc
00000070: 4490 d3bd 8e92 aabd 61bf d93c 60c4 363d
00000080: 8844 2dbd d9af b13d e9ae f8ba dfec 27bc
00000090: 23ed a8bd 813d 5fbb 5d71 6d3d 1051 4bbc
000000a0: 5a84 653c 15ee 8cbd 95ee bdbd d38b cdbc
000000b0: fe39 953d 50db 473d 4075 7a3b e272 19bd
000000c0: 908e 8039 5690 e1bd 8784 c5bd 385f 23ba
000000d0: d685 82bc 64f6 e63d c25b a33b 871b 453d
000000e0: a783 373d 7171 81bd 2aca 963d 46f2 0f3d
000000f0: dec3 a93c 87c8 553d ff1a 51bc b2ad ac3a
00000100: 8fb3 8f3d f7e7 89bc d266 52bd 8a71 c43c
00000110: b07c 4c3b 34d7 dc3b 53c0 d43d c1d8 013d
00000120: d6b1 b7bd b3ab 983c e178 77bc 2ff4 90bd
00000130: c85d 843c 91fc 5cbb 9f29 463c 9781 14bd
00000140: a3cd 6b3d c9fe b0bc d851 96bb 1c56 2ebc
00000150: 3b0e e73c bff4 1bbd c3c8 b4bc bfff a63c
00000160: e610 87bc aed5 59bd 2231 a3bd 7671 6abd
00000170: 29bc 583c 512f 9fbd 1baf afbd 4faa 413d
00000180: bf65 f73c 97b4 30bc d41e 02bd 9036 7b3d
00000190: 628e d33b 589e acbc d6a6 b9bd e9c4 15bd
000001a0: e244 ec3c ebfe 69bd 6c76 babc fea4 c3bd
000001b0: 7d5f 4b3d 48dd 09bd 4b9f 04bd 078c d9ba
000001c0: 7d9a 16bd f048 823d 906d 94bc 046e 08bd
000001d0: 329d 1bbd 9ac1 cfbb 61f9 363d 4188 123d
000001e0: 5129 f4bc b337 f1bd 0101 e8bb 59c0 4ebd
000001f0: 703d 04bc 6f8e c4bd dab9 89bd 4a96 19bd
00000200: 85ff 8a3d 7c5e 083d 0608 a4bc f89a a1ba
00000210: 88eb 3bbd 02c5 b1bb beee 753c f1cd 30bd
00000220: 9e57 1e3d cc4c 46bd d828 2bba 55ce 8bbd
00000230: 5b1c 193c a395 993d de4d a53d 6b86 b23c
00000240: 0b0f 493d 0811 893d c7cc 183d ced4 183c
00000250: 5108 563d 9167 8b3d b1b5 843c 38de 82bd
00000260: 62a5 e9bc a7d6 afbd f094 a7bd 2b16 83bd
00000270: 067c 56bc 83c2 15bd 3c9c 383c c962 d23c
00000280: 5ab1 dabc 4214 523d 3bcf e83c d3d4 97bd
00000290: 7ce9 093e 63b2 283e 9d5f 9d3d 5d31 2bbc
000002a0: 2968 6c3d 0c52 803c 7fcc 8dbd d7d5 d9bc
000002b0: db13 de3c 7857 81bc 7318 08be 1235 553c
000002c0: 2305 11bd 5c20 f63c 69eb 11bc 08dc 153c
000002d0: e625 ba3d 2fb2 6a3d 4179 013d 1be8 933b
000002e0: 87c0 333d 7c67 d33c 96c3 11ba a924 29bd
000002f0: 3f22 9c3d 62d6 bd3d 5203 a0bd 9d35 873d
00000300: 61f4 17bd 3e7c 1cbd 3651 a7bb 576f 9b3c
00000310: ff6f e3bd 0c9a 73bd 42a2 f9bb 72b4 533c
00000320: 9172 f7bd 3cac 99bd bfd7 8bbc e18e 8fbb
00000330: 0aff 9cbd 14a3 21bd a3d9 5ebd 89f1 6cbd
00000340: e823 4cbd 43e2 90bd 8f9f a63d 8cf0 253c
00000350: cbd1 3bba 7c37 ebbd 4deb d2bd 83a1 a13c
00000360: d305 18be 1968 12be bd14 f7bd dcf6 0fbd
00000370: 6cee 85bd 9c4e afbd 5282 0e3d 1ac9 fbbb
00000380: d0a2 7f3d e19a f13d 05ce 303c c813 dc3c
00000390: 69c1 583d 2723 df3d 0b69 383b d117 0ebd
000003a0: 5b3c 843b c9d5 93bd be90 0cbd 525e afbc
000003b0: b7cc 9d3d d364 b7bb ebc7 6ebd cacd 0ebd
000003c0: 7315 4fbd c0a4 31bb 8a1f 67bd 6b62 c0bd
000003d0: 7313 6c3d 2b1b 913c b6a7 92bd ea16 903d
000003e0: 41a1 ee3c 3017 acba 60f4 0f3c d92d df3c
000003f0: 5aff 5bbd 3ba8 0b3c 61d5 f5bb 7cf7 34bd

model.7.bias f4 [120]
-0.014309461 -0.018128918 0.032842215 0.058618195 0.073512554 0.06362679 -0.007833233 -0.033998355
0.045119442 0.037527557 -0.014596033 0.039759856 -0.030942678 -0.014148051 0.05551455 0.057476554
-0.05857253 0.031835433 0.056856845 0.010021309 0.021511793 0.02553049 0.0011574647 0.037948675
-0.04021914 -0.00010185281 -0.022403184 0.040094662 -0.038699985 0.025870956 -0.02370922 0.044483583
-0.010652938 0.005614223 0.02714741 0.034015235 0.023084138 0.04045256 -0.00022541775 -0.019292137
0.016921446 -0.061565537 0.01869127 0.03117868 0.06887358 0.052111246 -0.03365858 -0.044502225
-0.020883836 -0.039971814 0.0031042318 0.037479326 0.047535226 -0.059132945 0.03089761 -0.031744782
-0.027142737 -0.044354644 -0.01997851 -0.01660618 -0.036996238 0.050777905 -0.006473632 0.023329632
-0.0024873815 0.036044307 -0.034715086 -0.015519423 -0.035237122 -0.037812468 -0.025730623 -0.059614293
-0.001983011 -0.06910434 0.012541937 0.018684534 0.04024837 -0.038492143 0.0009834283 0.00078374887
-0.05390637 0.041372888 0.029101653 0.028067324 -0.00776185 0.025195949 0.043620307 -0.028762562
0.027536472 0.023367953 -0.05065339 -0.02901443 -0.039154597 -0.050500154 0.046463415 -0.0226816
-0.013307651 -0.055019315 0.050295476 -0.001325316 0.049548425 0.05071445 -0.027155247 0.0029707903
0.027875999 0.05593251 -0.012353661 -0.017223923 0.06627751 0.025422482 -0.022975082 0.025653102
-0.058836076 0.021297721 0.015345815 -0.009378591 -0.02551408 0.036345612 -0.00022210855 -0.05862489
00000000: 3b72 6abc 1983 94bc 8f85 063d a219 703d
00000010: c08d 963d c34e 823d f656 00bc dc41 0bbd
00000020: 2acf 383d 7fb6 193d 3324 6fbc 3bdb 223d
00000030: 807b fdbc 3acd 67bc 3a63 633d 896c 6b3d
00000040: c0e9 6fbd df65 023d b9e2 683d 6b30 243c
00000050: 8039 b03c 5125 d13c 12b6 973a 1270 1b3d
00000060: d3bc 24bd d099 d5b8 e286 b7bc 4d3a 243d
00000070: e083 1ebd 54ef d33c d739 c2bc 6b34 363d
00000080: a989 2ebc 84f7 b73b 3f64 de3c 8f53 0b3d
00000090: f21a bd3c 95b1 253d 1e5e 6cb9 8b0a 9ebc
000000a0: d89e 8a3c 252c 7cbd 6f1e 993c 6e6a ff3c
000000b0: 970d 8d3d 9a72 553d 94dd 09bd f747 36bd
000000c0: 9414 abbc 7cb9 23bd 5e70 4b3b ec83 193d
000000d0: 4cb4 423d 6335 72bd fc1c fd3c d106 02bd
000000e0: 725a debc 37ad 35bd f9a9 a3bc af09 88bc
000000f0: 5e89 17bd 7efc 4f3d c320 d4bb c91d bf3c
00000100: 5603 23bb 32a3 133d 6831 0ebd 2e45 7ebc
00000110: cd54 10bd 3fe1 1abd 07c9 d2bc 1e2e 74bd
00000120: 67f5 01bb 9486 8dbd b27c 4d3c 4f10 993c
00000130: 7adb 243d f0a9 1dbd 61e6 803a 7f74 4d3a
00000140: edcc 5cbd 9e76 293d 9766 ee3c 72ed e53c
00000150: 1e57 febb bc67 ce3c 35ab 323d 779f ebbc
00000160: 2b94 e13c 266e bf3c ee79 4fbd abaf edbc
00000170: 9260 20bd 40d9 4ebd 6c50 3e3d c3ce b9bc
00000180: 5508 5abc ef5b 61bd a102 4e3d 3ab6 adba
00000190: 4af3 4a3d f5b9 4f3d ae74 debc 97b1 423b
000001a0: 355c e43c 7d19 653d 0267 4abc 2f19 8dbc
000001b0: 81bc 873d cf42 d03c 3d36 bcbc 7426 d23c
000001c0: 19fe 70bd 8f78 ae3c 036d 7b3c a9a8 19bc
000001d0: e702 d1bc 23df 143d cfe5 68b9 a720 70bd

model.9.weight f4 [84, 120]
0.11993649 0.11960813 -0.05882194 0.051297173 -0.08027657 0.07216102 -0.12102041 -0.08044806
0.0048348606 0.19449812 -0.26625633 -0.12769121 -0.07798061 -0.08344749 0.024152981 0.18583375
-0.0068429634 -0.038899906 0.024281854 0.060401946 -0.10841435 -0.071302176 0.01510295 -0.03905297
-0.05880262 0.0068525537 0.08433423 0.025652828 -0.018287988 -0.10939142 0.058094434 0.011871684
0.121223256 -0.019054778 -0.06157849 -0.01644808 -0.07786064 0.048077874 -0.080967985 0.01074947
0.019593326 -0.08591874 -0.061690904 0.08145418 -0.011725232 -0.017136032 -0.005047037 0.0045964145
-0.17385015 -0.053663157 0.073071696 0.023471033 -0.04491601 0.07953701 0.026862027 0.09450447
0.13707456 0.047558267 0.04259837 0.13407527 -0.075363725 -0.09393243 0.024622863 -0.0021996608
-0.013454112 -0.11360334 0.11520841 0.062549256 -0.06382215 0.009628525 0.04440143 -0.027192406
-0.054439336 0.05944754 0.04621328 -0.114819735 -0.004960671 0.04816608 -0.06529939 -0.19274794
0.08169555 0.16754243 -0.00021793357 0.11155093 0.005239711 0.016092006 -0.0718958 -0.012541662
0.15276875 0.05183529 0.10603561 0.06517795 -0.011906196 -0.035355903 -0.06614916 -0.0049595316
0.04186119 -0.047198057 -0.024716238 -0.16107848 -0.027217736 0.09642536 -0.031697392 0.015614541
0.09147954 0.06399669 0.022609463 -0.047966346 0.10201688 0.008473076 -0.114620425 -0.09135155
-0.0076384996 0.019291386 -0.056493375 -0.06096704 0.06934749 0.075035706 -0.040927213 0.02501844
-0.11246113 0.025378082 0.05549354 -0.08854657 0.016699191 0.08163825 0.02497017 -0.007397375
-0.101346605 0.082609475 -0.14215596 0.004180758 -0.12074344 -0.01230998 0.050577004 -0.08221204
-0.005035431 0.00846545 0.020851392 -0.051722325 0.086081654 0.008679563 0.052607484 0.033779755
-0.01797303 0.06909858 0.0007819098 -0.030750798 0.009269746 -0.06819132 -0.009828667 -0.06518632
0.06472757 0.10260361 -0.06254771 -0.15843034 -0.021808892 -0.055935208 -0.032204542 0.13994908
-0.0056973305 0.033773955 0.054957826 0.022458935 0.08151986 0.03289855 0.021184249 0.009728121
-0.049346846 0.120039545 0.07874726 -0.05002746 -0.094650015 0.05022444 0.024350535 -0.037848704
-0.11769567 0.033689998 0.032115314 0.097479925 -0.08163899 0.023348883 0.080185294 0.02482855
-0.02919732 -0.024715917 0.088915184 0.051566914 -0.041176267 -0.0020736603 -0.05659704 -0.08569699
0.11208505 -0.016589444 -0.007901853 -0.09609274 0.06956441 -0.06348141 0.03270159 -0.18894988
0.008983277 0.006197473 0.026770664 0.029083004 -0.06515002 -0.11918224 -0.10001722 0.07607356
-0.02866221 -0.01261431 0.122492254 0.13519509 0.0976359 -0.016487943 -0.015789153 0.0914662
-0.02079039 0.014414471 -0.09273824 -0.14734633 -0.087683804 0.051361304 0.08163987 0.08839688
0.030782565 -0.0055758334 -0.06732354 0.0929149 0.06065462 -0.03706776 -0.120958194 0.039717097
-0.08113652 -0.02189245 0.07157607 -0.08019033 0.024781154 0.027342152 -0.094413355 -0.10720985
-0.08993246 -0.072241426 -0.12720543 0.08333621 -0.055321563 -0.0148579655 0.0707527 -0.021059828
-0.024674704 -0.0878039 0.08008229 -0.04981345 0.034006357 0.0001672764 0.04528091 -0.15224725
00000000: 43a1 f53d 1bf5 f43d 46ef 70bd fc1c 523d
00000010: 0b68 a4bd 28c9 933d 8cd9 f7bd f4c1 a4bd
00000020: c06d 9e3b 842a 473e c052 88be 7cc1 02be
00000030: 4cb4 9fbd 85e6 aabd 79dc c53c 344b 3e3e
00000040: f03a e0bb 8255 1fbd bdea c63c 0868 773d
00000050: 5808 debd e006 92bd 5d72 773c 02f6 1fbd
00000060: 04db 70bd 638b e03b 6db7 ac3d e125 d23c
00000070: b1d0 95bc 9c08 e0bd 6ef4 6d3d 7481 423c
00000080: e643 f83d c418 9cbc ba39 7cbd 20be 86bc
00000090: 6675 9fbd 4eed 443d 8bd2 a5bd 8c1e 303c
000000a0: 2f82 a03c 2af6 afbd 9aaf 7cbd 73d1 a63d
000000b0: 301b 40bc dd60 8cbc 9d61 a5bb 859d 963b
000000c0: c605 32be e6cd 5bbd 9da6 953d 5346 c03c
000000d0: daf9 37bd 4de4 a23d c10d dc3c 8f8b c13d
000000e0: 465d 0c3e 75cc 423d a17b 2e3d 074b 093e
000000f0: 4c58 9abd a55f c0bd e3b5 c93c 2f28 10bb
00000100: a36e 5cbc dea8 e8bd 63f2 eb3d d319 803d
00000110: 30b5 82bd f6c0 1d3c 46de 353d 9cc2 debc
00000120: c8fb 5ebd 447f 733d 234a 3d3d 9c26 ebbd
00000130: 208d a2bb cc49 453d b0bb 85bd b75f 45be
00000140: ff4f a73d 3e90 2b3e 1985 64b9 d074 e43d
00000150: e2b1 ab3b 62d3 833c 1b3e 93bd 8b7b 4dbc
00000160: 696f 1c3e 3e51 543d 3329 d93d 047c 853d
00000170: 3512 43bc 5ad1 10bd 3679 87bd 9183 a2bb
00000180: a476 2b3d c052 41bd b579 cabc c2f1 24be
00000190: bbf7 debc a97a c53d 20d5 01bd 22d4 7f3c
000001a0: a059 bb3d b210 833d 7b37 b93c 5c78 44bd
000001b0: 3aee d03d a8d2 0a3c 1dbe eabd 8516 bbbd
000001c0: 614c fabb f808 9e3c 9965 67bd 93b8 79bd
000001d0: 0f06 8e3d 52ac 993d 4ba3 27bd 79f3 cc3c
000001e0: 0552 e6bd b2e5 cf3c 324d 633d e757 b5bd
000001f0: becc 883c f431 a73d 3e8e cc3c ae65 f2bb
00000200: cf8e cfbd 282f a93d 5591 11be bdfe 883b
00000210: 5648 f7bd ccaf 49bc d529 4f3d c95e a8bd
00000220: 4200 a5bb acb2 0a3c 8ad0 aa3c cada 53bd
00000230: 944b b03d ba34 0e3c f27a 573d a45c 0a3d
00000240: 2d3c 93bc 8e83 8d3d 14f9 4c3a 19e9 fbbc
00000250: 22e0 173c e4a7 8bbd 6b08 21bc 6880 85bd
00000260: e38f 843d d721 d23d 0419 80bd 903b 22be
00000270: 90a8 b2bc 511c 65bd e9e8 03bd d04e 0f3e
00000280: acb0 babb 8f56 0a3d 751b 613d cdfb b73c
00000290: e2f3 a63d a1c0 063d 978a ad3c b262 1f3c
000002a0: eb1f 4abd 4bd7 f53d 3e46 a13d 98e9 4cbd
000002b0: ded7 c1bd 24b8 4d3d c67a c73c 3e07 1bbd
000002c0: 6d0a f1bd 86fe 093d 598b 033d 8ea3 c73d
000002d0: 5832 a7bd 2846 bf3c 3038 a43d 3e65 cb3c
000002e0: 382f efbc 0979 cabc 2a19 b63d d437 533d
000002f0: 72a8 28bd 3fe6 07bb 4cd2 67bd e781 afbd
00000300: d98c e53d 96e6 87bc c676 01bc 45cc c4bd
00000310: c977 8e3d 8b02 82bd 1af2 053d 147c 41be
00000320: 982e 133c 2c14 cb3b 274e db3c 7b3f ee3c
00000330: 606d 85bd d115 f4bd d4d5 ccbd 74cc 9b3d
00000340: 03cd eabc 40ac 4ebc 38dd fa3d 9570 0a3e
00000350: 55f5 c73d b911 87bc 4158 81bc a252 bb3d
00000360: 9c50 aabc ac2a 6c3c 8ced bdbd f5e1 16be
00000370: 9193 b3bd 3b60 523d ce32 a73d 6c09 b53d
00000380: b82b fc3c 7bb5 b6bb ede0 89bd 2b4a be3d
00000390: fb70 783d 5dd4 17bd eeb8 f7bd 65ae 223d
000003a0: e72a a6bd cc57 b3bc 7996 923d d43a a4bd
000003b0: d901 cb3c a6fc df3c ca5b c1bd d690 dbbd
000003c0: 822e b8bd 50f3 93bd 2442 02be 2dac aa3d
000003d0: dd98 62bd d36e 73bc cbe6 903d a985 acbc
000003e0: 9b22 cabc 88d2 b3bd 2f02 a43d 3009 4cbd
000003f0: 404a 0b3d eb66 2f39 7a78 393d b4e6 1bbe

model.9.bias f4 [84]
0.060811304 0.06708317 0.1132894 0.07272542 -0.00811707 -0.013251021 0.060531385 -0.087162584
-0.021392457 0.08395439 -0.02587769 0.029230114 -0.044434372 0.087710686 -0.08481596 0.018459927
-0.0666193 -0.078922726 -0.038409688 -0.061212145 0.106696725 0.08140865 0.024411334 -0.0047807503
-0.07672075 0.048680212 -0.027869672 -0.048053037 0.03434488 -0.040757533 -0.026735827 -0.060142204
0.036763784 -0.022327045 0.08883519 0.035649672 0.019499961 -0.05422163 -0.004630852 0.04596941
-0.004827158 -0.040481746 -0.03757928 -0.06067905 0.018420065 -0.042752426 0.031825837 -0.056141872
-0.05298182 0.031389013 -0.039158534 0.022816163 -0.05527612 0.0062065413 0.06300038 -0.060014307
-0.08464581 -0.064304754 -0.046323955 -0.018843874 0.064259395 -0.04458128 0.07885515 0.07448861
0.04045067 0.061871212 0.018831955 -0.083483994 0.059809078 -0.0510607 -0.07793819 0.086361684
-0.04879498 -0.005839559 -0.09076109 -0.094486915 0.03169884 0.010598869 0.08667369 -0.04265138
-0.042900126 -0.04155642 0.095718496 0.043407712
00000000: 4615 793d e762 893d 4604 e83d 11f1 943d
00000010: 76fd 04bc cf1a 59bc c2ef 773d 4c82 b2bd
00000020: 3c3f afbc 47f0 ab3d 73fd d3bc fe73 ef3c
00000030: d100 36bd a9a1 b33d fdb3 adbd 4639 973c
00000040: b36f 88bd 3da2 a1bd 7a53 1dbd 96b9 7abd
00000050: d083 da3d 94b9 a63d 47fa c73c d7a7 9cbb
00000060: c51f 9dbd e764 473d f04e e4bc 43d3 44bd
00000070: 38ad 0c3d 5ff1 26bd 1805 dbbc ac57 76bd
00000080: 9f95 163d 35e7 b6bc 39ef b53d 6405 123d
00000090: 62be 9f3c 8017 5ebd 67be 97bb 6c4a 3c3d
000000a0: 232d 9ebb 30d0 25bd bbec 19bd 988a 78bd
000000b0: ade5 963c 2b1d 2fbd cf5b 023d 05f5 65bd
000000c0: 7703 59bd c491 003d b364 20bd f6e8 ba3c
000000d0: 3669 62bd 3e60 cb3b 5806 813d 90d1 75bd
000000e0: c85a adbd 36b2 83bd 30be 3dbd 785e 9abc
000000f0: 6e9a 833d dc9a 36bd cf7e a13d 7c8d 983d
00000100: 9aaf 253d ab6c 7d3d 7945 9a3c a8f9 aabd
00000110: 5dfa 743d 0625 51bd 0f9e 9fbd 65de b03d
00000120: 3fdd 47bd c559 bfbb f3e0 b9bd 5b82 c1bd
00000130: a5d6 013d e1a6 2d3c fa81 b13d 37b3 2ebd
00000140: 0bb8 2fbd 1137 2abd 0f08 c43d 49cc 313d

model.11.weight f4 [10, 84]
-0.19463448 -0.12308675 -0.072497785 -0.055060193 -0.018997122 -0.10564007 -0.213544 -0.04238399
-0.11882322 -0.2560907 -0.116550304 -0.113203146 -0.077189244 -0.07827 0.09346923 0.053208955
-0.07392366 0.0039631967 0.08557977 0.13993086 -0.060137123 -0.05861368 0.14960073 -0.18162617
-0.104940735 -0.10887557 -0.14943403 0.003946511 -0.2869923 0.077934384 -0.13742083 -0.19923511
-0.06683983 -0.25160742 -0.008839845 -0.2782945 0.2855309 0.058208525 -0.04226067 0.027855957
0.09944175 -0.049930446 -0.11381906 0.17898163 0.058017068 0.075200714 -0.14374371 -0.091421716
-0.14370173 -0.21618499 -0.085995995 -0.041760836 0.01016232 -0.06299284 0.024736265 -0.064502895
0.06866748 0.19957365 -0.03263338 0.15439792 0.2251435 0.115374014 0.22118735 -0.4064216
0.20132187 -0.018529072 0.02734775 0.1631116 -0.0062923473 -0.11313003 -0.06050502 0.08920661
0.1915943 -0.0050570285 -0.04086435 0.015881687 0.31446904 -0.14718634 -0.050836183 0.184344
0.21193986 0.004418184 0.10181323 -0.029455839 0.05070546 -0.09729718 0.32205307 -0.0680252
0.34538275 -0.2738885 0.22470047 0.05008949 -0.29183155 -0.015314934 0.16037391 0.22588807
0.08870715 -0.19311534 -0.11055809 -0.06720113 0.14106207 0.07613131 -0.10575208 0.15778245
0.12667143 0.29287308 -0.19164105 -0.110261135 -0.094365485 -0.009398998 0.048128534 0.05038755
-0.11485565 -0.043273877 0.05082916 -0.07783974 0.26659623 -0.08160709 0.11739626 0.051038682
-0.14310591 -0.08022074 0.12441932 0.11821542 0.008324828 0.0030079081 0.040642634 -0.23937003
0.3177698 -0.1472964 0.17741728 0.1034301 -0.20717622 0.011974567 0.015318327 -0.017474964
0.038169518 -0.07826409 -0.025427226 -0.14665388 0.06343658 -0.118161954 0.053987257 0.0048459014
0.07958767 -0.18187724 -0.22760993 0.20144537 -0.17655428 0.1667638 -0.29835075 -0.07287734
-0.06058541 -0.13300726 0.016941478 -0.062446967 -0.025903134 -0.047917105 0.03614919 0.0827676
-0.05717679 -0.06348524 0.3114831 -0.03147763 0.2212584 0.083838105 -0.101823956 -0.05987776
0.15552525 -0.03951899 -0.1948347 0.016359275 0.11846661 0.28302544 0.15438391 -0.061655547
0.22251774 -0.11052155 -0.054754455 0.21669027 -0.05822896 -0.25271222 -0.06555293 0.0026174642
-0.04979391 0.0469707 0.17925392 0.040873088 -0.23720792 0.018956557 -0.011363676 -0.06466636
-0.063761406 0.048757218 0.034606434 -0.0019611274 0.17054254 0.061937287 -0.07835563 -0.22195992
-0.012635469 0.1606397 -0.118430175 0.05840476 -0.21711507 0.23551878 -0.2915464 -0.090709746
0.20621866 -0.19771764 0.004406569 0.07919483 -0.20561513 -0.03250956 -0.18783161 0.0555838
-0.020950668 0.28224266 0.098910205 0.025832687 -0.10366557 -0.01133545 -0.05638493 0.12607826
-0.07625099 0.080569744 -0.093031324 -0.11405037 -0.13095613 -0.28472316 -0.0600786 -0.10265143
-0.115734816 -0.057828017 -0.16484992 0.25758132 0.3669832 0.08117617 -0.05897856 0.2610316
0.3008365 -0.037388466 0.09843076 -0.031313293 -0.18340552 0.050355267 0.23514776 -0.015631178
-0.093038864 0.08715282 -0.13758929 0.17473853 0.16628477 0.26389498 -0.21445681 0.1768794
00000000: 434e 47be e814 fcbd b879 94bd cc86 61bd
00000010: da9f 9bbc d259 d8bd 47ab 5abe d69a 2dbd
00000020: 9759 f3bd 521e 83be edb1 eebd 0dd7 e7bd
00000030: 6515 9ebd 064c a0bd cc6c bf3d a2f1 593d
00000040: 4a65 97bd b4dd 813b 7244 af3d 094a 0f3e
00000050: 5852 76bd e614 70bd ef30 193e 36fc 39be
00000060: 2beb d6bd 28fa debd 3c05 19be bc51 813b
00000070: a8f0 92be 109c 9f3d 0cb8 0cbe 4a04 4cbe
00000080: 52e3 88bd b0d2 80be ffd4 10bc 9e7c 8ebe
00000090: 1b31 923e 106c 6e3d 8619 2dbd 2d32 e43c
000000a0: 1ea8 cb3d de83 4cbd f819 e9bd f646 373e
000000b0: 4ea3 6d3d d502 9a3d 8d31 13be 4f3b bbbd
000000c0: 8c26 13be 995f 5dbe ab1e b0bd 690d 2bbd
000000d0: dc7f 263c 6402 81bd b5a3 ca3c 181a 84bd
000000e0: 89a1 8c3d 095d 4c3e 94aa 05bd 7d1a 1e3e
000000f0: 058c 663e 3649 ec3d f07e 623e 7e16 d0be
00000100: 5227 4e3e 48ca 97bc 6308 e03c ba06 273e
00000110: 0930 cebb b8b0 e7bd 1dd4 77bd f5b1 b63d
00000120: 4c31 443e 6eb5 a5bb 6061 27bd 501a 823c
00000130: 1602 a13e 04b8 16be 9a39 50bd acc4 3c3e
00000140: c306 593e 6ac6 903b 7483 d03d 5f4d f1bc
00000150: 87b0 4f3d be43 c7bd 24e4 a43e cc50 8bbd
00000160: 02d6 b03e 1d3b 8cbe e117 663e a32a 4d3d
00000170: f26a 95be 7deb 7abc 0f39 243e 344f 673e
00000180: 18ac b53d 07c0 45be 486c e2bd bfa0 89bd
00000190: 9372 103e bbea 9b3d 8c94 d8bd b991 213e
000001a0: 28b6 013e 76f3 953e 8d3d 44be 97d0 e1bd
000001b0: b142 c1bd 41fe 19bc 6d22 453d 2d63 4e3d
000001c0: 7039 ebbd f33f 31bd 3d32 503d 716a 9fbd
000001d0: 4d7f 883e 9e21 a7bd 736d f03d f00d 513d
000001e0: 5b8a 12be c54a a4bd 8ecf fe3d ed1a f23d
000001f0: dc64 083c 5320 453b e478 263d 6b1d 75be
00000200: b9b2 a23e ded4 16be e0ac 353e 29d3 d33d
00000210: 0126 54be f930 443c b8f9 7a3c a827 8fbc
00000220: a457 1c3d ec48 a0bd c24c d0bc 6f2c 16be
00000230: 0aeb 813d e5fe f1bd be21 5d3d 5eca 9e3b
00000240: dcfe a23d 073e 3abe 9412 69be b247 4e3e
00000250: a5ca 34be 21c4 2a3e 6ec1 98be b740 95bd
00000260: 6828 78bd 0e33 08be dbc8 8a3c 64c8 7fbd
00000270: cf32 d4bc ba44 44bd 2c11 143d 0f82 a93d
00000280: 3632 6abd 8d04 82bd b67a 9f3e b0ee 00bd
00000290: 9091 623e 50b3 ab3d 1489 d0bd 6242 75bd
000002a0: 0342 1f3e aade 21bd bf82 47be e303 863c
000002b0: 9f9e f23d b6e8 903e d116 1e3e 878a 7cbd
000002c0: b1db 633e 1f59 e2bd 3546 60bd 0ee4 5d3e
000002d0: 7d81 6ebd 7f63 81be 9d40 86bd c389 2b3b
000002e0: b3f4 4bbd 5964 403d 578e 373e 8a6a 273d
000002f0: a2e6 72be c84a 9b3c b62e 3abc cc6f 84bd
00000300: 5795 82bd a6b5 473d 7abf 0d3d 4286 00bb
00000310: b4a2 2e3e f4b1 7d3d eb78 a0bd 7649 63be
00000320: 0005 4fbc bc7e 243e 858b f2bd d439 6f3d
00000330: 6a53 5ebe d62b 713e 9245 95be 08c6 b9bd
00000340: fc2a 533e 7e76 4abe fb64 903b e630 a23d
00000350: c68c 52be bf28 05bd ee56 40be d7ab 633d
00000360: bca0 abbc 1c82 903e 6f91 ca3d 129f d33c
00000370: 9d4e d4bd 53b8 39bc e2f3 66bd a91a 013e
00000380: 7b29 9cbd c001 a53d 3587 bebd 3e93 e9bd
00000390: 5d19 06be 3cc7 91be fa14 76bd ea3a d2bd
000003a0: 6006 edbd 12dd 6cbd 6bce 28be b3e1 833e
000003b0: 39e5 bb3e b13f a63d 8193 71bd efa5 853e
000003c0: 3e07 9a3e a624 19bd 1196 c93d 5e42 00bd
000003d0: a8ce 3bbe 5341 4e3d 93ca 703e f50c 80bc
000003e0: 298b bebd 2d7d b23d 35e4 0cbe a8ee 323e
000003f0: 8e46 2a3e 3e1d 873e 919a 5bbe e01f 353e

model.11.bias f4 [10]
0.037032854 0.19587246 0.08301594 0.1239695 -0.09223265 -0.003702884 -0.16020961 0.005415078
0.055194262 0.011560322
00000000: c3af 173d ca92 483e 4304 aa3d b9e3 fd3d
00000010: 79e4 bcbd 16ac 72bb fd0d 24be f770 b13b
00000020: 6113 623d 8167 3d3c
