saved_models/lenet5.pth (torch, 181162 bytes, 10 tensors)

conv_layer1.weight f4 [6, 1, 5, 5]
0	0x3dfe39cf	0.1241337
1	0x3eb53053	0.3538843
2	0xbdc0d520	-0.0941565
3	0xbe5ec2af	-0.21753953
4	0xbeb57d28	-0.3544705
5	0xbdf615e7	-0.12015896
6	0x3e631da9	0.22179283
7	0x3eb0b186	0.3451044
8	0xbd2a60b3	-0.041596126
9	0xbea113d9	-0.31460455
10	0x3e12bc0f	0.14329551
11	0x3ea80c44	0.32821858
12	0x3f45360a	0.7703558
13	0x3ede4174	0.43409312
14	0x3d6605fb	0.056158047
15	0xbe19f83d	-0.15036102
16	0x3d7f3159	0.06230292
17	0x3eb2e3d2	0.34939438
18	0x3e64f250	0.2235806
19	0x3e019ec2	0.12658218
20	0xbefd4fab	-0.49474844
21	0xbeae56dc	-0.34050643
22	0xbe67f59c	-0.22652286
23	0x3ddb726b	0.10715183
24	0xbdf069f9	-0.11738963
25	0xbdcf2056	-0.101135895
26	0xbdc06977	-0.09395116
27	0xbe368e25	-0.17827661
28	0xbe639200	-0.22223663
29	0xbefa4a86	-0.48884982
30	0x3dfc3656	0.12315051
31	0xbe0fc427	-0.1403967
32	0xbe57e9a9	-0.21085228
33	0xbf1b6741	-0.6070443
34	0xbf07b42d	-0.530093
35	0x3e26856b	0.16261832
36	0x3eb59a71	0.35469392
37	0x3e6c802d	0.2309577
38	0xbd813c8b	-0.06310376
39	0x3e647711	0.22311045
40	0x3e158e19	0.14604987
41	0x3e57303c	0.21014494
42	0x3f0910b4	0.5354111
43	0x3f11d833	0.5697052
44	0x3ef958de	0.48700613
45	0xbe2502fb	-0.16114418
46	0x3dcfe171	0.101504214
47	0x3a6df7aa	0.00090777373
48	0x3dd50f53	0.104033135
49	0xbd484533	-0.04889412
50	0xbe5a47f2	-0.21316507
51	0xbba8779a	-0.0051412107
52	0xbc6a1aa4	-0.014288578
53	0x3e929b8c	0.28634298
54	0x3d89bbe5	0.06725291
55	0xbd3c96fa	-0.04604242
56	0x3de2c559	0.11072797
57	0x3eaf8e84	0.34288418
58	0x3e61dd20	0.22057009
59	0xbea77df0	-0.3271327
60	0x3d553c2d	0.05205934
61	0x3eac91fe	0.33705133
62	0x3f0bbd67	0.5458588
63	0xbe070dfd	-0.1318893
64	0xbe9dc3fe	-0.30813593
65	0xbb31e1cd	-0.0027142644
66	0x3ef09a5c	0.46992767
67	0x3d733dc1	0.059385065
68	0xbe987894	-0.29779494
69	0xbee368b2	-0.44415814
70	0x3e53f70d	0.20699711
71	0x3ea634a1	0.32462028
72	0x3e81f358	0.2538097
73	0xbe90e821	-0.283021
74	0xbecbb666	-0.39787596
75	0xbec01d28	-0.37522244
76	0xbeb3b64c	-0.3510002
77	0xbd11025c	-0.03540264
78	0x3e462acd	0.19352265
79	0x3e6c4d01	0.2307625
80	0xbec552d5	-0.38539758
81	0xbde57f2c	-0.11205897
82	0x3e9a5ec4	0.30150425
83	0x3e435f4c	0.19079322
84	0x3df7fb67	0.12108498
85	0xbe967eef	-0.29393718
86	0x3e10d2a4	0.14142853
87	0x3e1eb33e	0.15498063
88	0x3e7ba2f9	0.24573888
89	0xbd6af956	-0.05736669
90	0xbdbbe9f2	-0.09175481
91	0xbd80e951	-0.062945016
92	0x3e9fcc4d	0.31210557
93	0x3e9dada3	0.30796537
94	0xbd9c6428	-0.07636291
95	0xbe5542c6	-0.20826253
96	0x3da1a1c5	0.07892183
97	0x3dab1741	0.08354045
98	0x3e2a7368	0.16645586
99	0xbce17f85	-0.027526626
100	0xbe96280e	-0.29327434
101	0xbe384c47	-0.17997847
102	0xbe5f3e22	-0.21801046
103	0xbe70c3a3	-0.2351213
104	0xbd7322c9	-0.059359346
105	0xbdde51b0	-0.108554244
106	0xbe8cdac7	-0.27510664
107	0xbe837c35	-0.256807
108	0xbe8ed8b0	-0.27899694
109	0xbe537e70	-0.20653701
110	0x3e874819	0.26422194
111	0xbdac0d23	-0.08400943
112	0xbe21eb95	-0.15812524
113	0xbeb7023b	-0.3574389
114	0xbe7fc0b1	-0.2497585
115	0x3dc8a345	0.09796766
116	0x3d9abc01	0.0755539
117	0xbe839674	-0.25700724
118	0xbe6eca72	-0.23319414
119	0xbe7e31d7	-0.248237
120	0x3e56d299	0.20978774
121	0x3c6f25e2	0.014596434
122	0xbd75a4dc	-0.059971675
123	0xbe9e2b9b	-0.30892643
124	0xbea04674	-0.3130375
125	0xbd997107	-0.074922614
126	0x3d3c02d8	0.04590115
127	0xbda4e645	-0.08051733
128	0x3e43c39e	0.19117591
129	0xbd64bc57	-0.055843677
130	0x3e80d4a2	0.25162226
131	0xbca8c7ae	-0.020603027
132	0xbebc24d2	-0.36746842
133	0x3d281279	0.041033242
134	0xbd120395	-0.035647947
135	0xbe39e9dd	-0.18155618
136	0xbef80056	-0.48437756
137	0xbef57c75	-0.47946516
138	0x3d3c7a8a	0.0460153
139	0xbc2a5f90	-0.01039876
140	0xbdf55fb3	-0.11981144
141	0xbebd553c	-0.3697909
142	0x3e65a9b3	0.22428016
143	0x3e58609c	0.21130604
144	0x3df1d461	0.11808086
145	0x3e609752	0.21932724
146	0x3ef19307	0.47182485
147	0x3f0f279d	0.5591982
148	0x3ea34e96	0.31895894
149	0xbe4c32e4	-0.19941288

conv_layer1.bias f4 [6]
0	0x3da9edbd	0.08297298
1	0x3e2528bb	0.16128819
2	0xbea714c5	-0.32633033
3	0xbebf5909	-0.37372616
4	0x3e92e1dc	0.28687942
5	0xbd7709f7	-0.060312238

conv_layer2.weight f4 [16, 6, 5, 5]
0	0x3d52b5f9	0.051443074
1	0xbe53bffc	-0.20678705
2	0xbddb7550	-0.10715735
3	0xbd9177ba	-0.07102914
4	0x3dc5f9dd	0.09666798
5	0x3dcb7dac	0.099360794
6	0x3d7af41e	0.061267965
7	0xbe9423fd	-0.28933707
8	0xbe091c08	-0.133896
9	0xbd899ca9	-0.06719334
10	0xbdc31464	-0.095253736
11	0x3e4f9c6d	0.20274515
12	0xbe0c5483	-0.13704114
13	0xbe695f37	-0.22790228
14	0xbe0d1734	-0.13778383
15	0xbdfddadb	-0.12395259
16	0x3e1ac59e	0.15114447
17	0x3d66c7d7	0.056342926
18	0xbe186fdf	-0.14886425
19	0xbdd2ff2b	-0.10302576
20	0x3d558a7d	0.052134026
21	0x3e18f753	0.14938097
22	0x3e7b69bc	0.24552053
23	0xbd9d7a92	-0.07689394
24	0xbbc8bfb7	-0.00612637
25	0x3e2d6590	0.16933274
26	0xbdfe2a7f	-0.12410449
27	0xbe8c77a3	-0.27435026
28	0xbe19f69c	-0.1503548
29	0xbca7db67	-0.020490361
30	0x3e1708b2	0.14749411
31	0x3e0ea362	0.13929513
32	0xbd5f001d	-0.054443467
33	0xbdcd0e21	-0.100124605
34	0xbd05a39b	-0.03262673
35	0xbc67f542	-0.014157595
36	0x3e46e826	0.19424495
37	0x3df11c69	0.11772997
38	0xbdbf6c13	-0.093467854
39	0xbdac95e6	-0.08427028
40	0xbdc691a2	-0.09695746
41	0x3cac4180	0.021027327
42	0x3dc29247	0.095005564
43	0x3d5a87db	0.053352218
44	0xbdb94440	-0.09046221
45	0xbe2cc878	-0.16873348
46	0xbda6853a	-0.0813088
47	0x3d95acb3	0.073083304
48	0x3d3aca8d	0.045603324
49	0xbd3f60ea	-0.046723284
50	0xbc3c9eed	-0.0115125
51	0xbcf2389e	-0.029568013
52	0xbe0d0eda	-0.13775197
53	0xbcb27b40	-0.021787286
54	0x3d5dc584	0.054143444
55	0xbd2e1eea	-0.04250995
56	0xbce35302	-0.027749542
57	0xbe444ea8	-0.1917063
58	0xbd9cd81e	-0.076584086
59	0xb9ff355f	-0.00048677155
60	0x3da146f6	0.07874863
61	0x3ca13cef	0.019682376
62	0x3da5363a	0.080669835
63	0xbd145459	-0.036213253
64	0xbe059f97	-0.1304916
65	0x3e5a3a49	0.21311297
66	0x3dc8af91	0.09799112
67	0x3e0e04ae	0.13868973
68	0x3c894b08	0.01675941
69	0xbcfdf409	-0.031000154
70	0xba8149ea	-0.0009863947
71	0x3d866c2e	0.065636024
72	0x3e0743d6	0.13209471
73	0x3deef93e	0.11668633
74	0xbddd5546	-0.1080728
75	0x3c3295c3	0.010899964
76	0xbcab75d7	-0.020930214
77	0x3c9e94a4	0.019357987
78	0x3d16896c	0.03675215
79	0x3d5ab15d	0.053391803
80	0xbdd20424	-0.10254696
81	0xbe8cc5cb	-0.27494654
82	0xbe1a3209	-0.1505815
83	0xbdad5687	-0.084637694
84	0x3d912978	0.07087988
85	0x38c20f00	9.253435e-05
86	0x3c14e04a	0.009086678
87	0xbe132a51	-0.14371611
88	0xbd48e0a8	-0.049042374
89	0x3ad44e85	0.0016197717
90	0x3e139110	0.14410806
91	0x3e5b4140	0.2141161
92	0x3c9cbc1f	0.019132672
93	0xbca79447	-0.020456446
94	0xbc9e1505	-0.019297132
95	0x3d49581f	0.049156304
96	0x3e710d57	0.23540245
97	0x3d38b026	0.045089863
98	0xbdbeb89d	-0.09312556
99	0xbd5351b7	-0.0515916
100	0x3d0d2656	0.034460388
101	0xbd7df231	-0.06199855
102	0xbcd43359	-0.02590339
103	0xbc34c4f9	-0.01103329
104	0xbcd06a66	-0.02544136
105	0xbcee10eb	-0.029060801
106	0x3e1a2af8	0.15055454
107	0x3d494526	0.04913821
108	0x3d14a97e	0.036294453
109	0x3d14540e	0.036212973
110	0xbc943881	-0.01809335
111	0x3d81245c	0.06305763
112	0x3d7f08f7	0.06226441
113	0xbd5e72b3	-0.054308604
114	0x3bc1479e	0.00589843
115	0xbdf6fd25	-0.12060002
116	0x3d2aec79	0.041729424
117	0x3e18640b	0.14881913
118	0x3e02b4f7	0.12764345
119	0xbcec74dc	-0.028864317
120	0xbe28e35a	-0.16492978
121	0xbd8b9b4a	-0.068167284
122	0xbc451d58	-0.012030922
123	0xbd9f0386	-0.07764344
124	0xbd26000b	-0.040527385
125	0xbdd6538e	-0.104651555
126	0xbd857055	-0.06515566
127	0xbce560e6	-0.028000306
128	0xbc495745	-0.012288873
129	0xbc99c72d	-0.018771732
130	0xbdc290d5	-0.09500281
131	0xbc2ba8c0	-0.010477245
132	0x3bd30a22	0.006440417
133	0xbd8ac68b	-0.0677615
134	0xbc8e77f9	-0.017391192
135	0xbc1748b4	-0.009233642
136	0xbe1f976a	-0.15585104
137	0xbe44ecbb	-0.1923093
138	0xbd044f80	-0.03230238
139	0xbd9ba0cd	-0.0759903
140	0x3d16e174	0.036836103
141	0x3c2f1dca	0.010688255
142	0xbe3662ef	-0.17811178
143	0xbe039994	-0.12851554
144	0xbd4cef8a	-0.05003313
145	0x3d018243	0.031618368
146	0x3cbb3659	0.022853063
147	0xbd8cd4d2	-0.0687653
148	0xbe0501ea	-0.12989011
149	0x3d84ed27	0.06490546
150	0xbd0c3587	-0.034230735
151	0xbd3a5efd	-0.045500744
152	0xbd9d85ed	-0.0769156
153	0x3c2e15d8	0.010625325
154	0xbc32605e	-0.010887234
155	0xbd39cef0	-0.045363367
156	0xbe4117f6	-0.18856797
157	0x3da763b0	0.08173311
158	0x3e374fa7	0.17901479
159	0x3a986c06	0.0011628873
160	0xbd3d8a3f	-0.04627442
161	0xbd15c1df	-0.036561843
162	0xbd9693c2	-0.07352401
163	0x3d595c27	0.0530664
164	0xbdbbc80d	-0.09169016
165	0xbd64f5e2	-0.055898555
166	0x3d282968	0.041055113
167	0xbd94749a	-0.072488025
168	0xbe4f707c	-0.20257753
169	0xbe1be24e	-0.15223047
170	0xbc8957f8	-0.01676558
171	0x3d9aa52d	0.07551036
172	0x3def11c0	0.116733074
173	0x3d2d603a	0.042328097
174	0x3d78ec56	0.060772263
175	0xbde71e01	-0.1128502
176	0xbe250df9	-0.16118611
177	0xbd3e6b57	-0.046489086
178	0x3e2c7273	0.16840534
179	0xbba6fd31	-0.0050961007
180	0xbdbb48a6	-0.09144716
181	0xbdbf451d	-0.09339354
182	0xbd3dce08	-0.046339065
183	0x3c451dfa	0.012031073
184	0xbe023770	-0.1271646
185	0xbc863789	-0.016383903
186	0xbe085e50	-0.13317227
187	0xbe71fe26	-0.23632106
188	0xbe20a975	-0.15689643
189	0xbdd665eb	-0.10468658
190	0x3e39bdd3	0.18138818
191	0x3dfc4f49	0.1231981
192	0x3e120ba7	0.14262258
193	0x3ddad880	0.10685825
194	0x3d3de2d2	0.04635889
195	0x3e13dcd3	0.14439707
196	0x3eacf08f	0.33777282
197	0x3ec2d996	0.3805663
198	0x3dfa8df1	0.122341044
199	0xbace0f3a	-0.0015721091
200	0x3ac326bc	0.0014888863
201	0xbdcdd5f8	-0.10050577
202	0xbd546c59	-0.05186114
203	0x3de8ce46	0.113674685
204	0x3da5bfc5	0.08093218
205	0xbe324226	-0.17408046
206	0xbe7005d0	-0.23439717
207	0xbdb23d6b	-0.08703121
208	0x3db95ab5	0.09050504
209	0x3dbdb755	0.092634834
210	0xbe0fb0f3	-0.14032345
211	0xbe69cfc5	-0.22833164
212	0xbe6e5d11	-0.2327769
213	0xbe5e80ca	-0.21728817
214	0xbd8375f9	-0.06418986
215	0xbd569169	-0.052384768
216	0xbddcbf9b	-0.10778733
217	0xbdfa6507	-0.12226301
218	0xbe623444	-0.2209025
219	0xbd522588	-0.051305324
220	0x3b1ec39b	0.0024225477
221	0x3df3fc1b	0.1191332
222	0x3e0e5dae	0.13902923
223	0x3d9469bf	0.07246732
224	0x3dd5cc31	0.10439337
225	0xbe001de1	-0.12511398
226	0xbc49f22a	-0.012325803
227	0x3dac345f	0.084084265
228	0x3d8f61fd	0.07001112
229	0x3e25d982	0.16196254
230	0xbe31fa42	-0.17380622
231	0xbdc3b79a	-0.095565036
232	0x3e099199	0.13434447
233	0x3e0d8bb0	0.13822818
234	0x3d41dfe3	0.047332656
235	0xbdfce574	-0.12348452
236	0xbca1e007	-0.019760145
237	0xbccf68df	-0.025318561
238	0xbd793063	-0.06083716
239	0xbe2dfc72	-0.16990831
240	0xbdc26fe1	-0.094939955
241	0xbde7825b	-0.1130416
242	0xbe3687c9	-0.17825235
243	0xbe32aea3	-0.17449431
244	0xbcdbb210	-0.026818305
245	0x3dd2bce5	0.10289935
246	0xbca0afc5	-0.019615063
247	0xbd402942	-0.046914347
248	0x3d28818f	0.04113918
249	0xbc3b1402	-0.011418344
250	0xbd60c56d	-0.05487578
251	0xbc7855a5	-0.015157138
252	0xbda72f33	-0.081632994
253	0xbc095e72	-0.008384334
254	0xbd8dc1db	-0.069217406
255	0x3c498223	0.012299093

conv_layer2.bias f4 [16]
0	0xbcbabdca	-0.022795577
1	0x3d03e51c	0.032200918
2	0x3d6f00fd	0.058350552
3	0xbc7c8683	-0.0154129295
4	0xbdb89e05	-0.09014515
5	0x3d28bc73	0.041195344
6	0x3d268f1a	0.040663816
7	0x3d06c483	0.032902252
8	0xbd14fc8f	-0.03637367
9	0xbd08b499	-0.033375356
10	0xbca19f4e	-0.019729283
11	0x3d759415	0.059955675
12	0x3c1377d3	0.009000736
13	0x3d56b20f	0.052415904
14	0xbbd9fa96	-0.0066521866
15	0x3c368307	0.011139638

fc_layer1.weight f4 [120, 256]
0	0x3c1721c9	0.009224364
1	0x3d6a7560	0.057240844
2	0x3d3f4c1f	0.046703454
3	0xbd2e8508	-0.042607337
4	0x3c413ce3	0.011794302
5	0xbd1fb3ec	-0.038989946
6	0xbd9e1e19	-0.077205844
7	0xbb3f1cea	-0.0029161521
8	0x3bb6dd45	0.0055805766
9	0x3c666c52	0.0140639115
10	0x3c4e067e	0.01257479
11	0xbdac91bd	-0.08426235
12	0xbcc0dd22	-0.023542944
13	0xbb64d195	-0.003491496
14	0xbd2649c4	-0.040597692
15	0xbce3c47c	-0.027803652
16	0x3d86cade	0.065816626
17	0xbd1ce5a8	-0.038304955
18	0xbd232513	-0.03983028
19	0xbb63402d	-0.0034675703
20	0x3ce9a4aa	0.0285209
21	0xbb8aac8e	-0.004231996
22	0x3ca7e2cb	0.020493886
23	0x3bd5bb99	0.0065226075
24	0x3e03c737	0.12868963
25	0x3d81040d	0.06299601
26	0x3d85e80c	0.065384
27	0xbc5d53e3	-0.01350877
28	0xbdb2faa1	-0.0873921
29	0xbd6899ef	-0.056787428
30	0x3d2f17ae	0.042747192
31	0x3d2a6da9	0.041608486
32	0xbd00458e	-0.031316333
33	0x3de67abe	0.1125388
34	0x3cca0402	0.024660114
35	0xbb25b8d7	-0.0025287175
36	0xbd7a7f19	-0.061156366
37	0x3c16c864	0.00920305
38	0x3d81b0ca	0.06332548
39	0xbc0ea877	-0.008707157
40	0x3c9815f2	0.018565152
41	0xbda83e5f	-0.08215021
42	0xbdbc9596	-0.09208219
43	0xbd016c4f	-0.03159743
44	0x3d9bd893	0.07609668
45	0x3d290c27	0.041271355
46	0xbba97400	-0.005171299
47	0xbd1e1520	-0.038594365
48	0x3c82a872	0.015949462
49	0xbd992211	-0.07477201
50	0xbda1dfef	-0.0790404
51	0xbac9b097	-0.0015387711
52	0xbccfb4e1	-0.025354804
53	0x3e0d3540	0.13789845
54	0x3d0e4d2a	0.034741558
55	0x3d3b95a6	0.045797013
56	0x3d79fe50	0.061033547
57	0xbd12b3b7	-0.03581592
58	0x3d9e0140	0.07715082
59	0x3c86ad1e	0.01643997
60	0x3d0cf979	0.034417603
61	0x3d49ab10	0.049235404
62	0x3b205947	0.0024467276
63	0xbaf963f1	-0.0019026977
64	0x3d97182f	0.073776595
65	0xbb821b3d	-0.003970532
66	0xbd8b6f3f	-0.06808328
67	0x3d1a9c9d	0.037747014
68	0x3c0754ab	0.0082599325
69	0x3b7ddb3d	0.0038735413
70	0x3df341c7	0.118777804
71	0x3d1c1b87	0.03811219
72	0xbda7440c	-0.08167276
73	0x3ca6f5f0	0.020380944
74	0x3c8f4e82	0.01749349
75	0xbd57d613	-0.05269439
76	0xbadf6664	-0.0017044065
77	0x3b0e6dc5	0.0021732908
78	0xbb932483	-0.0044904365
79	0xbc1df091	-0.009639875
80	0x3d4a2495	0.049351294
81	0xbbc48b1a	-0.0059980275
82	0x3c05cca2	0.008166464
83	0x3c4bda6f	0.012442215
84	0x3cdbdca1	0.026838602
85	0xbd264c2f	-0.040599998
86	0xbce30834	-0.027713872
87	0x3bf88967	0.007584739
88	0xbca24cc1	-0.01981199
89	0xbd795a28	-0.060876995
90	0xbd987d49	-0.07445771
91	0xbd7158bb	-0.05892251
92	0x3c4822b0	0.012215301
93	0xbda62f29	-0.08114464
94	0xbda6ad15	-0.081384815
95	0x3d41a5df	0.047277328
96	0x3cc32734	0.023822404
97	0xbc82ec74	-0.01598189
98	0xbcd417eb	-0.025890311
99	0x3d5f78d9	0.05455861
100	0xb8a00d27	-7.631844e-05
101	0xbcb33111	-0.021873983
102	0xbdb553da	-0.08853884
103	0xbce8e201	-0.02842808
104	0x3ce750c5	0.028236756
105	0xbd87b941	-0.06627131
106	0xbc3d4f52	-0.011554556
107	0xbd890c62	-0.06691815
108	0x3d836d19	0.06417293
109	0xbd3aabaf	-0.045573886
110	0xbc24ac72	-0.01005088
111	0x3b1f8da5	0.0024345901
112	0xbc651227	-0.013981379
113	0x3db9778e	0.09056006
114	0xbbbeb180	-0.0058194995
115	0xbca5918f	-0.02021101
116	0xbd54d8b9	-0.051964495
117	0xbba31746	-0.0049771396
118	0x3d712abd	0.05887865
119	0x3d40fc5c	0.04711567
120	0xbbb0d0f7	-0.0053960043
121	0xbdae5f11	-0.08514226
122	0xba5d6da7	-0.00084468204
123	0xbd3d0ec9	-0.04615668
124	0xbd000b53	-0.0312608
125	0xbdf305c2	-0.118663326
126	0xbd91c91c	-0.07118437
127	0xbd0c8d47	-0.03431442
128	0x3d4ccf9b	0.050002676
129	0x3cc934bd	0.02456128
130	0xbc2b9605	-0.010472779
131	0x3c65059b	0.013978387
132	0xbd29a8eb	-0.04142086
133	0xbc622657	-0.013803086
134	0x3c6684a7	0.014069713
135	0xbd4638c5	-0.048393983
136	0x3d10e02f	0.035370048
137	0xbd355606	-0.04427149
138	0x3b1dea3c	0.0024095913
139	0xbd76d6e1	-0.06026352
140	0x3cf3262d	0.02968129
141	0x3db3083c	0.08741805
142	0x3da0fc9b	0.07860681
143	0x3ce204b2	0.02759013
144	0x3d37c359	0.044864032
145	0x3d529a63	0.051416766
146	0x3cc311b8	0.02381216
147	0x3d20cc5f	0.039257403
148	0x3d40269a	0.046911813
149	0x3d3db4b7	0.04631492
150	0x3ca798fb	0.020458689
151	0xbd54a64d	-0.05191641
152	0xbd16b321	-0.036791924
153	0xbddae8f2	-0.10688962
154	0xbd8c8d73	-0.06862917
155	0xbd6af7af	-0.057365116
156	0xbc22333f	-0.009899913
157	0xbcbf915a	-0.023384739
158	0x3cf92631	0.030413719
159	0x3d2244a0	0.039616227
160	0xbc96772c	-0.018367372
161	0x3d80e721	0.06294084
162	0x3d0072ab	0.031359356
163	0xbd5a6462	-0.05331839
164	0x3e019e79	0.12658109
165	0x3e11427e	0.14185521
166	0x3da3d49a	0.07999535
167	0x3bc29126	0.005937713
168	0x3d83bbb4	0.06432286
169	0x3d1d2e5d	0.038374294
170	0xbd53a4da	-0.051670887
171	0xbc2a0169	-0.010376313
172	0x3d01f5d4	0.03172858
173	0xbc1266b8	-0.008935623
174	0xbdffcd0d	-0.12490282
175	0x3cb91bf8	0.022596344
176	0xbd00ca5d	-0.03144299
177	0x3d1b8059	0.0379642
178	0x3c6c6a61	0.01442966
179	0x3ba48441	0.0050206487
180	0x3d9e7f10	0.07739079
181	0x3dc931c0	0.09823942
182	0x3d9ed705	0.077558555
183	0x3b4af5e1	0.003096931
184	0x3d91ae23	0.07113292
185	0x3d97774b	0.073958
186	0x3c73fb5d	0.014891473
187	0xbc4d3123	-0.012523922
188	0x3d9fdc1d	0.07805655
189	0x3df36fea	0.1188658
190	0xbd784f8c	-0.060622737
191	0x3d6c109f	0.05763304
192	0xbc9231dc	-0.01784604
193	0xbd03c202	-0.032167442
194	0xbc486c10	-0.012232795
195	0x3caf279f	0.021381197
196	0xbdd86f77	-0.10568135
197	0xbda75ef0	-0.08172405
198	0xbc80bd35	-0.015715221
199	0x3c35bfd6	0.0110931005
200	0xbdf790d1	-0.120881684
201	0xbda2b853	-0.07945313
202	0xbc78ef4d	-0.0151937725
203	0xbbbc96e8	-0.005755294
204	0xbda60236	-0.081058905
205	0xbd271ebf	-0.040800806
206	0xbd5994f5	-0.053120572
207	0xbd6dfd7e	-0.058103077
208	0xbd0796d6	-0.033102833
209	0xbda8b6ad	-0.08237968
210	0x3d91a4ad	0.071114875
211	0x3c9c7640	0.019099355
212	0xbc95c51d	-0.018282467
213	0xbda9ea61	-0.08296657
214	0xbdb06926	-0.086138055
215	0x3c5a78ab	0.013334434
216	0xbe1eeb68	-0.15519488
217	0xbe212e2f	-0.15740274
218	0xbdd0394d	-0.10167179
219	0xbd18cbcf	-0.037303742
220	0xbd530634	-0.051519588
221	0xbd42a553	-0.047520947
222	0x3d16b0c5	0.036789674
223	0xbc8c3937	-0.017117126
224	0x3d6d33dd	0.05791079
225	0x3e073f6f	0.13207792
226	0x3c962b15	0.01833109
227	0x3b88d710	0.004176028
228	0x3d3fe8a9	0.04685274
229	0x3deb84d7	0.114999466
230	0xbc3002e5	-0.010742878
231	0xbd1b0900	-0.03785038
232	0x3bd5ad8f	0.006520934
233	0xbd95d330	-0.073156714
234	0xbcd093d8	-0.025461122
235	0xbca0ae4e	-0.019614365
236	0x3d9a7bbb	0.07543131
237	0xbcf9c3e1	-0.03048891
238	0xbd217544	-0.039418474
239	0xbd0f6e02	-0.03501702
240	0xbd465084	-0.04841663
241	0xbc4cad7a	-0.012492532
242	0xbd4d4377	-0.050113168
243	0xbdcfa7da	-0.10139437
244	0x3d34da9b	0.04415379
245	0x3c1573a4	0.009121809
246	0xbd3a0ca8	-0.045422226
247	0x3d5b8a97	0.053598966
248	0x3ca81188	0.020516172
249	0xb8df5833	-0.00010649897
250	0x3c2b1a05	0.010443215
251	0x3caded73	0.021231389
252	0xbd3265c1	-0.04355407
253	0x3ccdc50c	0.025118373
254	0xbd1bc90e	-0.038033538
255	0xbcc5f9e6	-0.024167012

fc_layer1.bias f4 [120]
0	0xbc3398f8	-0.010961764
1	0xbc88bf69	-0.016692834
2	0x3d0021f4	0.03128238
3	0x3d6dbb5c	0.058040008
4	0x3d9b3128	0.07577735
5	0x3d7e31c8	0.062059194
6	0xbb9b724d	-0.0047438503
7	0xbd07d13d	-0.03315853
8	0x3d3306e4	0.043707743
9	0x3d09710a	0.033555068
10	0xbc7dcf06	-0.015491253
11	0x3d1d8c5c	0.038463935
12	0xbcff9394	-0.0311983
13	0xbc8301ba	-0.015992034
14	0x3d66cc61	0.056347255
15	0x3d722255	0.059114773
16	0xbd6a5942	-0.05721403
17	0x3d021207	0.031755473
18	0x3d547f42	0.051879175
19	0x3c2b67b0	0.010461733
20	0x3cac3341	0.021020534
21	0x3cd76bcb	0.026296517
22	0x3bdab359	0.006674212
23	0x3d1eea45	0.038797636
24	0xbd23a159	-0.039948795
25	0xb9ba20dd	-0.0003550117
26	0xbcbace9b	-0.022803595
27	0x3d1c0a91	0.038096014
28	0xbd1ea1d6	-0.038728558
29	0x3ccdafd0	0.025108248
30	0xbcc1a395	-0.023637572
31	0x3d36793b	0.044549208
32	0xbc369a3a	-0.011145169
33	0x3bafdedb	0.0053671426
34	0x3ccfcb2e	0.025365438
35	0x3d0ca72b	0.03433911
36	0x3cc237b7	0.023708208
37	0x3d28fee5	0.04125871
38	0xb9e11a46	-0.0004293492
39	0xbca19ce2	-0.019728128
40	0x3c7d5708	0.015462644
41	0xbd774306	-0.060366653
42	0x3c91cd7b	0.017798176
43	0x3cf678d2	0.030086908
44	0x3d8ef5b4	0.06980458
45	0x3d513fe8	0.051086336
46	0xbd118f75	-0.035537202
47	0xbd34df28	-0.04415813
48	0xbc8cd15e	-0.017189678
49	0xbd24a30f	-0.040194567
50	0x3b4b13b4	0.0030987086
51	0x3d17d0ae	0.037064247
52	0x3d4dd495	0.050251562
53	0xbd7094ab	-0.05873553
54	0x3cef81da	0.029236723
55	0xbd0004f8	-0.03125474
56	0xbcc1cfa3	-0.02365858
57	0xbd3f6ba9	-0.046733532
58	0xbc9fd343	-0.019509917
59	0xbc8fe70b	-0.017566225
60	0xbd1966ab	-0.037451427
61	0x3d53f488	0.051746875
62	0xbb4d0b55	-0.0031287272
63	0x3cbba807	0.02290727
64	0xbb292864	-0.0025811428
65	0x3d140205	0.03613474
66	0xbd021d8c	-0.03176646
67	0xbc872c50	-0.016500622
68	0xbd0e8521	-0.03479493
69	0xbd2061c1	-0.039155725
70	0xbcd6f0da	-0.026237894
71	0xbd72b408	-0.059253722
72	0xbb48f454	-0.003066321
73	0xbd8adad3	-0.06780019
74	0x3c2e8fe3	0.010654422
75	0x3c8cc39f	0.017183123
76	0x3d285b45	0.041102666
77	0xbd1b100a	-0.037857093
78	0x3a375933	0.0006994188
79	0xb9f4d1c5	-0.00046695597
80	0xbd56acc6	-0.052410863
81	0x3d276af9	0.0408735
82	0x3ce36d11	0.027761968
83	0x3ce8edd9	0.028433727
84	0xbbf6c5ef	-0.0075309197
85	0x3cba3c20	0.022733748
86	0x3d2f2c81	0.04276705
87	0xbcea855c	-0.028628044
88	0x3cf1655d	0.02946728
89	0x3cc43a5f	0.023953615
90	0xbd50836e	-0.05090659
91	0xbcfcff74	-0.030883528
92	0xbd2043e8	-0.03912726
93	0xbd644fad	-0.055740047
94	0x3d41326d	0.04716723
95	0xbcbf8d6b	-0.023382863
96	0xbc3bbe35	-0.011458923
97	0xbd61dfbd	-0.055145014
98	0x3d5052a3	0.05086006
99	0x3a0bdacf	0.0005335034
100	0x3d4a1cfc	0.049344048
101	0x3d49ec9c	0.049297914
102	0xbcdd74a2	-0.027033154
103	0x3b09218c	0.0020924537
104	0x3cdd77d5	0.02703468
105	0x3d6793ff	0.056537624
106	0xbc2b59b6	-0.0104584005
107	0xbc9e54eb	-0.019327601
108	0x3d8ac4cb	0.067758165
109	0x3cbe5c1b	0.023237279
110	0xbce270bf	-0.027641652
111	0x3cc72161	0.024307908
112	0xbd6c9aad	-0.057764698
113	0x3c9ca123	0.019119805
114	0x3c4a736b	0.012356619
115	0xbc0e7337	-0.008694462
116	0xbcdecab2	-0.027196262
117	0x3d145bc6	0.036220334
118	0xba109a5e	-0.00055161666
119	0xbd6bc241	-0.0575583

fc_layer2.weight f4 [84, 120]
0	0x3dc2fa05	0.09520344
1	0x3e0ba933	0.13638763
2	0xbd83e3cc	-0.06439933
3	0x3d56d19f	0.052446004
4	0xbd68d51c	-0.056843862
5	0x3cd3b64a	0.025843758
6	0xbdfdd7a6	-0.12394647
7	0xbdacea70	-0.08443153
8	0xbc48b4b7	-0.012250117
9	0x3e45b901	0.19308855
10	0xbe70f06d	-0.23529215
11	0xbe05299a	-0.13004151
12	0xbdbda682	-0.092602745
13	0xbdb9f3fb	-0.09079739
14	0x3bce16d5	0.006289343
15	0x3e358ef9	0.17730321
16	0x3a61a6ff	0.0008607953
17	0xbd1bf6ab	-0.038077038
18	0xbcc8d72b	-0.024516663
19	0x3db1023f	0.086430065
20	0xbdc8317e	-0.09775065
21	0xbd9cf712	-0.076643124
22	0x3d0aa4b6	0.033848487
23	0xbd5fb593	-0.054616522
24	0xbd30869d	-0.043097127
25	0x3d6c0af0	0.05762762
26	0x3db1a657	0.08674305
27	0x3c9e9f3f	0.019363044
28	0x3cd715f8	0.026255593
29	0xbda68c59	-0.08132238
30	0x3d910691	0.070813306
31	0x3c673778	0.014112346
32	0x3df0d954	0.11760202
33	0xbbe7c3f4	-0.00707292
34	0xbd9e6d19	-0.077356525
35	0xbc3efa9c	-0.01165643
36	0xbd9675b7	-0.07346671
37	0x3d161d2d	0.036648918
38	0xbd94160b	-0.07230767
39	0x3cc964bd	0.024584169
40	0xbcc20c9c	-0.023687653
41	0xbdbc972f	-0.092085235
42	0xbd769a3e	-0.06020569
43	0x3db26a66	0.087117
44	0xbd0550c6	-0.032547735
45	0xbb532af5	-0.003222165
46	0xbbe10a3b	-0.0068676746
47	0x3c371c2b	0.011176149
48	0xbe359bb0	-0.17735171
49	0xbcdd17ff	-0.026988981
50	0x3d95e8cf	0.07319795
51	0x3c86a519	0.016436147
52	0xbd41844b	-0.047245305
53	0x3d72a1b0	0.05923623
54	0x3b9fddb5	0.0048787245
55	0x3de4a1f3	0.11163702
56	0x3e1f4372	0.15553072
57	0x3d5c4b8a	0.053782977
58	0x3d22f5d8	0.039785236
59	0x3e029d4c	0.12755316
60	0xbdec69ac	-0.11543593
61	0xbdd47982	-0.10374738
62	0x3c24f931	0.0100691775
63	0xbc572676	-0.013131728
64	0x3bb3ec18	0.005490791
65	0xbdedaa82	-0.116047874
66	0x3e004da3	0.12529616
67	0x3d9509b9	0.07277245
68	0xbdb11014	-0.08645645
69	0xbb241a4e	-0.0025040093
70	0x3d3ef8c9	0.04662398
71	0xbc6a80b7	-0.014312915
72	0xbd60a17a	-0.054841496
73	0x3d28051a	0.04102049
74	0x3d68829e	0.05676519
75	0xbe203e02	-0.15648654
76	0x3d13d380	0.036090374
77	0x3db12ce0	0.08651137
78	0xbd2532ec	-0.040331766
79	0xbe3cc648	-0.18435013
80	0x3dc83ab8	0.09776825
81	0x3e3e62d7	0.18592392
82	0x3b702add	0.0036646642
83	0x3df060d8	0.117372215
84	0x3c3010f6	0.010746231
85	0x3d178de2	0.037000544
86	0xbd010c1b	-0.031505685
87	0xbbb82a6d	-0.005620292
88	0x3e139f72	0.14416292
89	0x3d8d2171	0.06891144
90	0x3de08076	0.10962002
91	0x3d770a86	0.06031277
92	0xbd1472c7	-0.036242273
93	0xbce842bc	-0.028352134
94	0xbd899c43	-0.06719258
95	0x3cc8288a	0.024433393
96	0x3c806878	0.015674815
97	0xbcdaf3f2	-0.02672765
98	0xbcd0bf42	-0.025481824
99	0xbe4397d8	-0.19100893
100	0xbd1ad926	-0.037804745
101	0x3dbc78db	0.09202739
102	0xbcefb1bb	-0.029259553
103	0x3af06993	0.001834201
104	0x3dc6ca86	0.09706597
105	0x3d793d83	0.060849678
106	0x3d1f22bb	0.03885148
107	0xbcff6e58	-0.031180546
108	0x3de809fe	0.11330031
109	0x3c816087	0.015793098
110	0xbe024093	-0.12719946
111	0xbda231c4	-0.07919648
112	0x3b684353	0.003544052
113	0x3d30af5d	0.04313599
114	0xbdbbe610	-0.0917474
115	0xbd7eca5f	-0.062204715
116	0x3d868247	0.06567817
117	0x3d9cc62a	0.07654984
118	0xbd06b29d	-0.032885183
119	0x3c8a79bd	0.016903752
120	0xbdf500c7	-0.11963039
121	0x3cddd106	0.02707721
122	0x3d7aef3f	0.06126332
123	0xbdb77932	-0.08958663
124	0x3d7477e4	0.05968465
125	0x3db73c44	0.08947042
126	0x3d08d5fd	0.0334072
127	0x3bcf904f	0.0063343416
128	0xbd821864	-0.063523084
129	0x3d8bd7c0	0.068282604
130	0xbd8ddeee	-0.06927286
131	0x3cc7f14c	0.024407052
132	0xbe18ab13	-0.1490901
133	0x3bd25b6c	0.0064195897
134	0x3d4161f4	0.047212556
135	0xbdc32ca5	-0.0953
136	0xbc095c32	-0.0083837975
137	0x3c0df250	0.008663729
138	0x3b8803a3	0.004150824
139	0xbd2ec072	-0.042664
140	0x3da36bae	0.07979523
141	0x3bdb7196	0.00669689
142	0x3d9a0465	0.075203694
143	0x3d02251d	0.031773675
144	0xbc945ad7	-0.018109722
145	0x3d5e4ce0	0.054272532
146	0xbb368a25	-0.0027853337
147	0xbcc7af71	-0.02437565
148	0x3d0853ef	0.03328317
149	0xbd72a42b	-0.059238594
150	0xbc9e1542	-0.019297246
151	0xbd8223ea	-0.06354506
152	0x3d50e75b	0.051001888
153	0x3dc5bf3c	0.09655616
154	0xbd9e16b1	-0.07719172
155	0xbdf6f850	-0.120590806
156	0x3991bc64	0.00027796917
157	0xbd7ec0f0	-0.06219572
158	0x3b9dafba	0.004812208
159	0x3e041cbd	0.12901588
160	0x3be0321f	0.0068419124
161	0x3d022a9c	0.031778917
162	0x3d52c151	0.051453892
163	0x3d46c628	0.04852882
164	0x3db35c9f	0.087579004
165	0x3c62170b	0.013799439
166	0x3cb43e71	0.02200243
167	0x3c7c75a9	0.015408912
168	0xbcce3cb6	-0.025175434
169	0x3dee3637	0.116314344
170	0x3d8b4e92	0.068020955
171	0xbd5aee3b	-0.05344985
172	0xbdb66780	-0.0890646
173	0x3d29d4ed	0.041462827
174	0x3c96ed73	0.018423771
175	0xbcd6fc76	-0.02624343
176	0xbda53a00	-0.08067703
177	0x3cfb9cf8	0.030714497
178	0x3d0903df	0.033450957
179	0x3de3e519	0.11127681
180	0xbd3778be	-0.044792883
181	0x3bcd400e	0.0062637394
182	0x3d95517b	0.07290932
183	0x3cced9bd	0.02525031
184	0xbd682bb0	-0.05668229
185	0xbcd1695f	-0.02556294
186	0x3da34b7f	0.07973384
187	0x3d8054cf	0.06266176
188	0xbc89de88	-0.016829744
189	0x3d398a38	0.04529783
190	0xbd68d078	-0.056839436
191	0xbd4afc12	-0.0495568
192	0x3dd7de53	0.10540452
193	0x3c21f8c0	0.009885967
194	0xbc00922c	-0.00784735
195	0xbd801397	-0.062537365
196	0x3d9bd638	0.07609218
197	0xbd6a9874	-0.057274297
198	0x3d829cb3	0.06377544
199	0xbe2044c3	-0.1565123
200	0xbc9fe17b	-0.019516697
201	0xbb887e01	-0.0041654115
202	0x3b8b020a	0.0042421864
203	0x3cc633d6	0.02419464
204	0xbd864941	-0.06556941
205	0xbde27937	-0.11058276
206	0xbda413bc	-0.080115765
207	0x3d9f8da7	0.0779069
208	0xbd08e021	-0.03341687
209	0xbc88e980	-0.016712904
210	0x3dc08745	0.094008006
211	0x3e223f0f	0.15844367
212	0x3dd5d9bf	0.104419224
213	0x3b28637e	0.0025694068
214	0xbc62e861	-0.013849349
215	0x3e090945	0.13382442
216	0xbd5826bf	-0.052771326
217	0x3cd21e61	0.025649251
218	0xbd8e4de1	-0.06948448
219	0xbe1c536e	-0.15266201
220	0xbdac30e4	-0.08407763
221	0x3d8a7ba7	0.06761866
222	0x3dba971b	0.09110852
223	0x3dfc3064	0.12313917
224	0x3cf4caea	0.029881913
225	0xbc3643ce	-0.011124564
226	0xbda793a8	-0.0818246
227	0x3db127bf	0.08650159
228	0x3d85522f	0.06509816
229	0xbb111086	-0.0022135093
230	0xbe05f2eb	-0.13080947
231	0x3d5f2ad1	0.054484192
232	0xbdd08a87	-0.10182672
233	0x3b79190a	0.003800931
234	0x3dd62c8b	0.10457715
235	0xbd8f1352	-0.06986107
236	0x3d0a3cee	0.033749513
237	0x3d45dec4	0.04830815
238	0xbdd75bcf	-0.10515558
239	0xbdd6a018	-0.10479754
240	0xbdb87c66	-0.09008102
241	0xbd87909d	-0.0661938
242	0xbde92d97	-0.11385649
243	0x3db26259	0.087101646
244	0xbd6855ec	-0.056722566
245	0xbcc381e8	-0.023865655
246	0x3ddf6200	0.10907364
247	0xbc6ee2db	-0.014580454
248	0xbcc638f5	-0.024197081
249	0xbdb56652	-0.08857407
250	0x3d704be8	0.05866614
251	0xbd8ccde0	-0.06875205
252	0x3cf89652	0.030345116
253	0x3b9b9868	0.004748393
254	0x3be46170	0.0069696233
255	0xbe50ad85	-0.20378692

fc_layer2.bias f4 [84]
0	0x3d7b21f6	0.061311685
1	0x3d8efcc3	0.06981804
2	0x3ddf0795	0.10890118
3	0x3d8d69ca	0.06904943
4	0xbbd9bd7f	-0.006644904
5	0xbc42aeea	-0.011882523
6	0x3d7c6341	0.061618093
7	0xbdaf5e0b	-0.08562859
8	0xbc976507	-0.01848079
9	0x3dad0fd5	0.08450285
10	0xbcd6af19	-0.02620654
11	0x3ce69c1d	0.028150612
12	0xbd2aa850	-0.04166442
13	0x3db58ce1	0.08864761
14	0xbdae6d79	-0.08516974
15	0x3c9c1a2a	0.019055445
16	0xbd858510	-0.0651952
17	0xbda17a2b	-0.0788463
18	0xbd16cbff	-0.03681564
19	0xbd76c545	-0.060246725
20	0x3dcc382c	0.099716514
21	0x3daae78c	0.08344945
22	0x3cbc68ef	0.022999255
23	0xbbede07c	-0.0072594266
24	0xbd97d338	-0.07413334
25	0x3d36dfb9	0.044646952
26	0xbcbf0c92	-0.023321424
27	0xbd4791fb	-0.048723202
28	0x3d1035fc	0.035207734
29	0xbd2d76b9	-0.04234955
30	0xbcf40f3a	-0.029792417
31	0xbd6ff384	-0.058581844
32	0x3d11f28d	0.035631705
33	0xbcaf806a	-0.021423537
34	0x3db8801a	0.090088084
35	0x3d14ac4c	0.036297128
36	0x3c9c983c	0.01911556
37	0xbd5b32f3	-0.053515386
38	0xbc0675ad	-0.008206767
39	0x3d475f97	0.048675146
40	0xbb5f61e7	-0.0034085454
41	0xbd3e03c2	-0.046390302
42	0xbd1a6eb1	-0.03770322
43	0xbd8504b5	-0.064950384
44	0x3c9c2c17	0.019063992
45	0xbd33316a	-0.043748297
46	0x3d1cc613	0.038274836
47	0xbd6d7cd9	-0.057980392
48	0xbd49922b	-0.049211662
49	0x3ce43036	0.02785502
50	0xbd246d93	-0.04014356
51	0x3cceceef	0.025245158
52	0xbd5da24f	-0.054109868
53	0x3c239248	0.009983607
54	0x3d839be2	0.06426217
55	0xbd73a81a	-0.059486486
56	0xbdae0f54	-0.08499017
57	0xbd84c2ff	-0.06482505
58	0xbd481b13	-0.048853945
59	0xbcbaf8b8	-0.022823676
60	0x3d7428af	0.05960911
61	0xbd50b836	-0.050956927
62	0x3da1717a	0.07882972
63	0x3d9588df	0.07301497
64	0x3d274f9d	0.04084741
65	0x3d7a2ebf	0.061079737
66	0x3c80f239	0.0157405
67	0xbda2fda5	-0.07958535
68	0x3d7ecd9c	0.062207803
69	0xbd4c85f8	-0.04993245
70	0xbda013c7	-0.07816272
71	0x3dba3780	0.09092617
72	0xbd4ec9d9	-0.050485466
73	0xbb970158	-0.0046083145
74	0xbdbf8adf	-0.093526594
75	0xbdc94525	-0.098276414
76	0x3d01ff83	0.031737816
77	0x3c779a97	0.015112541
78	0x3db2a1ca	0.08722265
79	0xbd3d0f39	-0.046157096
80	0xbd26d296	-0.040728174
81	0xbd2788f4	-0.040902093
82	0x3dc5fe25	0.09667615
83	0x3d2cf1a8	0.04222265

fc_layer3.weight f4 [10, 84]
0	0xbe48a2bf	-0.19593333
1	0xbe012a3b	-0.12613766
2	0xbd96a7a8	-0.07356197
3	0xbd581f36	-0.05276414
4	0xbd35a4b7	-0.044346537
5	0xbdbc2dc8	-0.091884196
6	0xbe789260	-0.24274588
7	0xbd2de365	-0.04245319
8	0xbe24c596	-0.16090998
9	0xbe76fe57	-0.2412046
10	0xbe1860ac	-0.14880627
11	0xbe0b5c26	-0.1360937
12	0xbdb9f70b	-0.09080323
13	0xbdd2e13a	-0.10296865
14	0x3dba9dfc	0.091121644
15	0x3d49e289	0.049288306
16	0xbda5d822	-0.08097865
17	0xbc05c02d	-0.008163494
18	0x3d6d7dd9	0.057981346
19	0x3e18d790	0.1492598
20	0xbdb8031f	-0.0898497
21	0xbd773378	-0.06035182
22	0x3e1aed5f	0.15129612
23	0xbe20f747	-0.15719329
24	0xbdbbd057	-0.09170597
25	0xbdb3112a	-0.08743508
26	0xbe25ecd7	-0.16203628
27	0xb9b704fa	-0.00034908188
28	0xbe84e7f4	-0.25958216
29	0x3da145a0	0.07874608
30	0xbe088cb4	-0.13334924
31	0xbe565df6	-0.20934281
32	0xbd877cf7	-0.06615632
33	0xbe754603	-0.23952489
34	0xbbbb883e	-0.0057230284
35	0xbe946a72	-0.2898746
36	0x3e966802	0.29376227
37	0x3d06a82e	0.032875232
38	0xbd51c2ea	-0.051211275
39	0x3cadbf55	0.021209398
40	0x3de580d1	0.112062104
41	0xbd86735d	-0.065649725
42	0xbdb12c1d	-0.08650992
43	0x3e1ae47e	0.15126225
44	0x3d55ab44	0.052165285
45	0x3d85aebf	0.06527471
46	0xbe39e9e6	-0.18155631
47	0xbdb50642	-0.08839084
48	0xbe14e6fc	-0.14541239
49	0xbe3d67bf	-0.18496607
50	0xbd9bf4a9	-0.076150246
51	0xbd33a5a2	-0.04385913
52	0x3cecd359	0.028909372
53	0xbd0af7ae	-0.033927612
54	0x3d2ca37c	0.0421481
55	0xbd8a1bf4	-0.06743613
56	0x3d7fad81	0.062421326
57	0x3e399d83	0.18126492
58	0xbcd04b85	-0.025426636
59	0x3e2a3989	0.1662351
60	0x3e604ea7	0.21905003
61	0x3de5d4ae	0.11222206
62	0x3e6f6e31	0.23381878
63	0xbec908a4	-0.39264405
64	0x3e4dd2b6	0.20099911
65	0xbbe54378	-0.0069965683
66	0x3c057576	0.008145681
67	0x3e31f8a7	0.1738001
68	0xbcbdbc26	-0.023161005
69	0xbe0b9214	-0.13629943
70	0xbd2f9b64	-0.0428728
71	0x3d2c899a	0.042123415
72	0x3e3fbffd	0.18725581
73	0x3a497faf	0.0007686568
74	0xbd43b96b	-0.04778425
75	0x3c83faf5	0.016110877
76	0x3e99fec1	0.30077174
77	0xbe29ddc9	-0.1658851
78	0xbd6b7352	-0.057483025
79	0x3e459e79	0.19298734
80	0x3e6eb091	0.23309542
81	0x3c14b6b9	0.009076768
82	0x3df3a191	0.11896051
83	0xbcdd9e52	-0.027053032
84	0x3d672eee	0.05644124
85	0xbddf05c6	-0.10889773
86	0x3e9ee76d	0.3103594
87	0xbd98d18c	-0.07461843
88	0x3eb10e2d	0.34581128
89	0xbe8565fd	-0.26054373
90	0x3e51db56	0.20493826
91	0x3d47070c	0.048590705
92	0xbe9a8249	-0.30177525
93	0xbce9d199	-0.028542327
94	0x3e116234	0.14197618
95	0x3e7d5ed3	0.24743204
96	0x3df1e999	0.11812133
97	0xbe547fc1	-0.20751859
98	0xbde5aafc	-0.11214253
99	0xbd95e915	-0.073198475
100	0x3e16972a	0.14706102
101	0x3d9974fe	0.074930176
102	0xbdb14eec	-0.08657631
103	0x3e109348	0.14118683
104	0x3e0ebc41	0.13939
105	0x3e94e3b1	0.29079965
106	0xbe5dd124	-0.21661812
107	0xbdee2a11	-0.11629117
108	0xbdc8120b	-0.097690664
109	0xbcbc55ad	-0.022990072
110	0x3d2368cc	0.039894864
111	0x3d1c2011	0.03811652
112	0xbdd3cb1f	-0.10341477
113	0xbd2a59ed	-0.041589666
114	0x3d128ac5	0.035776872
115	0xbd766d29	-0.060162697
116	0x3e856a37	0.26057598
117	0xbde48ad2	-0.111592904
118	0x3dfb909a	0.1228344
119	0x3cb6791e	0.02227455
120	0xbe18684f	-0.1488354
121	0xbd0bcba4	-0.034129754
122	0x3e084083	0.1330586
123	0x3e03e1b8	0.12879074
124	0x3c908032	0.017639253
125	0x3bd00234	0.006347919
126	0x3d3d44ed	0.04620831
127	0xbe7edcdb	-0.24888937
128	0x3e9d7ef3	0.30760917
129	0xbe25dcfc	-0.1619758
130	0x3e1841dc	0.14868873
131	0x3dc7ed4a	0.09762056
132	0xbe4c30a3	-0.19940428
133	0x3c3df8ff	0.01159501
134	0x3c5f7999	0.013639831
135	0x3c8384cf	0.016054539
136	0x3d5046f3	0.050848912
137	0xbe012d34	-0.126149
138	0xbcd4f529	-0.025995808
139	0xbe20ae51	-0.15691496
140	0x3d8fbee8	0.07018834
141	0xbe0dbe42	-0.13842109
142	0x3d166c1b	0.03672419
143	0xbcb26b27	-0.02177961
144	0x3d8cdf02	0.06878473
145	0xbe4be226	-0.19910488
146	0xbe5fa24d	-0.21839257
147	0x3e48889a	0.1958336
148	0xbe293b27	-0.16526471
149	0x3e2fffb2	0.17187384
150	0xbe9f447c	-0.31106937
151	0xbd8f001f	-0.06982445
152	0xbd256c67	-0.040386584
153	0xbe0932dd	-0.13398309
154	0x3c832786	0.016010057
155	0xbd288c73	-0.041149568
156	0x3a52eb26	0.0008045904
157	0xbd5f891c	-0.054574117
158	0x3d0f38f8	0.03496644
159	0x3dbfd51a	0.09366818
160	0xbd550747	-0.052008893
161	0xbd7cb8b3	-0.06169958
162	0x3ea0b052	0.31384522
163	0xbcf2596e	-0.029583659
164	0x3e7f2406	0.24916086
165	0x3da373c0	0.07981062
166	0xbdf827c4	-0.1211696
167	0xbd98fc58	-0.07470006
168	0x3e1a1635	0.15047534
169	0xbc2d9a51	-0.010595874
170	0xbe6033a4	-0.218947
171	0x3cb0599b	0.021527102
172	0x3e062b6b	0.131025
173	0x3e6c272d	0.2306182
174	0x3e21213b	0.15735333
175	0xbd81c04a	-0.06335504
176	0x3e264b86	0.16239747
177	0xbe07088a	-0.13186851
178	0xbda39f4a	-0.07989366
179	0x3e5b911d	0.21442075
180	0xbd83bc9c	-0.06432459
181	0xbe4e9501	-0.20174028
182	0xbd93be3f	-0.07214021
183	0x3c7a94e0	0.015294284
184	0xbd91490e	-0.07094012
185	0x3d5d4e72	0.05402989
186	0x3e2e5496	0.17024454
187	0x3d7b7090	0.061386645
188	0xbe88299d	-0.26594248
189	0x3d3c4000	0.045959473
190	0x3b51ec1b	0.00320316
191	0xbdc021d3	-0.093814515
192	0xbdaefe95	-0.085446514
193	0x3d589a93	0.05288179
194	0x3ce124f7	0.027483447
195	0x3d3e2e57	0.046430912
196	0x3e3ae971	0.18253113
197	0x3d17d73f	0.03707051
198	0xbda9e27d	-0.08295152
199	0xbe6a18e6	-0.2286106
200	0xbcfaff63	-0.030639356
201	0x3e30aa52	0.17252472
202	0xbe06246d	-0.13099833
203	0x3d339ecd	0.043852616
204	0xbe6a820f	-0.22901176
205	0x3e891f32	0.26781613
206	0xbea15e22	-0.3151713
207	0xbdde0561	-0.1084087
208	0x3e54ae64	0.2076965
209	0xbe5bb94d	-0.21457405
210	0x3c0e2c92	0.008677619
211	0x3dcbe1ec	0.099552006
212	0xbe3bf098	-0.18353498
213	0xbd0ff77f	-0.03514814
214	0xbe24759e	-0.16060492
215	0x3d652130	0.055939853
216	0xbcc311a8	-0.02381213
217	0x3e780291	0.24219729
218	0x3dcd3341	0.100195415
219	0x3cbb0703	0.022830492
220	0xbe02e4ee	-0.12782642
221	0x3c3ff7c5	0.011716788
222	0xbd6da857	-0.05802187
223	0x3de0babd	0.109731175
224	0xbdaabd0a	-0.083368376
225	0x3dd26ce6	0.10274677
226	0xbda8f8fc	-0.08250615
227	0xbe045d83	-0.12926297
228	0xbe1204cf	-0.14259647
229	0xbe93054c	-0.2871498
230	0xbd0929b8	-0.03348705
231	0xbde1ce3b	-0.110256635
232	0xbe00e8ea	-0.1258885
233	0xbd8bd1ed	-0.068271495
234	0xbe250b51	-0.16117598
235	0x3e87b7d2	0.2650743
236	0x3eb81636	0.35954446
237	0x3d91e514	0.07123771
238	0xbd7183a7	-0.058963444
239	0x3e8b4685	0.2720224
240	0x3ea96fa5	0.3309299
241	0xbd057aed	-0.032587934
242	0x3db7f756	0.089827225
243	0xbcab8540	-0.020937562
244	0xbe5f2b2d	-0.21793814
245	0x3d1d12d8	0.03834805
246	0x3e5e7c63	0.21727137
247	0xbcb5bcda	-0.022184778
248	0xbdf263ff	-0.11835479
249	0x3dc6d6c1	0.0970893
250	0xbdf8cc66	-0.12148361
251	0x3e237faa	0.15966669
252	0x3e44b290	0.19208741
253	0x3e8ae6a1	0.2712908
254	0xbe4daa73	-0.20084552
255	0x3e3a5c2b	0.18199222

fc_layer3.bias f4 [10]
0	0x3cf2101b	0.029548695
1	0x3e431156	0.19049582
2	0x3db5e4f4	0.0888156
3	0x3def7612	0.11692442
4	0xbdafc9ab	-0.08583387
5	0x3b0ee41f	0.0021803451
6	0xbe24b846	-0.1608592
7	0x3bb3be94	0.005485365
8	0x3d6ff67e	0.058584683
9	0x3c2d3bb5	0.010573317
