saved_models/mnist_classifier_with_threshold.pth (torch, 33404 bytes, 2 tensors)

linear.weight f4 [10, 784]
00000000: 431b b93c fb37 0bbd 6895 d3bc a57c d5bc
00000010: 467a c33c e719 02bd aabe fb3c 404b a83a
00000020: cd05 0dbd 2c9b f13b ea5d 0cbd a4ad 833c
00000030: 8d8e 09bd 28b2 f0bc 5292 bd3b 6bdc 583a
00000040: 33f5 0abd d2fe 3cbc 52c9 bd3c f6fc f53b
00000050: 92af 4839 cb51 74bc dbce ecbc 9e87 b1bb
00000060: f54b c23a 333a 60bb 5bee 8539 971d d4bc
00000070: f7ed 593c c468 03bc d2a1 f83c 7a3d 663c
00000080: 61bf 043d af39 b43c 4d89 6a39 ce91 b3bb
00000090: d3d5 32bc f28f 67bb 615e aebc f0df aebb
000000a0: fea2 dabc 7ced d93a 3887 6bbc 4286 ccba
000000b0: beab 053d 61a9 96bc debf bd3b 7ac5 cb3c
000000c0: 22af c23c fa8e f83c 98dd 02bd f732 0abd
000000d0: bf7e 10bb 6484 853c 97c6 84bb af2e e9bc
000000e0: 4a32 c4bb 28d9 d5bc b46e d83c cfbe a9bb
000000f0: 964b e83c f0b0 803c 891d a43c e7ba c8bc
00000100: 329f 9db8 129a ffbc 7906 863b 6ba7 80bb
00000110: 43cf e7bc 3e59 be3c 5c78 063c 27cf 21bd
00000120: 429d 57bc 3394 b0ba a422 123c a2ca 2ebd
00000130: d409 99bc fc01 1c3c 82cf e5bc b80c 8c3c
00000140: b98a a8bc 829a b2bc a3f0 39bc 5e94 77bc
00000150: c2a7 c13c c5bd d63b dc54 6dbc a7ac 903b
00000160: 3f99 80bc 75a5 c9bc 973e f43c a9d7 0dbc
00000170: 5ef7 11bd 18f0 5e3b e67b 0fbc a1a0 90bb
00000180: 5757 94bc e675 6ebc 2744 1bbd aace 15bd
00000190: 2ff4 0bbd c0df 56bd 48c3 3bbd d090 c0bc
000001a0: fea6 84bd a8d5 76bd 8b22 5cbc 6434 cf3c
000001b0: fd00 2fbc c775 eebc f312 22bc cf40 f6bc
000001c0: 6cf0 cdbc 217e 8ebc 0efc cebc 477d 01bd
000001d0: 311f 763c 61c0 e2bc eac5 73ba dac5 4abd
000001e0: 7f44 e3bb d223 72bd 9e5e fabb 769e 17bd
000001f0: 3252 b8bc 5ba5 743c 32a7 273c 410b 113d
00000200: 74b9 edbc 6ae9 593c a3b1 3dbd 0dde 73bd
00000210: 525b 74bc ccab 3fbc 991a 58bb 15b3 2fbd
00000220: 6f66 a0bc 1a62 01bd 1b17 8f3c edc3 08bb
00000230: 5b23 c5bc fc33 fdbc 4a27 ae3c 3380 943c
00000240: 0310 59bc 11bf b9bc 192e 363b 4ba9 b9bc
00000250: d2c2 68bd 27c3 c2bc 7711 e6bc 2fe8 4abd
00000260: b956 e03c 88bb 8c3d a757 eb3d 92f1 cf3d
00000270: 3585 be3d 6903 d63d 1942 873d 8b12 e43c
00000280: 1e4c a8bc e879 7c3c 6a2c 5dbd b310 8dbd
00000290: bf25 2bbc 59d1 ba39 5391 f3ba 9ca9 acbb
000002a0: 8884 d33a a83e d7bc 05b7 99bb d182 0d3c
000002b0: 31b9 eabc f321 a9ba bb03 24bd 1c13 99bd
000002c0: cebd babd 30a7 35bd c7fc 9fbc 698d ccbc
000002d0: de87 c93c fb28 cc3d ee0b 9b3d 2821 0c3e
000002e0: 3d9c 293e 9433 2a3e 50e4 133e 1fef af3d
000002f0: 3b75 653d 351f 013d 10c6 4b3d 96f3 31bd
00000300: d10e 8cbd ccad 50bd 163a acbb 5784 033c
00000310: cea8 8b3c 70b0 cfbc e6c9 9f3c 26ad bcbc
00000320: f8ed 9cbc 9468 a03b 97c0 12bd cd12 68bd
00000330: 5e00 2dbd 926a 5bbd deaa 5f3c 66d9 443d
00000340: 7cef 443d 962f 853d 5e49 7e3d 5733 ff3d
00000350: 26b0 e33d 8f35 343e d874 3b3e 8251 df3d
00000360: 8fed 643d 1a66 223d 6056 703d eca1 093d
00000370: 084b 0bbd af1c 35bd 992f b8b9 aa4b 81bc
00000380: 73e5 a4bc 5162 d43a c273 003c bf53 1bbd
00000390: a3f7 5cbd 298f d8bc 9ff9 0cbd 481e a0bd
000003a0: 31c8 80bd 5972 1dbb 22c4 c2bc a1e9 aa3c
000003b0: 9cb7 1c3d e6f1 183d edfc 5e3d bafe bc3d
000003c0: 2dec 383e 850e 503e e094 343e 9622 9f3d
000003d0: f5d7 8d3d 7d24 383d cce4 ab3d 9bfe 513d
000003e0: 54e2 afbc 02f0 a3bd 0b53 24bd dfa8 08bd
000003f0: 2534 50bc 14d9 8f3b 099c ef3c 21c6 1cbd
0.022596007 -0.033988934 -0.025828078 -0.026060412 0.023862015 -0.031762984 0.030730564 0.0012839809
-0.03442936 0.0073732343 -0.03426925 0.01607401 -0.033583213 -0.029381827 0.005785265 0.0008272591
-0.033925246 -0.011535363 0.023167286 0.007506962 0.00019138891 -0.014912079 -0.02890723 -0.005417778
0.0014823662 -0.0034214377 0.00025545325 -0.025893016 0.013301364 -0.008020584 0.0303506 0.014052743
0.032409076 0.022000162 0.00022367128 -0.0054800278 -0.0109152375 -0.00353336 -0.021285238 -0.005336754
-0.026689049 0.0016626562 -0.0143755 -0.0015603977 0.03263449 -0.018391313 0.0057906946 0.024874438
0.02376515 0.030341614 -0.03194961 -0.03374001 -0.0022048203 0.01629848 -0.004051994 -0.028464643
-0.0059874402 -0.026104525 0.026419975 -0.005180217 0.028356355 0.01570937 0.020033615 -0.024503184
-7.515996e-05 -0.031201396 0.004090127 -0.003926208 -0.028297072 0.023235913 0.008207407 -0.039504196
-0.013160052 -0.0013471901 0.008919392 -0.042673714 -0.018681444 0.0095219575 -0.028053049 0.017095909
-0.02057396 -0.02180219 -0.011348876 -0.015111057 0.023639563 0.006553384 -0.014485564 0.004415113
-0.015698073 -0.024615029 0.029815001 -0.008657374 -0.0356363 0.0034017619 -0.008757567 -0.0044136797
-0.018108053 -0.014554476 -0.037906792 -0.036574043 -0.03416842 -0.05245948 -0.04584053 -0.023506552
-0.06477164 -0.060262352 -0.01343597 0.025293536 -0.010681388 -0.029108895 -0.009892213 -0.0300602
-0.025139056 -0.017394127 -0.025266673 -0.031613614 0.015022085 -0.027679624 -0.0009299206 -0.049505092
-0.0069356556 -0.059116192 -0.007640674 -0.037016355 -0.022500131 0.014932002 0.010232734 0.035411123
-0.029019095 0.013300279 -0.046311986 -0.059537936 -0.014914351 -0.011698674 -0.0032974838 -0.042895395
-0.019580094 -0.031587698 0.017467072 -0.0020868734 -0.02406471 -0.030908577 0.021258969 0.018127536
-0.013248446 -0.022674115 0.0027798472 -0.022663733 -0.05682642 -0.023774697 -0.0280845 -0.049537834
0.027385103 0.06871706 0.11491328 0.10153498 0.09302751 0.10449869 0.06604404 0.027840873
-0.020544108 0.015409924 -0.053997435 -0.06887951 -0.010446011 0.0003563266 -0.0018582739 -0.0052692425
0.001613752 -0.026274994 -0.004691007 0.008637146 -0.02865276 -0.0012903794 -0.04004262 -0.07474348
-0.091182336 -0.044348896 -0.019529713 -0.024969773 0.02460092 0.09968754 0.07570635 0.13684523
0.16563506 0.16621238 0.14442563 0.085905306 0.056020003 0.031523902 0.049749434 -0.043445192
-0.068387635 -0.050946996 -0.005255948 0.008027158 0.017048266 -0.025352687 0.019505452 -0.023031782
-0.019156441 0.004895279 -0.0358282 -0.056658555 -0.04223668 -0.05356843 0.013651578 0.04805889
0.048079953 0.06503217 0.062081687 0.12460964 0.11117582 0.17598556 0.18306291 0.10904218
0.055890616 0.039648153 0.058676124 0.033601686 -0.034007102 -0.044216808 -0.00035130678 -0.01578315
-0.020128941 0.0016203617 0.007840099 -0.037921663 -0.053947102 -0.026435452 -0.034417745 -0.07818276
-0.062881835 -0.0024024455 -0.023775164 0.020863356 0.03826104 0.037340067 0.054440428 0.09228273
0.18058844 0.20318039 0.17634916 0.077702686 0.06925956 0.044956673 0.08393249 0.0512682
-0.021470226 -0.08004762 -0.04011826 -0.033364173 -0.012707745 0.0043898914 0.029249208 -0.038274888

linear.bias f4 [10]
00000000: 13e9 43be d5be 763e 3d0b a3bc fd7e 25be
00000010: cf7e a73d e68a 1a3f f098 27bd b9dd af3e
00000020: ba3a 46bf 2a96 c8bd
-0.1913188 0.24096234 -0.01990282 -0.16161723 0.08178484 0.6036819 -0.040917337 0.34348848
-0.7743336 -0.097942665
