saved_models/SGDLogistic.pth (torch, 33008 bytes, 2 tensors)

model.0.weight f4 [10, 784]
0	0x3cfddfc5	0.03099049
1	0x3d088328	0.033328205
2	0xbb992988	-0.0046741404
3	0x3d15789a	0.036491968
4	0xbb8769ef	-0.0041325013
5	0x3c3286dc	0.010896411
6	0xbc605922	-0.013693126
7	0x3cca0647	0.024661196
8	0x3d100cb4	0.035168365
9	0xbcb85bbe	-0.022504684
10	0x3d0e3e6e	0.034727506
11	0x3c29f78f	0.010373964
12	0x3cf658b9	0.030071603
13	0x3c0bb184	0.00852621
14	0x3cab47ad	0.020908201
15	0xbab102c6	-0.0013504855
16	0x3cffbb11	0.03121713
17	0x3c12f231	0.008968876
18	0xbc54a38e	-0.012978448
19	0x3c519893	0.012792724
20	0xbc51117f	-0.012760519
21	0xba02227c	-0.0004964245
22	0xbc31237a	-0.010811681
23	0x3ce04808	0.027378097
24	0xbcc8a9e2	-0.024495069
25	0xbc513a7b	-0.0127702905
26	0xbbd171bc	-0.006391732
27	0xbc91a487	-0.017778648
28	0x3be7619b	0.007061196
29	0xbd0155f2	-0.031576104
30	0x3d13342c	0.035938427
31	0xbcda3e39	-0.026640998
32	0x3d000839	0.03125784
33	0x3c1dd4cc	0.009633254
34	0xbc01868a	-0.007905612
35	0x3cd2ec08	0.025747314
36	0x3c175d50	0.009238556
37	0x3d0523a6	0.0325047
38	0x3bf6f1fb	0.0075361705
39	0xbbfb436f	-0.007667951
40	0x3c584f46	0.013202494
41	0xbbc6a713	-0.0060623973
42	0x3c98a472	0.018633101
43	0x3d114e16	0.03547486
44	0x3cc6979e	0.024242219
45	0xbc446a59	-0.011988246
46	0x3cc6a40c	0.024248146
47	0x3c246535	0.010033895
48	0x3cb27532	0.021784399
49	0xbc9420ef	-0.01808211
50	0xbd01afe4	-0.031661883
51	0xbc25a4d6	-0.010110101
52	0xbcc22074	-0.023697115
53	0x3d0720a0	0.032990098
54	0x3c64facc	0.01397581
55	0x3c97664f	0.018481402
56	0x3c757ead	0.014983815
57	0x3b493030	0.0030698888
58	0x3d01946f	0.031635698
59	0xbcb198fa	-0.02167939
60	0x3bc27461	0.0059342836
61	0xbca971ee	-0.020684209
62	0x3c709ff8	0.014686577
63	0xbc0de5bc	-0.00866073
64	0x3c6d73af	0.014492913
65	0xbb8370a1	-0.004011229
66	0x3d068738	0.0328438
67	0xbc94e569	-0.018175798
68	0xbc98abdf	-0.018636642
69	0xbc9b4c0e	-0.018957164
70	0x3d0ba7c4	0.03409554
71	0x3c5e724c	0.013577055
72	0x3d134dc2	0.035962828
73	0xbce2c44c	-0.027681492
74	0xbd0889c2	-0.0333345
75	0xbcd0819c	-0.025452428
76	0xbcac954f	-0.02106729
77	0x3c91cd3a	0.017798055
78	0x3c858a47	0.016301287
79	0x3d087220	0.033311963
80	0xbc71e733	-0.014764595
81	0xbca93500	-0.020655155
82	0x3cb97012	0.022636447
83	0xbc2ffede	-0.010741917
84	0x3ccfc512	0.025362525
85	0xbb9cb48e	-0.004782266
86	0x3cc59147	0.024117125
87	0xbcc50f92	-0.024055276
88	0xbc6ad1cf	-0.014332249
89	0x3c6e71fd	0.014553544
90	0x3c36c4f8	0.011155359
91	0xbbb9bbed	-0.0056681545
92	0x3cc80f9e	0.02442151
93	0x3cdce254	0.02696339
94	0xbcc30e65	-0.023810575
95	0xbc8f72e7	-0.017510844
96	0x3d09d6e9	0.03365222
97	0xbc40397f	-0.011732458
98	0xbc5784a5	-0.0131541835
99	0xbd11959f	-0.03554308
100	0xbcaf621d	-0.021409089
101	0x3c064508	0.008195169
102	0xbb99480f	-0.0046777795
103	0xbcc8e54b	-0.024523398
104	0x3b517934	0.0031963112
105	0xbcb0e2c9	-0.021592515
106	0xbcddaa89	-0.027058857
107	0xbc83f16c	-0.01610633
108	0xbce1b431	-0.027551742
109	0xbc9be8d6	-0.019031923
110	0x3d21513f	0.039384123
111	0x3c2af880	0.010435224
112	0x3c70c158	0.014694534
113	0xbcf297ac	-0.029613338
114	0xbca1e1e0	-0.019761026
115	0xbc066c7d	-0.008204577
116	0x3c175762	0.009237142
117	0xbce478a5	-0.027889559
118	0xbc457703	-0.0120523
119	0xbc980f60	-0.018562019
120	0x3b09c7ec	0.0021023704
121	0xbc48092e	-0.01220922
122	0xbb11f788	-0.0022272784
123	0xbcc68ba4	-0.024236508
124	0xbcc1f142	-0.023674611
125	0xbc9bb9bd	-0.019009465
126	0xbc14f426	-0.009091413
127	0xbcbb5cef	-0.022871463
128	0x3d12e4c2	0.03586269
129	0xba075f90	-0.0005164081
130	0x3d188ddd	0.037244666
131	0x3c8a6f43	0.016898757
132	0xbcd0b054	-0.025474705
133	0x3ce73cbf	0.028227208
134	0xbbdac2fd	-0.0066760764
135	0xbc2b7546	-0.010464972
136	0xbcd6a58a	-0.026201982
137	0xbd02ad2f	-0.031903442
138	0x3c63b761	0.013898701
139	0xbb86b22c	-0.004110595
140	0x3c901e71	0.01759264
141	0xbcd1d13f	-0.025612472
142	0x3cf75c66	0.030195426
143	0xbcb8afa5	-0.022544691
144	0xbb2d8cb1	-0.0026481564
145	0x3c2cd409	0.0105486
146	0x3caa4ee3	0.02078957
147	0x3cf4d79a	0.029887963
148	0x3d025501	0.031819347
149	0xbcf84004	-0.030303963
150	0x3bdfc812	0.00682927
151	0xbc830a13	-0.015996015
152	0xbb2f13db	-0.0026714716
153	0xbcb985f6	-0.022646885
154	0x3d26b64e	0.040701203
155	0xbc63d723	-0.013906273
156	0x3d0a9962	0.033837683
157	0x3cddd0cf	0.027077107
158	0x3ccf094d	0.02527299
159	0xbc01bfa2	-0.007919224
160	0x3d2485f1	0.0401668
161	0x3c459ce4	0.012061331
162	0x3be9bd3f	0.0071331556
163	0xbcf1c6b0	-0.029513687
164	0x3c8f8bb6	0.017522674
165	0xbb0ae8d1	-0.0021195898
166	0xbc50ef43	-0.012752357
167	0x3d0cbbf9	0.034358952
168	0x3c3ee7a0	0.011651903
169	0xbc839aa7	-0.016064955
170	0xbc6bcbeb	-0.01439188
171	0x3af9d943	0.0019061941
172	0x3cbdea04	0.023182876
173	0xbbe27948	-0.0069114305
174	0xbc9ffcee	-0.019529786
175	0xbc5ea4f8	-0.013589136
176	0xbcfad67a	-0.030619849
177	0x3c0246d3	0.007951456
178	0x3cc6685c	0.024219684
179	0xbd0bd64b	-0.034139913
180	0x3c2bfc0b	0.010497103
181	0x3cc1d22f	0.023659794
182	0x3c7c5263	0.015400502
183	0x3831ec0a	4.2419917e-05
184	0x3d0cf8c5	0.034416933
185	0x3d17ec59	0.037090633
186	0x3d024460	0.03180349
187	0x3c2a1f50	0.010383442
188	0x3b65cb4c	0.0035063801
189	0x3c40fcd5	0.01177903
190	0xbb44b91a	-0.0030017556
191	0xbc11d962	-0.008901926
192	0x3cc866aa	0.024463017
193	0x3d08b0eb	0.033371847
194	0xb8b06c4e	-8.412507e-05
195	0xbb8d4385	-0.0043110275
196	0x3b8a059d	0.004212095
197	0x3acb7d9c	0.0015525105
198	0x3c488daa	0.012240807
199	0x3c5cb3bf	0.013470589
200	0xbcf3bac9	-0.029752152
201	0xbc44f145	-0.012020414
202	0x3cee1b3e	0.029065724
203	0x3c2839b1	0.010267661
204	0xbbfbb895	-0.007681916
205	0xbcdaa107	-0.026688112
206	0xbcc78bda	-0.024358679
207	0xbd00b108	-0.03141883
208	0xbc01c467	-0.007920361
209	0x3c917a08	0.017758384
210	0x3cf2befc	0.029632084
211	0x3cd2ec43	0.025747424
212	0xbc98db5e	-0.01865929
213	0xbb915071	-0.004434638
214	0x3c6afdda	0.0143427495
215	0x3d5fc1d2	0.0546282
216	0x3cbfb1b1	0.02340016
217	0x3ba07942	0.0048972676
218	0x3cbab111	0.02278951
219	0xbc276f22	-0.010219367
220	0xbcb0be22	-0.021575037
221	0x3ce930f1	0.02846572
222	0xbc52454d	-0.012833905
223	0xbb63ef0b	-0.0034779932
224	0xbd025a3d	-0.03182434
225	0x3ce1f43e	0.027582284
226	0x3cfab1f4	0.030602433
227	0x3c84293e	0.016132947
228	0xbcbb2a23	-0.02284724
229	0xbd0f6b87	-0.035014655
230	0xbcfbf9a9	-0.030758696
231	0x3cb7bcec	0.022428952
232	0x3c50462d	0.012712044
233	0x3ce59fd6	0.028030317
234	0x3ca06941	0.019581439
235	0x3c551699	0.013005876
236	0x3bb20a0c	0.0054333266
237	0xbca9a4ec	-0.020708524
238	0xbcc8ea01	-0.024525644
239	0xbce85a00	-0.028363228
240	0x3ca99ecb	0.020705601
241	0xbc0df78c	-0.008664977
242	0x3be5e08d	0.007015294
243	0xb9ba00ed	-0.00035477374
244	0x3c8846fc	0.01663541
245	0xbb6fd008	-0.0036592502
246	0xbc063844	-0.008192126
247	0x3c9fe795	0.019519607
248	0xbbffc351	-0.007805266
249	0x3cc87e8f	0.02447441
250	0xbc0331fc	-0.008007523
251	0xbcb88298	-0.02252321
252	0xbb2afdf0	-0.00260913
253	0xbc5f72ff	-0.013638257
254	0xbbf4b3e2	-0.0074677328
255	0xbcfe9427	-0.031076504

model.0.bias f4 [10]
0	0xbc9390c8	-0.018013373
1	0x3cf3d729	0.029765682
2	0xbc2b0868	-0.010439016
3	0x3c90984f	0.017650751
4	0xbb2e52e0	-0.002659969
5	0x3b54b164	0.0032454366
6	0xbd1f9d9c	-0.038968667
7	0xbc732b45	-0.014841859
8	0xbc13bb73	-0.009016859
9	0x3c0567b8	0.008142404
