saved_models/SGDLinear.pth (torch, 32932 bytes, 2 tensors)

linear.weight f4 [10, 784]
000000 6c 11 02 3d e2 a4 0b 3d 04 34 80 bb 96 9a 18 3d
       0.031754896 0.03409279 -0.0039124507 0.0372568
000010 3b e8 5c bb 87 06 3f 3c 40 e1 53 bc 57 48 d0 3c
       -0.0033707756 0.011659271 -0.012932122 0.02542512
000020 96 2e 13 3d 2b 21 b2 bc 44 60 11 3d 13 77 36 3c
       0.0359331 -0.021744331 0.035492197 0.011136788
000030 f5 9b fc 3c 3f 33 18 3c ea 89 b1 3c d6 47 1a ba
       0.030836085 0.009289562 0.021672208 -0.0005885338
000040 15 ff 02 3d 41 71 1f 3c 71 2b 48 bc db 18 5e 3c
       0.031981546 0.009731592 -0.0122173885 0.013555731
000050 4e 99 44 bc 48 3d 8b 39 b0 aa 24 bc 83 8a e6 3c
       -0.011999441 0.00026557804 -0.010050461 0.02814222
000060 a4 6f c2 bc 4d c2 44 bc 4f 7d b8 bb 35 69 8b bc
       -0.023734875 -0.012009216 -0.0056301723 -0.01701794
000070 44 2f 00 3c c2 72 fc bc 1c 56 16 3d 4f 04 d4 bc
       0.007823769 -0.03081644 0.036703214 -0.02588096
000080 8a 23 03 3d ce 0a 2a 3c 72 05 ea bb f2 40 d9 3c
       0.032016315 0.010378553 -0.0071417624 0.026520226
000090 60 25 24 3c 86 42 08 3d 16 49 06 3c 26 ff df bb
       0.0100186765 0.033266567 0.008196136 -0.006835836
0000a0 80 fa 68 3c bc c4 af bb 3b bd 9d 3c d1 c7 13 3d
       0.01421988 -0.0053640287 0.019255271 0.03607923
0000b0 4b a3 cb 3c 8d 1e 3a bc 43 47 cc 3c 84 0f 31 3c
       0.024858138 -0.011359823 0.024936324 0.010806922
0000c0 f3 db b8 3c 48 2e 8e bc df 42 fd bc 91 15 19 bc
       0.022565817 -0.017356053 -0.030915676 -0.009343521
0000d0 11 e6 bb bc 51 42 0a 3d 74 7b 71 3c 62 a7 9d 3c
       -0.022936853 0.03375465 0.014738906 0.019244853
0000e0 d9 ff 80 3c 02 25 7b 3b df b5 04 3d b9 65 ab bc
       0.015746998 0.003832162 0.03240001 -0.020922529
0000f0 10 2a db 3b 8e 4a a3 bc 72 3b 7b 3c dd 3d 06 bc
       0.006688364 -0.019933011 0.015333997 -0.00819346
000100 36 54 75 3c 7a 87 75 bb d7 ce 06 3d d4 92 97 bc
       0.014973691 -0.0037464784 0.0329121 -0.01850263
000110 ce 8d 9b bc c5 d8 9d bc 07 b2 08 3d 1e c3 43 3c
       -0.018988516 -0.019268403 0.033372905 0.011948375
000120 dd dd 09 3d 3e 85 ed bc 13 d0 0b bd 39 78 d3 bc
       0.03365885 -0.028994199 -0.034133982 -0.025814163
000130 c0 13 aa bc f5 06 95 3c 14 7b 8a 3c bd 9f 0b 3d
       -0.02076137 0.018191794 0.016904391 0.034087885
000140 22 49 65 bc 3e f1 a2 bc cd b1 bf 3c 0e 86 23 bc
       -0.013994487 -0.019890424 0.023400212 -0.009980692
000150 39 07 d6 3c 17 bf 83 bb 4f d1 cb 3c 0d 2d bf bc
       0.02612649 -0.0040205824 0.02488008 -0.023336912
000160 7e 02 5f bc bb 72 7a 3c 55 08 3d 3c 43 5e bb bb
       -0.013611434 0.015286143 0.011537631 -0.005718024
000170 92 34 c4 3c fc 9e d4 3c 1c 58 cd bc d3 d5 9f bc
       0.023950849 0.025954716 -0.025066428 -0.019511139
000180 99 7b 02 3d 08 a9 63 bc 14 1a 82 bc 98 d1 22 bd
       0.031856153 -0.013895281 -0.015881576 -0.039750665
000190 dc e3 da bc 0f a9 4d 3b 5a f6 0d bc 49 a8 db bc
       -0.02671998 0.0031381284 -0.008664692 -0.026813643
0001a0 c4 39 04 3b 3a 1c b4 bc be 15 db bc ee a4 7e bc
       0.0020176033 -0.021986116 -0.026743766 -0.015542252
0001b0 60 16 dc bc f3 d2 95 bc 5f 73 24 3d 0a 78 37 3c
       -0.026866138 -0.018289065 0.04014909 0.011198053
0001c0 39 42 7d 3c 42 5c ec bc 01 bf 9b bc 28 ad f3 bb
       0.015457683 -0.028852586 -0.019011976 -0.0074364133
0001d0 ee 4b 23 3c 89 52 e0 bc d0 6d 4f bc 9b 9c a2 bc
       0.0099668335 -0.027383106 -0.012660459 -0.019850066
0001e0 4a c8 67 b8 22 f8 74 bc 3e e3 d2 bb f9 d8 dc bc
       -5.5261225e-05 -0.014951738 -0.006435781 -0.02695893
0001f0 1c f6 bf bc d5 13 85 bc 94 d7 ce bb b6 a2 9f bc
       -0.023432784 -0.016244808 -0.00631232 -0.019486766
000200 15 ec 16 3d a1 eb 07 bb d9 a5 11 3d 98 0e 7f 3c
       0.03684624 -0.002073981 0.035558555 0.015567444
000210 9f 5c d8 bc 65 8e da 3c a6 2a f3 bb b1 6c 2a bc
       -0.026411353 0.026679227 -0.0074208556 -0.010401891
000220 52 76 d1 bc b6 51 fd bc 49 3e 70 3c f7 5c 5b bb
       -0.025569115 -0.030922752 0.014663287 -0.003347216
000230 5d 5f 96 3c 25 97 cb bc 1a a4 fd 3c 3d 64 b2 bc
       0.01835602 -0.024852345 0.030962039 -0.021776313
000240 78 9a 08 bb c1 bb 29 3c ce af 9b 3c 37 d5 d5 3c
       -0.0020844024 0.010359705 0.019004729 0.026102645
000250 b7 49 d6 3c fa 02 18 bd de 7c a4 38 aa 59 8e bc
       0.026158197 -0.037112214 7.843388e-05 -0.01737674
000260 fe a8 19 39 ed 5f 93 bc 40 0e 40 3d 36 b1 8f bb
       0.00014654172 -0.017990077 0.04688859 -0.004385139
000270 a1 4f 42 3d 98 5f 1d 3d c3 d2 03 3d c6 3b af bb
       0.04743922 0.038421243 0.03218342 -0.0053477017
000280 25 28 1b 3d b2 6a 03 3c 17 f6 a3 3b ef 6d 00 bd
       0.03788008 0.008021044 0.0050037014 -0.03135484
000290 34 b4 8d 3c 61 74 bc ba 44 35 45 bc 2c e0 0f 3d
       0.017297842 -0.0014377945 -0.012036625 0.035125896
0002a0 85 67 4b 3c b6 bd 7a bc 18 4e 5f bc 05 04 2e 3b
       0.012414818 -0.01530402 -0.013629459 0.0026552689
0002b0 e6 60 be 3c 95 88 f3 bb 8c 42 b5 bc bd e2 a5 bc
       0.023239564 -0.0074320533 -0.022126459 -0.020249719
0002c0 4d 9d 1e bd 43 aa 08 bb 2a 73 87 3c 68 bc 20 bd
       -0.038724232 -0.0020853437 0.016534407 -0.03924218
0002d0 7a 31 df 3b 51 90 be 3c ec 1e 96 3c 88 ee 1a 3c
       0.006811318 0.023262175 0.018325292 0.009456284
0002e0 a9 22 53 3d 47 7b 69 3d 3c 78 4d 3d 23 22 ac 3c
       0.051546726 0.057002332 0.050163493 0.021012371
0002f0 78 06 04 3c 03 90 67 3c 8d b6 28 bb 9a fa 36 bc
       0.008058183 0.014133456 -0.0025743574 -0.0111681465
000300 3f 0c c2 3c c1 f9 0a 3d f3 3c 0c 3a c2 3b 68 bb
       0.02368748 0.03392959 0.00053496583 -0.003543601
000310 c3 00 a3 3b 29 e7 17 3b 9d ec 54 3c b4 bc 68 3c
       0.004974456 0.0023178554 0.012995866 0.014205147
000320 ef 86 f2 bc 02 06 4e bc da 62 d2 3c 7a c7 ef 3a
       -0.029605357 -0.012574675 0.025681902 0.0018293702
000330 d7 48 90 bc b9 e3 14 bd 0e 8b fd bc f9 ac 11 bd
       -0.017612858 -0.036349986 -0.030950096 -0.03556535
000340 76 a7 54 bc a3 41 6c 3c d0 58 0a 3d 58 71 1d 3d
       -0.012979379 0.014419946 0.033776104 0.03843817
000350 c0 bd 75 ba 66 c3 a6 3c 52 37 28 3d 5d 99 9f 3d
       -0.0009374283 0.020356845 0.041068383 0.077929236
000360 81 3e 14 3d 0e 04 50 3c 77 91 dd 3c fd 97 3f bc
       0.03619242 0.012696279 0.027046902 -0.011693952
000370 f9 93 b9 bc 16 b6 e5 3c c3 f3 4e bc 09 86 31 bb
       -0.022653567 0.028040927 -0.0126313595 -0.0027087948
000380 1f 88 fe bc ea 1b e8 3c 82 1e 00 3d 6f f5 88 3c
       -0.031070767 0.028333623 0.031279095 0.016718594
000390 e8 c2 bb bc 22 75 14 bd cc 8f 0e bd f7 ee 5f 3c
       -0.022920087 -0.03624452 -0.034805104 0.0136678135
0003a0 46 0a 80 39 db 72 89 3c ee d5 58 3c 05 e5 2f 3c
       0.00024421717 0.0167784 0.013234599 0.010735755
0003b0 e4 65 15 3c 84 e5 24 bc 38 ad e6 bb dd 43 e6 bb
       0.009118531 -0.010064486 -0.0070396923 -0.007027133
0003c0 88 2f 2e 3d 9f 31 54 3c 93 98 1b 3d 00 df f9 3c
       0.042525798 0.012951284 0.037987303 0.030501842
0003d0 e4 96 25 3d 40 95 1d 3c 9a 5b a3 3a bd 5f b1 3c
       0.040427104 0.0096181035 0.0012463212 0.021652097
0003e0 1a c6 1b bc 19 91 c0 3c 24 e0 fa bb e4 2e b2 bc
       -0.00950768 0.023506688 -0.007656114 -0.021750875
0003f0 33 65 f3 ba f1 30 53 bc 6c 0a dd bb cd e1 f7 bc
       -0.0018569588 -0.0128900865 -0.006745627 -0.030259037

linear.bias f4 [10]
000000 da 4a a2 bc 77 28 08 3d b4 9a 64 bb 6d cf b8 3c
       -0.019811083 0.033241715 -0.003488225 0.022559846
000010 3b 19 82 3b b9 84 82 3c df e8 fa bc f5 c1 86 bb
       0.003970293 0.015932428 -0.03062862 -0.004112477
000020 ce 82 cf bb ab ef 31 3c
       -0.006332732 0.010860364
