saved_models/SGDLinear.pth (torch, 32932 bytes, 2 tensors)

linear.weight f4 [10, 784]
0	0x3cf9f539	0.03051244
1	0x3d068e65	0.03285064
2	0xbba91007	-0.0051593813
3	0x3d138484	0.03601505
4	0xbb974f88	-0.004617635
5	0x3c2aa0c6	0.010414308
6	0xbc685404	-0.014180187
7	0x3cc6190f	0.02418187
8	0x3d0e1857	0.03469118
9	0xbcbc5ce7	-0.022993518
10	0x3d0c49f6	0.034250222
11	0x3c22110a	0.009891758
12	0x3cf26e1d	0.029593522
13	0x3c03cc3f	0.0080443015
14	0x3ca759a7	0.020428492
15	0xbaf085c9	-0.0018350418
16	0x3cfbd09d	0.030739123
17	0x3c0b0a7b	0.008486385
18	0xbc5c9dd2	-0.013465362
19	0x3c49b418	0.012311004
20	0xbc590b92	-0.0132473875
21	0xba808ef9	-0.0009808234
22	0xbc391bec	-0.011298161
23	0x3cdc5bf1	0.02689931
24	0xbcccabe3	-0.024984306
25	0xbc593492	-0.013257163
26	0xbbe15b25	-0.0068773204
27	0xbc95a3b1	-0.01826653
28	0x3bd78ef2	0.0065783197
29	0xbd03586e	-0.032066755
30	0x3d113ff8	0.035461396
31	0xbcde4121	-0.027130665
32	0x3cfc261d	0.030779893
33	0x3c15ee3a	0.009151036
34	0xbc09726c	-0.008389097
35	0x3ccf11fd	0.025277132
36	0x3c0fbf1f	0.008773594
37	0x3d0354d7	0.03206333
38	0x3be909c9	0.007111762
39	0xbc03d02c	-0.0080452375
40	0x3c521cea	0.012824276
41	0xbbda4391	-0.0066608866
42	0x3c93f99c	0.018063359
43	0x3d0e0bbd	0.034679163
44	0x3cc31a1a	0.023816157
45	0xbc4b5e3d	-0.012412605
46	0x3cc321d4	0.023819841
47	0x3c1d3fbb	0.009597714
48	0x3cae2940	0.021259904
49	0xbca0e123	-0.019638604
50	0xbd05b292	-0.032641
51	0xbc2d8648	-0.010591097
52	0xbcc6221c	-0.024186186
53	0x3d052bc9	0.03251246
54	0x3c5d1750	0.013494328
55	0x3c937679	0.018000828
56	0x3c6d9c0c	0.0145025365
57	0x3b297d5d	0.0025862076
58	0x3cff3e9a	0.03115778
59	0xbcb599ab	-0.022168001
60	0x3bb2c9e9	0.0054561985
61	0xbcad6a81	-0.02116895
62	0x3c68fb26	0.014220035
63	0xbc14f6be	-0.009092031
64	0x3c66a293	0.014076847
65	0xbb8ee78c	-0.0043610986
66	0x3d055ac9	0.032557283
67	0xbc9ccf2a	-0.019141752
68	0xbca9db53	-0.020734465
69	0xbcb05f17	-0.021529717
70	0x3d01d45b	0.03169666
71	0x3c4808fc	0.012209173
72	0x3d0f251b	0.034947496
73	0xbcf54ccb	-0.029943844
74	0xbd128775	-0.035773713
75	0xbceafeb3	-0.028685903
76	0xbcc2cd78	-0.023779616
77	0x3c866be8	0.016408876
78	0x3c745fe2	0.014915438
79	0x3d067f9a	0.032836534
80	0xbc7a2dc4	-0.0152697
81	0xbcad2c75	-0.021139363
82	0x3cb581fd	0.02215671
83	0xbc37f73e	-0.011228381
84	0x3ccbd825	0.02488334
85	0xbbac9b3b	-0.0052675284
86	0x3cc1a3d9	0.023637699
87	0xbcc90b07	-0.024541391
88	0xbc72d904	-0.014822248
89	0x3c66d74d	0.014089418
90	0x3c303124	0.010753904
91	0xbbc1d5a6	-0.0059153615
92	0x3cc7097a	0.024296511
93	0x3cd9765f	0.026545702
94	0xbccf5947	-0.025311125
95	0xbca85ae2	-0.020551149
96	0x3d02f567	0.031972315
97	0xbc6cd977	-0.0144561445
98	0xbc809726	-0.015697073
99	0xbd1bd5b9	-0.03804562
100	0xbcd0ebd5	-0.025503078
101	0x3b0848be	0.002079531
102	0xbc36b8b9	-0.01115244
103	0xbcf3ba61	-0.029751958
104	0xba87f616	-0.0010373022
105	0xbcbf6d98	-0.023367688
106	0xbce52f3b	-0.027976623
107	0xbc8951ec	-0.016762696
108	0xbce790fe	-0.02826738
109	0xbca05d73	-0.01957581
110	0x3d1f5dce	0.03890782
111	0x3c23120a	0.009953031
112	0x3c68de78	0.014213197
113	0xbcf699de	-0.030102666
114	0xbca5e0b0	-0.02024874
115	0xbc0e3784	-0.008680228
116	0x3c098074	0.008392442
117	0xbcee382a	-0.029079515
118	0xbc67f51c	-0.01415756
119	0xbcac3a01	-0.021023752
120	0xba7e4b6a	-0.00097005686
121	0xbc87da17	-0.016583486
122	0xbbf883b2	-0.0075840587
123	0xbcf5379a	-0.02993374
124	0xbcd523ab	-0.026017984
125	0xbc8bbb10	-0.017056972
126	0xbbd036cb	-0.006354188
127	0xbc8d6c96	-0.017263692
128	0x3d074ed4	0.03303416
129	0xbb6e5767	-0.0036368014
130	0x3cffba25	0.03121669
131	0x3c1affde	0.009460418
132	0xbd024655	-0.031805355
133	0x3cb190c3	0.021675473
134	0xbc10dbb8	-0.0088414475
135	0xbc2be434	-0.01049142
136	0xbcd4c1ba	-0.025971282
137	0xbd0320bf	-0.03201365
138	0x3c5b598f	0.013388052
139	0xbb9689de	-0.004594072
140	0x3c8c2e39	0.017111884
141	0xbcd5d3b3	-0.026101923
142	0x3cf37d40	0.02972281
143	0xbcbc7cd2	-0.023008738
144	0xbb697f4b	-0.003562885
145	0x3c0384ba	0.00802725
146	0x3c8ce8ff	0.017200945
147	0x3cc9e43d	0.024644965
148	0x3cc81f61	0.024429025
149	0xbd1fda87	-0.039026763
150	0xbbb7eae0	-0.005612716
151	0xbcb6cb73	-0.022313809
152	0x3b1ba052	0.0023746681
153	0xbc8c6dbe	-0.017142173
154	0x3d60a7b2	0.054847427
155	0xbb89ac05	-0.0042014145
156	0x3d3b6725	0.045752663
157	0x3d1ca292	0.038240977
158	0x3cf4e716	0.029895347
159	0xbbb37bd5	-0.0054774084
160	0x3d1f6ee7	0.038924124
161	0x3bf16580	0.007366836
162	0x3adafceb	0.0016707456
163	0xbd033f71	-0.032042924
164	0x3c87761a	0.016535807
165	0xbb1488cf	-0.0022664552
166	0xbc58028a	-0.013184199
167	0x3d0aca20	0.033884168
168	0x3c37022d	0.011169952
169	0xbc8798de	-0.016552385
170	0xbc739cac	-0.014868896
171	0x3ac19cff	0.001477152
172	0x3cb201dc	0.021729402
173	0xbc1275e5	-0.008939241
174	0xbcc15af4	-0.02360294
175	0xbca89905	-0.020580778
176	0xbd29a126	-0.04141345
177	0xbbcd7e07	-0.006271127
178	0x3c5e91d8	0.013584577
179	0xbd126bd3	-0.03574736
180	0x3c4f4cbb	0.012652571
181	0x3cf8dc57	0.030378504
182	0x3ca30ba7	0.019903017
183	0x3be639f6	0.0070259525
184	0x3d36f959	0.04467139
185	0x3d65606b	0.056000154
186	0x3d433d6b	0.047665995
187	0x3c848082	0.016174559
188	0x3b20cbc7	0.0024535523
189	0x3c4fd41d	0.012684849
190	0xbbf2ba1d	-0.0074074403
191	0xbc4df4b1	-0.012570546
192	0x3cb9f5a6	0.022700142
193	0x3d08cb45	0.033396978
194	0xb9eac9ff	-0.00044782457
195	0xbb9ceb8f	-0.004788823
196	0x3b745c4e	0.0037286463
197	0x3a8ce8d7	0.0010750544
198	0x3c40e1b3	0.011772561
199	0x3c56bf35	0.013107111
200	0xbcfab946	-0.030605923
201	0xbc4dbacd	-0.012556744
202	0x3cda20e2	0.026627008
203	0x3b5c642a	0.0033629038
204	0xbc9f4756	-0.019443195
205	0xbd2153ff	-0.039386746
206	0xbce45104	-0.027870663
207	0xbce7ba98	-0.028287217
208	0xbb743393	-0.0037262186
209	0x3c9c66a7	0.019091917
210	0x3d165bc8	0.036708623
211	0x3d1c1af1	0.03811163
212	0xbc3dee8b	-0.011592518
213	0x3bda930b	0.006670361
214	0x3d079cdd	0.03310858
215	0x3d8e54ff	0.069498055
216	0x3d023853	0.031791996
217	0x3bcb3e71	0.006202512
218	0x3c9af04b	0.018913409
219	0xbc6bcbf1	-0.014391885
220	0xbcbadd09	-0.022810476
221	0x3ce31d03	0.027723795
222	0xbc5d51d5	-0.01350828
223	0xbb81800d	-0.0039520324
224	0xbd046343	-0.032321226
225	0x3cde15ce	0.027110007
226	0x3cf5ccb8	0.030004844
227	0x3c82566a	0.015910346
228	0xbcbd09f6	-0.023076039
229	0xbd113bf9	-0.035457585
230	0xbd0d986d	-0.034569193
231	0x3c64e756	0.01397117
232	0x3a5aad17	0.00083418324
233	0x3c9dc3c0	0.01925838
234	0x3c82db22	0.015973631
235	0x3ca01e87	0.019545807
236	0x3c8d5647	0.017253054
237	0xbbfebebb	-0.0077742017
238	0xbc856211	-0.016282113
239	0xbc74d120	-0.014942437
240	0x3d067d3f	0.032834288
241	0x3b97c9be	0.004632204
242	0x3d04f262	0.032457717
243	0x3ca2e873	0.019886231
244	0x3d24af86	0.040206455
245	0x3b9a025d	0.0046999888
246	0xbbc70933	-0.0060740947
247	0x3c7b9b08	0.015356787
248	0xbc3401ca	-0.010986755
249	0x3cba0f1c	0.022712283
250	0xbc128fc1	-0.008945406
251	0xbcbc5857	-0.022991342
252	0xbb4ac301	-0.0030938985
253	0xbc671854	-0.014104921
254	0xbbf349ce	-0.0074245697
255	0xbcfbe8c5	-0.030750642

linear.bias f4 [10]
0	0xbc8a3e35	-0.016875366
1	0x3cf56c7c	0.029958956
2	0xbb9ba6f6	-0.004750128
3	0x3cc95a69	0.024579244
4	0x3b8ecdf1	0.004358046
5	0x3c6a1480	0.014287114
6	0xbd01f56e	-0.0317282
7	0xbbb2acf5	-0.005452747
8	0xbb1dab2d	-0.0024058328
9	0x3c277f20	0.01022318
