saved_models/SGDSVM.pth (torch, 32850 bytes, 2 tensors)

model.0.weight f4 [10, 784]
0	0x3c8ebe38	0.017424688
1	0x3c426bc9	0.011866518
2	0x3c4cc357	0.0124977445
3	0x3ca5c996	0.020237725
4	0x3c8cedbf	0.01720321
5	0x3d42672c	0.047461674
6	0x3c6fa6b0	0.014627144
7	0x3d02c258	0.031923622
8	0x3d6d8f76	0.057998143
9	0x3d606213	0.05478103
10	0xbbed8565	-0.007248568
11	0x3d0977ee	0.03356164
12	0x3d62ab0b	0.0553389
13	0x3c896f90	0.01677683
14	0x3d3895c3	0.0450647
15	0x3d233beb	0.039852064
16	0x3d41c9c5	0.047311563
17	0x3d5dd263	0.05415572
18	0x3d4e1025	0.050308365
19	0x3cc30404	0.023805626
20	0x3cbef340	0.02330935
21	0xbab56e96	-0.0013842161
22	0xbbe5d59f	-0.007013991
23	0xbc0d48d1	-0.008623318
24	0x3d712ddc	0.058881626
25	0xbbfa63b7	-0.0076412815
26	0x3cacbeaa	0.02108701
27	0x3ccf16e7	0.025279475
28	0x3ca221f1	0.019791575
29	0x3c9a8499	0.018862056
30	0x3b80193c	0.003909258
31	0x3d24f3b9	0.040271495
32	0x3d106f45	0.035262365
33	0x3d1afadc	0.037836894
34	0xba92d391	-0.0011201968
35	0x3d66d8f6	0.056359254
36	0x3d25c687	0.040472534
37	0x3ce8ce17	0.028418584
38	0x3cb4b617	0.022059483
39	0x3d4041cd	0.046937753
40	0x3d1908c5	0.03736188
41	0x3d4ae803	0.04953767
42	0x3d5e950d	0.054341365
43	0xbb20dc85	-0.0024545502
44	0x3c9b224e	0.018937256
45	0x3d0b86a9	0.03406397
46	0x3bcafda8	0.006194789
47	0x3bdac2c7	0.0066760513
48	0x3d23a980	0.03995657
49	0xbbd727c1	-0.0065660183
50	0xbc126ead	-0.00893752
51	0x3bd6ace5	0.0065513724
52	0x3c35d43f	0.011097967
53	0x3d6f8081	0.05847216
54	0x3d54d75e	0.051963203
55	0x3c920d2d	0.017828548
56	0x3d76565b	0.06014095
57	0x3c5f3546	0.013623541
58	0xb950de26	-0.00019919183
59	0xbc080c6e	-0.008303745
60	0x3d1f2bcc	0.038860127
61	0xbbdf55a0	-0.006815627
62	0x3c85501d	0.016273553
63	0x3c8293b7	0.015939577
64	0x3d0f9c23	0.035061013
65	0x3d2f3330	0.042773426
66	0x3cf7c9a5	0.030247519
67	0x3cf49b28	0.02985914
68	0x3cec3a92	0.028836522
69	0x3cd6929a	0.026192952
70	0x3c5d0041	0.01348883
71	0xbbd37c57	-0.0064540314
72	0x3b1a5576	0.0023549474
73	0x3c4d5c04	0.012534145
74	0x3d0bed55	0.034161884
75	0x3bd89f34	0.0066107754
76	0xba9ea6c0	-0.0012104139
77	0x3d1dd84e	0.038536362
78	0x3d4a52a0	0.049395204
79	0xbc040bdd	-0.008059469
80	0x3ca34d4e	0.019934323
81	0x3d4c6e18	0.04990968
82	0x3cc68a1a	0.024235774
83	0x3d332093	0.043732237
84	0x3d241de8	0.040067583
85	0x3d3288fc	0.04358767
86	0x3d1ef777	0.03881022
87	0x3cca692e	0.024708357
88	0x3d1f30af	0.038864788
89	0x3c372472	0.011178123
90	0x3d5bf998	0.053704828
91	0x3d04c158	0.03241095
92	0x3d470dd8	0.048597187
93	0x3b361d4b	0.0027788456
94	0xbcd9dcd5	-0.026594559
95	0x3cadb58c	0.021204732
96	0xbd10564f	-0.03523856
97	0x3b9dc990	0.004815288
98	0xbc434678	-0.0119186565
99	0xbc5330fb	-0.012890096
100	0xbb4c2ac3	-0.0031153418
101	0xbd5edfeb	-0.054412764
102	0xbd283577	-0.041066613
103	0xbbc464fb	-0.005993483
104	0xbc881b06	-0.016614448
105	0x3c0187ca	0.00790591
106	0x3d239970	0.03994125
107	0x3d5250aa	0.05134646
108	0x3d0cb3f9	0.034351323
109	0x3d039052	0.032120056
110	0x3c72acc4	0.014811698
111	0x3d597d0f	0.05309778
112	0x3c397b9b	0.011320974
113	0x3d5d92a5	0.05409493
114	0x3c7033aa	0.014660755
115	0x3d774021	0.060363892
116	0x3cfecf3b	0.031104675
117	0x3d49aa75	0.049234826
118	0x3c5343d2	0.012894588
119	0x3d18f619	0.037344072
120	0x3bc00e2c	0.0058610644
121	0x3c0672cf	0.008206083
122	0xbd03b66c	-0.032156393
123	0xbc261433	-0.010136652
124	0xbc818edb	-0.01581519
125	0xbc1964bd	-0.009362397
126	0xbc9a0f50	-0.01880613
127	0xbc24de68	-0.010062791
128	0xbcc9b760	-0.024623573
129	0x3b659de3	0.0035036735
130	0x3c2c2dc1	0.010508955
131	0xbcc8f698	-0.024531648
132	0x3b554af7	0.0032545903
133	0x3bf74ce4	0.007547008
134	0xbc15ee00	-0.009150982
135	0xbc1d0876	-0.009584537
136	0x3ccf821a	0.025330592
137	0xba268362	-0.0006351975
138	0xbb977315	-0.004621873
139	0x3c7488ce	0.014925195
140	0x3c489fb5	0.012245108
141	0x3d444493	0.04791696
142	0x3d3037a1	0.0430218
143	0xbb0104f6	-0.0019686795
144	0x3caa3b77	0.020780308
145	0xbc8d708b	-0.017265579
146	0xbb1363a1	-0.0022489803
147	0xbd3581c5	-0.04431321
148	0xbd6e74af	-0.058216747
149	0xbcf626b5	-0.030047754
150	0xbca4b191	-0.020104202
151	0xbd2b8593	-0.041875433
152	0xbcfb6786	-0.030689012
153	0x3d1a0a44	0.037607446
154	0x3cf8cbb8	0.030370578
155	0x3ca4491d	0.020054394
156	0x3d1ecb60	0.038768172
157	0x3c8908f8	0.01672791
158	0x3cab3c70	0.020902842
159	0xbcaae9c2	-0.020863418
160	0xbb065d84	-0.0020502517
161	0xbc0d59d5	-0.008627375
162	0xbcce509c	-0.025184922
163	0x3c1599d8	0.0091309175
164	0x3baa2b39	0.005193141
165	0x3d33ab0e	0.043864302
166	0x3c88af43	0.016685134
167	0x3d02c581	0.031926636
168	0x3d39be69	0.045347605
169	0xba81480e	-0.0009863393
170	0x3ccb704e	0.024833824
171	0x3cd10486	0.025514852
172	0xbc15b563	-0.009137484
173	0xbc6cb1d7	-0.014446697
174	0x3c2d7282	0.010586383
175	0xbd03c903	-0.03217412
176	0xbd218d21	-0.03944123
177	0xbd220228	-0.039552838
178	0xbbb05811	-0.005381592
179	0xbcb21a89	-0.021741169
180	0x3cf4f6a7	0.02990277
181	0x3bc04b50	0.005868353
182	0x3d3757f5	0.044761617
183	0x3cdd0ae8	0.02698274
184	0x3d0cf42f	0.03441256
185	0x3d54473e	0.051825754
186	0x3c87c8e4	0.016575284
187	0x3c4ff462	0.012692543
188	0x3c62fd26	0.013854301
189	0x3cf87c4c	0.030332707
190	0x3c5ea519	0.013589167
191	0xbc7c789c	-0.015409615
192	0xbc785852	-0.015157776
193	0xbadc0454	-0.0016785958
194	0x3d18b395	0.037280638
195	0x3d3f1b11	0.046656672
196	0xb861efbb	-5.3867447e-05
197	0x3d6b3972	0.05742783
198	0x3cb53b35	0.022122959
199	0x3c0af212	0.008480566
200	0x3ba479f0	0.005019419
201	0xbcb82c91	-0.022482188
202	0xbcd7c5eb	-0.026339492
203	0xbd80a809	-0.0628205
204	0xbd8377fd	-0.0641937
205	0xbc5bde85	-0.013419752
206	0x3cbffd7e	0.023436304
207	0xbc1f9205	-0.009739404
208	0xbb5beac4	-0.003355668
209	0xbc120a30	-0.008913562
210	0xbc097247	-0.008389062
211	0x3a840cfd	0.0010074672
212	0x3d3b3637	0.045706
213	0x3d3e6c7d	0.04649018
214	0x3d762ac2	0.06009937
215	0x3cf81100	0.030281544
216	0xbbd6a9df	-0.006551012
217	0x3c84fe03	0.016234403
218	0xbcbf1115	-0.023323575
219	0x3c9a4e6c	0.018836223
220	0xbd1ad049	-0.037796292
221	0xbce7afa8	-0.028282002
222	0xbc6c3919	-0.01441791
223	0x3caec96b	0.021336278
224	0xba7b53d1	-0.000958738
225	0x3cc356d2	0.02384511
226	0x3c70232a	0.014656821
227	0xb9c3da54	-0.00037355965
228	0x3a71af2b	0.00092195225
229	0x3c223383	0.009899977
230	0xbd4d33ac	-0.050098106
231	0xbc0e978a	-0.008703122
232	0xbd5fd192	-0.05464322
233	0xbcec386a	-0.028835494
234	0xbbbe7167	-0.0058118585
235	0x3ca9cf15	0.020728627
236	0x3cdd3267	0.027001573
237	0x3cbef9b9	0.023312436
238	0xbc826391	-0.015916618
239	0x3d2228de	0.039589755
240	0x3d7e2598	0.06204757
241	0x3d95c78b	0.073134504
242	0x3d3f1231	0.046648208
243	0x3d0aba5a	0.033869125
244	0xba08688f	-0.0005203569
245	0x3ac4e499	0.0015021741
246	0x3c7aa3c5	0.015297835
247	0xbc9fd882	-0.019512419
248	0x3c68084e	0.014162136
249	0x3c32596e	0.0108855795
250	0x3d272315	0.04080494
251	0x3c51bc34	0.012801219
252	0x3cfabb12	0.03060678
253	0x3d6f2e43	0.058393728
254	0xbbfb6a79	-0.0076726046
255	0xbbeb976c	-0.0071896818

model.0.bias f4 [10]
0	0xbd356409	-0.044284854
1	0xbd87207c	-0.06597993
2	0xbd13f1f0	-0.0361194
3	0xbd2bdf30	-0.041960895
4	0xbd675367	-0.056476023
5	0xbd1c9d4b	-0.038235944
6	0xbd1591cc	-0.036515996
7	0xbd82e50f	-0.06391346
8	0xbdc84efd	-0.09780691
9	0xbd49ecb4	-0.049298003
